pretrained/Partitioner/cvrp/cvrp-2000-cvrplib.pt (torch, 988666 bytes, 291 tensors)

emb_net.v_lin0.weight f4 [48, 3]
0	0x3e94af2d	0.290399
1	0xbe851544	-0.25992787
2	0xbdd3081b	-0.1030428
3	0x3e82417e	0.25440592
4	0xbf0a2754	-0.5396626
5	0x3eb716de	0.35759634
6	0xbe025503	-0.12727742
7	0x3e929071	0.28625825
8	0x3d9e90d2	0.07742466
9	0xbd896c1a	-0.06710072
10	0x3e2dcbd7	0.1697229
11	0x3cd00d5e	0.025396999
12	0x3e549474	0.20759755
13	0xbe6153a4	-0.22004563
14	0xbd334195	-0.043763716
15	0xbd4bb59b	-0.04973374
16	0x3dc37ba2	0.095450655
17	0xb88e7143	-6.792184e-05
18	0x3efd2a2f	0.49446246
19	0x3e3fa342	0.18714622
20	0xbe5a8958	-0.21341455
21	0xbeb1b799	-0.34710386
22	0xbdcc8579	-0.099863954
23	0xbe82748f	-0.25479552
24	0xbe4e00d4	-0.20117503
25	0x3d0307bf	0.03198981
26	0x3eb45fa5	0.3522922
27	0x3ea12653	0.31474552
28	0xbf0e420e	-0.5556954
29	0x3eb69e90	0.3566785
30	0x3e2a118a	0.16608253
31	0x3f0b31b1	0.543727
32	0x3ec02bbf	0.37533376
33	0xbf08cab7	-0.5343432
34	0xbf0d589a	-0.5521332
35	0xbe89d042	-0.269167
36	0x3f029bff	0.5101928
37	0xbdab31de	-0.08359121
38	0x3e7d38c1	0.24728681
39	0xbe8c0c2c	-0.27353036
40	0x3f0f2e04	0.5592959
41	0xbe7a49af	-0.2444217
42	0x3ee3187e	0.44354624
43	0x3b93a4d6	0.004505734
44	0xbea151af	-0.31507632
45	0x3e908c74	0.28232157
46	0xbea424fd	-0.3205947
47	0x3e2755ac	0.16341275
48	0xbe35f80c	-0.17770404
49	0xbd81f843	-0.0634618
50	0xbf0dc7d9	-0.5538307
51	0xbe8ff068	-0.28113103
52	0x3e9e4d51	0.30918363
53	0xbe18a292	-0.14905766
54	0x3f138f93	0.5764095
55	0x3ef10a75	0.4707829
56	0xbd4278cf	-0.047478493
57	0xbec89067	-0.3917267
58	0x3eb688cd	0.35651246
59	0x3e3c21f3	0.18372326
60	0xbebf32dc	-0.3734349
61	0x3ec1e1a7	0.37867472
62	0x3eb57904	0.3544389
63	0x3f018403	0.5059206
64	0xbea87350	-0.32900476
65	0xbdd4b9ed	-0.10387025
66	0xbc784c76	-0.015154948
67	0x3da1e04d	0.0790411
68	0xbedf1c14	-0.4357611
69	0xbed5c0cc	-0.41748655
70	0x3ea0d54f	0.31412742
71	0xbdfe1ccf	-0.124078386
72	0x3e88521d	0.26625147
73	0x3c992d4a	0.018698353
74	0x3e3d72f6	0.18500885
75	0x3e0e2a2f	0.1388328
76	0x3e511599	0.20418395
77	0x3e8fb19e	0.280652
78	0xbf066ffd	-0.5251463
79	0x3e91d270	0.28480864
80	0xbeca5fda	-0.39526254
81	0xbee6aeb8	-0.45055175
82	0x3d2f1a54	0.042749718
83	0xbdc7f496	-0.09763448
84	0x3eb1db3c	0.34737575
85	0xbeada81b	-0.33917317
86	0xbf02d243	-0.51102084
87	0x3ed7b592	0.42130715
88	0xbdb16cbc	-0.086633176
89	0x3ea69c72	0.32541233
90	0x3e4a7bdc	0.19773811
91	0xbed9877c	-0.4248618
92	0x3df62fe1	0.12020851
93	0x3e1349b0	0.14383578
94	0xbec413ef	-0.38296458
95	0xbe8c4fe8	-0.27404714
96	0x3e525ec0	0.20543957
97	0x3dceaa25	0.10091046
98	0xbe7cebf3	-0.24699382
99	0xbe324e38	-0.1741265
100	0x3f05c084	0.5224688
101	0xbdbb0839	-0.09132428
102	0x3ea88561	0.3291426
103	0x3e70a684	0.2350102
104	0xbebbb614	-0.36662352
105	0xbefe828f	-0.49708983
106	0x3f0ebf5f	0.5576076
107	0x3d196af5	0.037455518
108	0x3ecf8aee	0.40535682
109	0x3df324d0	0.11872256
110	0x3e329e44	0.17443186
111	0x3ed732cb	0.4203094
112	0x3f097b91	0.5370417
113	0xbec4a57d	-0.38407508
114	0x3da841d4	0.08215681
115	0x3ee1a875	0.44073835
116	0x3edb9343	0.4288579
117	0x3eb71953	0.35761508
118	0xbed225c2	-0.41044432
119	0xbed24569	-0.4106858
120	0xbeb07c78	-0.34469962
121	0x3d88140d	0.066444494
122	0x3f0ee452	0.5581714
123	0xbeb66560	-0.35624218
124	0x3e9e5d4e	0.3093056
125	0xbea517c6	-0.322447
126	0xbf07122b	-0.527621
127	0xbdf90bbc	-0.12160441
128	0x3ea6e869	0.3259919
129	0x3f08b6f7	0.5340418
130	0xbebc7887	-0.36810705
131	0x3e000097	0.12500225
132	0x3f03911b	0.5139329
133	0x3ec23761	0.37932876
134	0x3eb7343e	0.35782045
135	0x3ed5d302	0.4176255
136	0x3ebf22fc	0.37331378
137	0x3e1b68cb	0.15176694
138	0xbec6fe5e	-0.38865942
139	0xbef5e875	-0.48028913
140	0xbe875400	-0.26431274
141	0xbd7fb940	-0.062432528
142	0xbeb1bd09	-0.34714535
143	0x3e59f63c	0.21285337

emb_net.v_lin0.bias f4 [48]
0	0x3e456d00	0.19279861
1	0xbdf83bfb	-0.12120815
2	0x3e640bfc	0.22270197
3	0x3e3ac1bb	0.18237965
4	0x3eb5000d	0.353516
5	0x3eca0965	0.39460292
6	0xbe4ea2e8	-0.20179331
7	0x3f106692	0.5640651
8	0xbd5e8396	-0.05432471
9	0xbcb75a20	-0.022381842
10	0xbf0d5ef3	-0.55223006
11	0xbec13617	-0.3773658
12	0xbeab0c04	-0.33407605
13	0xbe801b80	-0.2502098
14	0x3ece972b	0.40349707
15	0xbe4d23fd	-0.2003326
16	0xbedc76fa	-0.43059522
17	0x3e58e830	0.21182323
18	0x3e45d59d	0.19319768
19	0x3ec22855	0.37921396
20	0xbe92f1ab	-0.28700003
21	0x3ded6b7d	0.115927674
22	0xbe5c2281	-0.21497537
23	0xbe0be660	-0.136621
24	0xbef0add7	-0.4700763
25	0xbe84bd3d	-0.25925627
26	0xbe3f6a39	-0.18692864
27	0x3e6a8a16	0.22904238
28	0x3dcf7744	0.1013017
29	0x3e11fe35	0.14257129
30	0x3f159b3f	0.5844001
31	0x3f11f050	0.5700731
32	0x3ecab12c	0.39588296
33	0x3c801649	0.015635626
34	0xbece6b37	-0.40316173
35	0x3eea01ae	0.45704406
36	0xbe14d2fe	-0.14533612
37	0xbd5ddf19	-0.05416784
38	0xbef99213	-0.48744258
39	0xbdf4c2c7	-0.11951213
40	0xbec24dea	-0.3795007
41	0x3f062dc4	0.5241358
42	0xbf00e9ce	-0.5035676
43	0xbee8959f	-0.45426652
44	0xbc499812	-0.012304323
45	0xbe9c9f48	-0.30590272
46	0x3e5f4d3f	0.21806811
47	0xbe5cbd59	-0.21556605

emb_net.v_lins1.0.weight f4 [48, 48]
0	0xbd8a400b	-0.067504965
1	0x3b9a1de7	0.0047032717
2	0x3dbb09be	0.091327175
3	0xbde92de7	-0.11385708
4	0x3d6f5009	0.058425937
5	0x3da6123c	0.08108947
6	0x3e1b6cce	0.15178224
7	0xbdc9829f	-0.09839367
8	0x3ce0a833	0.027423954
9	0xbde4b72b	-0.11167749
10	0x3df325bc	0.11872432
11	0xbd339311	-0.043841425
12	0x3da94811	0.08265699
13	0x3c943435	0.0180913
14	0xbbc8fe92	-0.006133863
15	0xbc12852e	-0.008942885
16	0x3d191f43	0.03738333
17	0x3d8fa4b0	0.070138335
18	0x3c81815a	0.01580875
19	0x3d02ec0d	0.031963397
20	0xbe0b082e	-0.13577339
21	0x3dd96ede	0.10616849
22	0x3e0d0444	0.13771158
23	0x3e058113	0.13037519
24	0x3dd74fb9	0.10513253
25	0xbde2adef	-0.110683315
26	0xbd27fff5	-0.041015584
27	0x3e00deff	0.12585066
28	0xbdcc5f97	-0.0997917
29	0x3df7c5ef	0.120983
30	0xbe0420fa	-0.12903205
31	0xbdc9900f	-0.0984193
32	0x3d971db6	0.07378714
33	0xbdca7f10	-0.098875165
34	0xbca22224	-0.01979167
35	0x3dc3d7aa	0.09562619
36	0x3dd74cd4	0.10512701
37	0x3e16dfa2	0.14733747
38	0xbd0a1309	-0.03370956
39	0xbdcff19a	-0.10153504
40	0x3e0dd609	0.13851179
41	0xbcd57f3d	-0.026061649
42	0xbd72f1af	-0.05931252
43	0x3d28763c	0.041128382
44	0xbde10560	-0.10987353
45	0x3db33d2c	0.08751902
46	0x3dc79038	0.097443044
47	0xbdf06b19	-0.11739177
48	0xbded10b7	-0.11575454
49	0xbbfa698c	-0.0076419767
50	0x3d40380d	0.046928454
51	0xbcad51b2	-0.02115712
52	0xbd98e39f	-0.0746529
53	0xbc477013	-0.012172717
54	0xbe110b8d	-0.14164563
55	0xbdd70044	-0.104980975
56	0xbdbad4bb	-0.09122606
57	0x3dfc963c	0.123333424
58	0x3e0904c5	0.13380726
59	0xbd034851	-0.03205139
60	0x3c5c4735	0.013444711
61	0x3d4deb63	0.05027331
62	0x3c6795a3	0.014134797
63	0xbd853a6e	-0.06505285
64	0x3dc862e8	0.0978449
65	0x3d9adc50	0.075615525
66	0xbcb45d54	-0.022017159
67	0xbce5d34e	-0.02805486
68	0x3e0b19ac	0.13584012
69	0x3e068488	0.13136494
70	0xbd9c1f41	-0.07623149
71	0x3e02ecf3	0.12785701
72	0x3d30506e	0.043045454
73	0xbdba9adf	-0.091115706
74	0x3d96b1e8	0.07358152
75	0xbdedc29a	-0.11609383
76	0x3e12e82f	0.14346384
77	0xbdb64f84	-0.08901885
78	0x3d23a0d3	0.039948296
79	0x3d3ebc83	0.046566498
80	0x3ce1729b	0.027520468
81	0x3dd9353e	0.10605858
82	0xbd76bd1b	-0.06023894
83	0xbd99a947	-0.0750299
84	0xbdfb6a6f	-0.1227616
85	0xbc931504	-0.017954357
86	0xbd796485	-0.06088688
87	0x3c9cc4ea	0.019136865
88	0xbcb42f78	-0.021995291
89	0x3d1d6274	0.03842397
90	0x3e076de2	0.1322551
91	0x3d56b0d4	0.05241473
92	0xbd35693e	-0.04428982
93	0xbd9123cf	-0.07086908
94	0xbdf09b02	-0.117483154
95	0x3e030c1c	0.12797588
96	0xbcd8718d	-0.026421333
97	0x3cdac0a1	0.02670318
98	0x3bdfb99f	0.0068275477
99	0xbdb7ec47	-0.08980613
100	0x3da707f6	0.08155815
101	0x3da6e56c	0.081492275
102	0x3bfd0cb2	0.0077224607
103	0xbda6d630	-0.08146322
104	0xbd7da916	-0.06192883
105	0xba4a2b27	-0.00077121187
106	0xbda7aaf0	-0.081869006
107	0xbda55cca	-0.08074339
108	0xbcb5f25e	-0.022210296
109	0xbd2b76d1	-0.04186136
110	0x3d12b26a	0.03581468
111	0xbd21e958	-0.039529175
112	0xbcb08de0	-0.021552026
113	0xbd5cc9db	-0.053903442
114	0xbe04bea9	-0.12963356
115	0x3e017939	0.12643899
116	0x3ce16695	0.027514735
117	0x3e053d05	0.13011558
118	0xbcc52ef7	-0.024070246
119	0xbd0c4d73	-0.03425355
120	0xbe0a88f5	-0.13528807
121	0xbd60accb	-0.05485229
122	0x3dbf7cd0	0.09349978
123	0xbe0fe2a8	-0.14051306
124	0xbd4cb357	-0.04997572
125	0x3db13cd1	0.08654178
126	0x3da882d7	0.08228081
127	0x3d5d0e1c	0.053968534
128	0xbce7f40a	-0.02831461
129	0xbc0a3c3c	-0.008437213
130	0xbcede1cd	-0.029038334
131	0xbd521877	-0.051292863
132	0x3d75eab3	0.06003828
133	0xbd4bf4e4	-0.049794093
134	0xbda5462d	-0.080700256
135	0x3d060f2f	0.032729324
136	0xbdd6242f	-0.1045612
137	0xbcfa06bd	-0.030520791
138	0x3d95b998	0.0731079
139	0x3d57f720	0.05272591
140	0x3dfa6e65	0.12228087
141	0xbdc89796	-0.09794538
142	0x3b205a09	0.0024467728
143	0xbd35eb4c	-0.04441385
144	0xbdb688cc	-0.08912811
145	0xbda5a7c7	-0.080886416
146	0x3d01f43a	0.031727053
147	0x3c089292	0.008335726
148	0xbdb1afa4	-0.08676079
149	0xbde34271	-0.11096657
150	0xbde5426f	-0.11194312
151	0x3e084b63	0.13310008
152	0xbcd0b31f	-0.025476037
153	0xbd2223be	-0.039584868
154	0xbd40da26	-0.047083043
155	0xbd8a1cfd	-0.0674381
156	0xbe0059fd	-0.12534328
157	0xbd96cee6	-0.073636815
158	0x3dab6e4b	0.08370646
159	0x3cd7a974	0.026325919
160	0xbd330c18	-0.043712705
161	0xbd74c047	-0.059753682
162	0x3db75092	0.089509144
163	0x3dcc1458	0.09964818
164	0x3e1196ee	0.14217731
165	0x3d0c0ef8	0.034193963
166	0x3d9ba9c7	0.07600742
167	0xbb107663	-0.002204322
168	0xbd9a3ad2	-0.0753075
169	0xbe0e21f4	-0.1388014
170	0x3dc4928b	0.09598263
171	0xbd03a9cd	-0.032144357
172	0x3d7d8457	0.061893787
173	0x3a9f4f62	0.0012154395
174	0xbe179520	-0.1480298
175	0xbd9e5292	-0.07730593
176	0x3d091749	0.033469472
177	0xbcd87eb4	-0.026427604
178	0xbe060740	-0.13088703
179	0x3d40de99	0.047087286
180	0x3b84b6a5	0.0040500932
181	0xbd1582bc	-0.03650163
182	0x3d83c0f0	0.06433284
183	0x3d09f8e8	0.03368464
184	0xbd3b9bf5	-0.04580303
185	0x3dff22b3	0.1245779
186	0x3da8553f	0.082193844
187	0x3ccad5b0	0.024760097
188	0xbce5b8ec	-0.02804228
189	0xbdf455a2	-0.11930396
190	0x3ddf02f3	0.108892344
191	0xbd169799	-0.03676567
192	0xbdc28120	-0.09497285
193	0x3dc017d9	0.093795486
194	0x3d4ce12d	0.05001943
195	0x3d0d2aed	0.034464765
196	0xbd04660e	-0.03232389
197	0xbd42f555	-0.047597248
198	0x3ce7ebbb	0.028310647
199	0x3ddff29b	0.10934945
200	0x3ca55640	0.020182729
201	0xbd8bb0ab	-0.06820806
202	0x3e12c047	0.1433116
203	0x3ae074d2	0.0017124659
204	0x3dee4014	0.11633316
205	0x3d220f6a	0.03956548
206	0x3e041eb5	0.12902339
207	0x3dab31ae	0.08359085
208	0xbd973d2e	-0.07384716
209	0x3dcf7f11	0.10131658
210	0x3924a715	0.00015702502
211	0xbdf03825	-0.11729459
212	0xbcfc5499	-0.030802058
213	0xbe06dd85	-0.1317044
214	0xbd963884	-0.07334998
215	0xbdc807c2	-0.09767105
216	0x3dd20436	0.102547094
217	0xbcf70a80	-0.030156374
218	0xbcb51fe5	-0.022109935
219	0x3d89c26b	0.067265354
220	0x3d6c22d7	0.057650413
221	0xbdc5f600	-0.096660614
222	0x3d480837	0.04883596
223	0x3d718703	0.058966648
224	0xbdeb0505	-0.11475567
225	0x3e01ac73	0.1266344
226	0xbdadd05d	-0.08487008
227	0xbd6e7429	-0.058216248
228	0xbdf2e923	-0.118608736
229	0x3e0b5e44	0.13610178
230	0x3ce30e54	0.027716793
231	0x3df5607f	0.11981296
232	0x3c362882	0.011118056
233	0x3da30f7d	0.079619385
234	0xbd2b2265	-0.041780848
235	0xbde084e5	-0.109628476
236	0x3cb20dbe	0.021735068
237	0xbc44cb92	-0.012011426
238	0xbc8a4375	-0.01687787
239	0xbd8eaf5b	-0.0696704
240	0xba36c5c9	-0.00069722213
241	0x3d0b64e6	0.03403177
242	0x3d5fef3c	0.05467151
243	0xbde785ba	-0.11304803
244	0x3d8961dd	0.06708119
245	0x3c8d2895	0.017231265
246	0x3dd314b0	0.1030668
247	0x3dd93381	0.10605527
248	0xbdf18be5	-0.11794261
249	0x3e067180	0.13129234
250	0xbe14869b	-0.14504473
251	0x3da367eb	0.07978805
252	0x3b88ff15	0.004180799
253	0x3d9811f2	0.07425298
254	0xbd960484	-0.0732508
255	0x3da2ea2a	0.079548195

emb_net.v_lins1.0.bias f4 [48]
0	0x3df089a6	0.11745004
1	0x3dc7eab4	0.09761563
2	0xbe09922b	-0.13434665
3	0xbcfb389c	-0.030666642
4	0x3c524c03	0.012835505
5	0xbd94459d	-0.0723984
6	0x3d8be09b	0.068299495
7	0xbd157d2b	-0.036496323
8	0xbdf28a1e	-0.1184275
9	0xbd7917d0	-0.060813725
10	0xbdb80ff8	-0.08987421
11	0x3d4cc3bb	0.04999135
12	0xbdd91899	-0.10600395
13	0xbd2351a8	-0.039872795
14	0x3c4a8a5d	0.01236209
15	0x3d818f22	0.063261285
16	0xbde29850	-0.110642076
17	0x3de61dc4	0.11236146
18	0xbdc19087	-0.094513945
19	0xbdea38bb	-0.11436602
20	0x3d801b1f	0.06255173
21	0xbdb75ded	-0.08953462
22	0x3dd0c85a	0.10194464
23	0x3d735c63	0.05941428
24	0xbd87f5c4	-0.06638673
25	0xbcd1aed2	-0.025596056
26	0xbd4bdd24	-0.049771443
27	0xbc8bc1c8	-0.017060176
28	0x3b073dd8	0.0020636227
29	0xbc5095ec	-0.012731057
30	0xbdb30bfe	-0.08742522
31	0xbdf1a91d	-0.11799834
32	0xbdbbb70b	-0.09165772
33	0x3cb3ba04	0.021939285
34	0x3c8f7efc	0.017516606
35	0xbd912264	-0.070866376
36	0xbcb8e1e9	-0.02256866
37	0xbb77f0f3	-0.0037832826
38	0x3dc6ecb0	0.09713113
39	0xbe07ffa0	-0.13281107
40	0xbd61954c	-0.05507402
41	0xbc81c31a	-0.015840102
42	0xbcff7059	-0.031181501
43	0xbd9e6c80	-0.077355385
44	0x3d8a6250	0.06757033
45	0xbd82d0c3	-0.063874744
46	0x3c8413d4	0.016122736
47	0xbda4c6c9	-0.08045728

emb_net.v_lins1.1.weight f4 [48, 48]
0	0x3e19d413	0.15022306
1	0xbd96aa6a	-0.07356723
2	0xbccaae0a	-0.024741191
3	0x3df82fbb	0.12118479
4	0x3db05908	0.08610731
5	0xbdf69202	-0.120395675
6	0x3dc31e0e	0.09527217
7	0xbd8efd99	-0.06981964
8	0xbcb34ada	-0.021886278
9	0x3d759367	0.059955027
10	0x394bebb2	0.00019447392
11	0x3dded88c	0.10881147
12	0xbd781f3e	-0.06057667
13	0xbdd461b3	-0.10370197
14	0x3bb87838	0.0056295656
15	0x3d7a8714	0.061163977
16	0x3df0b9c3	0.11754181
17	0xbd9359ba	-0.07194848
18	0xbc73c2a1	-0.014877946
19	0xbda7769a	-0.08176918
20	0xbdeb527d	-0.11490343
21	0xbde5e24b	-0.112248026
22	0xbded796b	-0.11595424
23	0xbd9fc32e	-0.078008994
24	0x3d18e75a	0.03733001
25	0xbccc66a1	-0.024951281
26	0x3dbf8076	0.09350674
27	0x3dfb998e	0.122851476
28	0xbdeac6b5	-0.114636816
29	0x3cc7f52f	0.024408905
30	0x3dac318f	0.0840789
31	0xbdefa00c	-0.117004484
32	0xbd25ca13	-0.040475916
33	0x3ddb1727	0.10697775
34	0xbdd30072	-0.10302819
35	0x3e0623e7	0.13099633
36	0x3c4048ac	0.011736076
37	0x3cff67bb	0.031177392
38	0x3de60a0d	0.11232386
39	0xbe0c99e8	-0.13730586
40	0x3de55999	0.1119873
41	0xbe03168e	-0.12801573
42	0x3d7dac78	0.061932057
43	0xbb4a1cb3	-0.003083986
44	0x3dce5b13	0.10075965
45	0xbc3f145a	-0.011662567
46	0xbe0a3003	-0.13494878
47	0x3c98f87d	0.018673176
48	0x3dc68aa3	0.096944116
49	0xbcb9512f	-0.02262172
50	0xbe0cc452	-0.13746765
51	0xbca146c3	-0.019687062
52	0x3b8f5dae	0.004375181
53	0x3cec13b5	0.02881799
54	0x3d307cb7	0.043087687
55	0xbcb66da2	-0.022269074
56	0xbb397a6d	-0.0028301731
57	0xbcd654a9	-0.026163416
58	0x3d7437f4	0.059623674
59	0x3cf8cab0	0.030370086
60	0x3d7abea3	0.06121696
61	0xbc4948ed	-0.012285453
62	0xbc9e5fb0	-0.019332737
63	0x3dd9a0e4	0.106263906
64	0x3c333a07	0.010939128
65	0xbe07c64e	-0.13259241
66	0x3cd2e672	0.02574465
67	0x3e09d53f	0.13460253
68	0xbcbc1866	-0.022960853
69	0x3daa715b	0.08322402
70	0xbdcccd20	-0.10000062
71	0xbca451a1	-0.020058455
72	0x3dc9bc05	0.09850315
73	0xbd92ac1f	-0.07161736
74	0xbd1f8928	-0.03894916
75	0x3b9310b5	0.0044880756
76	0xbcd43df0	-0.02590844
77	0xbd1f47f3	-0.038886975
78	0x3dc7a9f3	0.09749212
79	0xbd018d78	-0.031629056
80	0xbd27a07d	-0.040924538
81	0x3dd92f5a	0.10604735
82	0x3ce8ae46	0.028403413
83	0xbd8f9343	-0.0701051
84	0x3dbdb76a	0.09263499
85	0xbd9b5d5f	-0.075861685
86	0x3e1d8abe	0.15384957
87	0x3dee3521	0.11631227
88	0x3c955b78	0.018232092
89	0x3d14f902	0.036370285
90	0xbd596107	-0.053071048
91	0xbdea7117	-0.114473514
92	0xbdc7d60b	-0.09757622
93	0x3d521f52	0.0512994
94	0x3d8bf315	0.068334736
95	0x381c8c77	3.7324116e-05
96	0xbd201340	-0.03908086
97	0xbd5881cb	-0.052858155
98	0xbdb73d35	-0.08947221
99	0xbd996609	-0.07490165
100	0x3de76511	0.11298574
101	0xbdf1cc63	-0.11806562
102	0x3de66064	0.11248854
103	0x3da69949	0.081347056
104	0xbd4098ce	-0.047020726
105	0xbcf82942	-0.03029311
106	0xbd7bd9fd	-0.061487187
107	0xbdeb0c4b	-0.11476954
108	0x3b82b49a	0.0039888145
109	0xbdd9457c	-0.10608956
110	0x3c8425cc	0.016131304
111	0xbd62ee11	-0.05540282
112	0xbdd2c6f2	-0.10291852
113	0xbe027157	-0.12738548
114	0x3e0b8350	0.1362431
115	0x3dd9b5c2	0.10630371
116	0x3df419ad	0.1191896
117	0x3d5ce382	0.053927906
118	0x3d931a65	0.07182769
119	0x3d94e7be	0.07270764
120	0x3dc2a7d7	0.09504669
121	0x3ca39f20	0.019973338
122	0x3cd4b94a	0.025967259
123	0x3ddd4d18	0.1080572
124	0x3d8c3c27	0.06847411
125	0xbdc73139	-0.09726185
126	0x3db613ed	0.08890519
127	0x3e0f799e	0.14011237
128	0xbd2e3e5f	-0.04253995
129	0xbe0b0eab	-0.13579814
130	0xbc5d47e3	-0.013505909
131	0xbdaf7446	-0.08567099
132	0x3e19e0f2	0.15027216
133	0xbcaf2e2d	-0.021384323
134	0xbda7864c	-0.08179912
135	0x3dc855f7	0.097820215
136	0x3d2c2b81	0.042033676
137	0x3d651e53	0.055937123
138	0x3df286e9	0.11842138
139	0xbe12a1ee	-0.14319584
140	0x3d80f00d	0.06295786
141	0xbda46fb8	-0.08029121
142	0x3d6abd48	0.05730942
143	0xbd7fb3a1	-0.062427167
144	0x3e00be7c	0.12572664
145	0xbcadcc26	-0.02121551
146	0x3c07f610	0.008298412
147	0xbdedab61	-0.116049536
148	0x3dae675a	0.085158065
149	0xbe190faa	-0.14947382
150	0x3da7c241	0.08191348
151	0x3dd1584f	0.10221922
152	0x3dfa56b9	0.12223572
153	0x3db16ff4	0.086639315
154	0xbd29d6fc	-0.04146479
155	0x3d0bfe23	0.03417791
156	0x3cecf114	0.028923549
157	0xbe0b5768	-0.13607562
158	0x3d9e6c61	0.077355154
159	0xbdf65e9e	-0.120297655
160	0x3d528dcf	0.05140477
161	0x3e05718a	0.13031593
162	0xbd316af7	-0.0433149
163	0x3c4b1c5d	0.012396899
164	0x3e0bdf87	0.13659488
165	0x3df58f4c	0.11990222
166	0x3e032822	0.12808278
167	0xbdc29123	-0.09500339
168	0x3cbb93bf	0.0228976
169	0xbdf89945	-0.12138609
170	0x3cf71b06	0.030164253
171	0xbe0ce73f	-0.13760088
172	0x3c9e3e76	0.019316893
173	0x3d9f04e5	0.077646054
174	0xbe0953a7	-0.13410817
175	0xbcb61d18	-0.02223067
176	0xbd8a956b	-0.067667805
177	0x3de63d4a	0.11242159
178	0xbc23c980	-0.009996772
179	0x3dae3f86	0.0850821
180	0xbdc52d78	-0.09627813
181	0x3c5015d7	0.0127005195
182	0x3dd8e897	0.10591238
183	0x3bcb0484	0.0061956067
184	0xbd262e7f	-0.040571686
185	0xbd746c61	-0.05967367
186	0x3dd559c3	0.10417511
187	0x3d59bf99	0.053161237
188	0x3c81208c	0.01576259
189	0x3dbcdcaa	0.09221776
190	0xbda088dd	-0.078386046
191	0xbddf44b9	-0.1090178
192	0xbd166f52	-0.036727257
193	0x3dbcf92a	0.09227212
194	0xbe112769	-0.1417519
195	0xbd8db403	-0.069191
196	0x3d291677	0.04128119
197	0x3d85ea44	0.06538823
198	0x3d9c2df2	0.07625951
199	0x3d510917	0.05103406
200	0xbe05bc97	-0.13060223
201	0xbd55cde6	-0.052198313
202	0x3db596c7	0.08866649
203	0x3cf167f4	0.029468514
204	0x3d9f6b4a	0.07784136
205	0x3dcf5174	0.10122958
206	0x3db29619	0.08720035
207	0xbd84ef01	-0.06490899
208	0xbd8ab894	-0.06773487
209	0xbcdc54c3	-0.026895886
210	0xb99b29e8	-0.00029595126
211	0xbc5cc377	-0.013474337
212	0xbce00f5c	-0.027351074
213	0x3ca97f7e	0.020690676
214	0x3db8b0dd	0.09018109
215	0xbdd975e5	-0.1061819
216	0x3d8db837	0.06919902
217	0xbe12e68b	-0.14345758
218	0x3c11f41e	0.0089083
219	0xbe073041	-0.13202001
220	0x3e11972e	0.14217827
221	0xbe03e24c	-0.12879294
222	0xbda59b0a	-0.08086212
223	0x3dd74dda	0.10512896
224	0x3d9b85e9	0.07593901
225	0x3dde6278	0.10858625
226	0x3d1a5ded	0.03768723
227	0xbdfa6f02	-0.12228204
228	0xbdcef773	-0.10105791
229	0x3dc3638a	0.0954047
230	0xbe10a566	-0.14125594
231	0x3e069a86	0.13144884
232	0xbcb9300f	-0.022605924
233	0x3ccc7cc7	0.024961842
234	0xbc19bb26	-0.009382999
235	0xbcd1b518	-0.025599048
236	0xbcf9bfcd	-0.030486966
237	0x3d35ceb7	0.04438659
238	0xbcbd1a62	-0.02308387
239	0x3ca3c757	0.019992514
240	0x3df85587	0.12125688
241	0x3c6a9346	0.014317339
242	0xbddf1fe2	-0.10894753
243	0xbde261c0	-0.110538006
244	0x3db57ef6	0.088621065
245	0x3d5e4341	0.054263357
246	0x3cc1db45	0.023664126
247	0xbd9373ab	-0.07199796
248	0xbdf86a0f	-0.12129604
249	0x3e02057e	0.12697408
250	0xbe0bdd3a	-0.1365861
251	0xbd9d97e5	-0.07694987
252	0x3d5e229f	0.054232236
253	0x3e03d310	0.12873483
254	0xbd5c68f7	-0.05381104
255	0xbe086ceb	-0.13322799

emb_net.v_lins1.1.bias f4 [48]
0	0x3d8bcf25	0.06826619
1	0x3d78a86a	0.060707487
2	0x3d1fc437	0.039005484
3	0x3d8bba26	0.06822614
4	0xbda40093	-0.08007922
5	0x3e0bc7b1	0.13650395
6	0x3d900eee	0.070340976
7	0x3d572666	0.052526854
8	0xbd153cce	-0.03643494
9	0xbdf8d6b9	-0.1215033
10	0x3cc4244a	0.023943085
11	0x3d00b067	0.03141823
12	0x3cc19eaa	0.023635227
13	0x3d7308f9	0.05933473
14	0xbd8c37ab	-0.06846555
15	0x3e054fbb	0.13018696
16	0x3adfbead	0.0017070376
17	0xbe0846c3	-0.13308243
18	0xbd7e857d	-0.062139023
19	0x3d155229	0.036455307
20	0x3dc4b87a	0.096054986
21	0xbd756420	-0.05990994
22	0xbd7c737f	-0.061633583
23	0xbc42d9d1	-0.011892752
24	0xbe107c26	-0.14109859
25	0xbd3ba7b7	-0.045814242
26	0xbdb3010b	-0.08740433
27	0x3dfffd72	0.12499513
28	0xbdb816ed	-0.08988748
29	0xbb1afe6f	-0.002365019
30	0x3dd6e651	0.10493148
31	0xbcf7a61a	-0.03023057
32	0x3df4f1b2	0.11960162
33	0xbd95d876	-0.07316677
34	0xbc1a54b8	-0.009419613
35	0x3c3e5e88	0.011619218
36	0xbdd3cf7e	-0.1034231
37	0x3dab921d	0.08377478
38	0xbba61f7f	-0.0050696726
39	0xbe1ec6e7	-0.15505563
40	0x3d6f4e7d	0.05842446
41	0xbd6e5b27	-0.0581924
42	0xbd9f1157	-0.07766979
43	0x3d617f93	0.055053305
44	0x3d0b56c3	0.03401829
45	0xbdb568e6	-0.088578984
46	0x3d614bba	0.05500386
47	0x3ca294a2	0.019846264

emb_net.v_lins1.2.weight f4 [48, 48]
0	0xbd3645b0	-0.044500053
1	0x3dcb3ba4	0.09923485
2	0x3a5a1994	0.00083198515
3	0x3d7a6720	0.061133504
4	0xbce7e733	-0.028308487
5	0x3d508e2c	0.050916836
6	0x3d0eddb3	0.034879398
7	0x3dd51d3c	0.10405967
8	0xbdff3a29	-0.12462265
9	0xbd0b6689	-0.034033332
10	0x3d986963	0.07441976
11	0xbd8e4d45	-0.06948332
12	0xbdda9905	-0.106737174
13	0x3dc8e536	0.098093435
14	0x3d99d89a	0.075120166
15	0x3e0e5b7a	0.13902083
16	0x3d5c262a	0.053747334
17	0xbd17fc55	-0.037105877
18	0xbde5f27c	-0.11227891
19	0xbdb15bae	-0.08660065
20	0x3d1e24f6	0.038609467
21	0xbcf32e7d	-0.029685253
22	0x3e0ccd36	0.13750157
23	0x3db3f898	0.0878765
24	0x3c59f7e9	0.013303735
25	0x3e0aa4f3	0.13539486
26	0x3c54e1fa	0.01299333
27	0x3cc96006	0.02458192
28	0x3e0fe0c1	0.1405058
29	0xbc8554bf	-0.016275762
30	0x3d4cef15	0.050032694
31	0xbc42dd75	-0.01189362
32	0x3e081f2d	0.13293143
33	0x3d79321b	0.0608388
34	0xbd517b00	-0.051142693
35	0xbe099cc9	-0.13438715
36	0x3cac3d5b	0.02102535
37	0xba9f7d12	-0.0012168011
38	0x3d883195	0.06650082
39	0x3d7e4334	0.06207581
40	0xbe0a0302	-0.1347771
41	0xbdf2da83	-0.11858084
42	0xbd27e26a	-0.04098741
43	0xbdee6d17	-0.11641901
44	0x3c471c8c	0.012152802
45	0x3dacbfd2	0.08435024
46	0x3e195dc2	0.14977172
47	0xbb836fbd	-0.004011123
48	0xbdc72a69	-0.09724886
49	0x3dd9d4ca	0.106362894
50	0xbdcbb621	-0.09946848
51	0x3dca57d1	0.09880031
52	0xbd716f36	-0.05894395
53	0xbd843a4a	-0.0645643
54	0x3dbc81ca	0.09204443
55	0x3d1d343c	0.038379893
56	0xbd1e897a	-0.038705327
57	0x3db98411	0.09058393
58	0xbe00cfb6	-0.12579235
59	0xbd4020fd	-0.04690646
60	0xbda9b8b6	-0.08287184
61	0xbdd54841	-0.10414172
62	0xbe038209	-0.12842573
63	0xbdb3edcb	-0.0878559
64	0x3d5b19b1	0.053491298
65	0xbdab460b	-0.08362969
66	0x3e028ee4	0.12749821
67	0xbcd52d2b	-0.026022514
68	0x3d15672a	0.036475338
69	0x3dc49b01	0.09599877
70	0x3d22829b	0.039675336
71	0xbda85910	-0.08220112
72	0xbcbb061c	-0.022830062
73	0xbccaff5e	-0.024779972
74	0xbd8b6d44	-0.0680795
75	0x3cd134dc	0.0255379
76	0xbddc8d0f	-0.10769092
77	0x3cf5895f	0.02997273
78	0xbdcf2cc3	-0.101159595
79	0x3de2fb65	0.11083106
80	0xbcc06a88	-0.023488298
81	0xbdfccf42	-0.12344219
82	0xbde9f122	-0.114229456
83	0xbe0ac83a	-0.13552943
84	0x3c8157b7	0.015788896
85	0x3b639d52	0.0034731221
86	0xbd8aea49	-0.067829676
87	0xbd909466	-0.07059555
88	0xbddd20bd	-0.1079726
89	0xbdb97d0c	-0.09057054
90	0xbd4d6130	-0.050141513
91	0xbda7bd73	-0.081904314
92	0x3d4c0489	0.049809013
93	0x3d7b2cbe	0.061321966
94	0xbd8567d7	-0.065139465
95	0x3c3b62c8	0.0114371255
96	0xbd2d0766	-0.042243384
97	0xbd4bbcfd	-0.04974078
98	0xbc91c5d2	-0.017794523
99	0xbcca6bba	-0.024709571
100	0x3e0469a6	0.12930927
101	0x3c04a9e6	0.008097148
102	0x3d8ca7d3	0.068679474
103	0x3dffe424	0.12494686
104	0x3c3e69d7	0.011621914
105	0x3c72b523	0.014813694
106	0x3d1de7b9	0.038551066
107	0x3e03bddc	0.12865394
108	0xbde6654b	-0.11249789
109	0x3cf38b1f	0.029729424
110	0x3d19979c	0.0374981
111	0x3d8a25b6	0.06745474
112	0x3be49098	0.0069752447
113	0x3e037fe9	0.12841763
114	0x3dffc9cc	0.124896616
115	0xbe02dadf	-0.12778805
116	0xbdd100dd	-0.10205243
117	0x3da0a26d	0.0784348
118	0x3d32fc90	0.043697894
119	0x3d94a3ca	0.07257803
120	0x3de12c3d	0.10994766
121	0x3e0c38b6	0.13693509
122	0x3d6920b4	0.056915954
123	0x3bdf2abd	0.0068105147
124	0x3df6a22e	0.12042652
125	0xbc25cbe0	-0.010119408
126	0xbc99f296	-0.018792432
127	0xbdd0d00e	-0.10195933
128	0x3e09153a	0.13387004
129	0xbdba66b7	-0.091016226
130	0xbcbd5784	-0.02311302
131	0x3e137ce2	0.14403108
132	0xbe064a6c	-0.13114327
133	0x3d973147	0.07382446
134	0xbae8bcf0	-0.0017756503
135	0x3d5654c5	0.052326936
136	0x3dced6c7	0.10099559
137	0x3df0802e	0.11743198
138	0x3da66a2d	0.0812572
139	0xba753f72	-0.00093554624
140	0xbd8b95de	-0.06815694
141	0x3de15013	0.11001601
142	0x3d9ad3c9	0.07559926
143	0xbb34017b	-0.0027466703
144	0x3cc7da7b	0.024396172
145	0x3d2a66b8	0.041601866
146	0xbdeb56a9	-0.114911385
147	0xbddd1c22	-0.107963815
148	0xbdf22aca	-0.118245676
149	0x3c7c2182	0.015388848
150	0xbd9fb71a	-0.07798596
151	0x3caaa0f0	0.020828694
152	0xbdf45f85	-0.119322814
153	0x3db75c24	0.08953121
154	0x3db92f5c	0.09042236
155	0xbcd9152b	-0.026499351
156	0x3cb046f0	0.0215182
157	0xbc9eb764	-0.019374557
158	0xbcc2c0e1	-0.023773612
159	0x3dd1ed59	0.102503486
160	0x3e08c540	0.13356495
161	0x3dd0e025	0.10199002
162	0xbdde7336	-0.108618185
163	0x3dc74d32	0.09731521
164	0x3d9d7b01	0.07689477
165	0xbcb5a932	-0.022175405
166	0x3d9525c4	0.07282594
167	0x3c9ff3c2	0.019525412
168	0xbdd00611	-0.10157407
169	0xbd9ae6f5	-0.07563583
170	0xbd1a6a03	-0.037698757
171	0x3dab5bd7	0.083671264
172	0x3a279065	0.0006392061
173	0xbd88dc6b	-0.066826664
174	0x3e048295	0.12940438
175	0x3dc7866b	0.09742435
176	0x3d6a1105	0.057145137
177	0xbe046ded	-0.12932558
178	0x3d822004	0.06353763
179	0x3e1d69ec	0.15372437
180	0xbd07278a	-0.03299669
181	0xbd839a2b	-0.064258896
182	0xbc0a4316	-0.008438846
183	0xbcc9ece2	-0.024649087
184	0x3deb86f1	0.115003474
185	0x3e0b9a7d	0.13633151
186	0x3dea713b	0.11447378
187	0xbd877168	-0.066134274
188	0xbde1d521	-0.11026979
189	0x3c15197f	0.009100317
190	0xbde1faf8	-0.110341966
191	0xbc4a017b	-0.0123294545
192	0xbda27605	-0.07932667
193	0x3d8b52a9	0.068028755
194	0x3e02c964	0.12772137
195	0x3db08ff9	0.086212106
196	0x3e0d56ae	0.13802597
197	0x3db9a230	0.09064138
198	0xbe0df1c0	-0.13861752
199	0x3cdc4607	0.02688886
200	0x3dec3228	0.11533004
201	0x3da35bdb	0.079765044
202	0xbde498a8	-0.11161929
203	0xbe103b5c	-0.14085144
204	0x3bc5a0d5	0.0060311356
205	0x3e0b5121	0.13605167
206	0xbb6736f9	-0.003528057
207	0xbd7215b2	-0.05910272
208	0xbde351e3	-0.11099603
209	0x3d0e7887	0.034782913
210	0x3df5e350	0.12006247
211	0xbd78011a	-0.060547926
212	0x3e0a507d	0.13507266
213	0x3dac8fe4	0.084258825
214	0x3e13020d	0.14356251
215	0x3dabd981	0.08391095
216	0xbc953363	-0.01821298
217	0x3dfbaf76	0.12289326
218	0xbdc24929	-0.094866104
219	0x3ddeafc2	0.10873367
220	0x3d1d98af	0.03847569
221	0x3df2aa9a	0.11848946
222	0xbda4a48b	-0.080391966
223	0xbded55a9	-0.11588604
224	0xbcbfeefe	-0.02342939
225	0xbc78a953	-0.015177089
226	0xbdc6699f	-0.096881144
227	0xbe123103	-0.14276509
228	0xbdab1e91	-0.083554395
229	0x3e0a0e33	0.13481979
230	0x3e0d8743	0.1382113
231	0xbe0edcc1	-0.13951398
232	0xbd86a9ac	-0.06575331
233	0x3d6b8fac	0.057510063
234	0x3dcc93b5	0.099891104
235	0x3de7cccc	0.11318359
236	0xbdfde368	-0.1239689
237	0x3dafd708	0.08585936
238	0xbd8892f9	-0.06668658
239	0xbd9c5d09	-0.076349325
240	0x3df5db17	0.12004679
241	0x3d9621e3	0.07330682
242	0x3e07f2a9	0.13276161
243	0xbb16ce8f	-0.0023011302
244	0x3cda36b7	0.026637418
245	0xbda06c7a	-0.0783319
246	0xbce3477c	-0.027744047
247	0x3e0bc84e	0.13650629
248	0xbcecd18d	-0.028908515
249	0x3d62019d	0.05517732
250	0xbcea99a7	-0.02863772
251	0xbe014d83	-0.12627225
252	0xbde7975b	-0.11308166
253	0x3e1ba246	0.15198621
254	0xbd6ca9f5	-0.05777927
255	0xbdd7d7d2	-0.10539211

emb_net.v_lins1.2.bias f4 [48]
0	0xbc8a9100	-0.016914845
1	0x3dd27fd3	0.10278287
2	0xb81fd66b	-3.8108246e-05
3	0x3d85c6aa	0.06532033
4	0xbc3dd0da	-0.011585439
5	0xbcb41bf6	-0.021985989
6	0xbd3164d5	-0.04330905
7	0x3d9090c6	0.07058863
8	0xbe034380	-0.12818718
9	0x3b81a9ce	0.00395701
10	0x3df58324	0.11987904
11	0xbe01294d	-0.12613411
12	0x3dba99f7	0.09111398
13	0xbdf442ad	-0.1192678
14	0x3dd52fb8	0.10409492
15	0xbdf00dee	-0.11721407
16	0x3ddca699	0.107739635
17	0x3dec4d15	0.1153814
18	0xbdfd1a42	-0.12358524
19	0xbe0d81d7	-0.13819061
20	0x3d527b68	0.05138722
21	0xbd717a8a	-0.058954753
22	0x3d9e5c49	0.07732446
23	0xbd9dc0b7	-0.07702773
24	0x3ce2cec6	0.027686488
25	0x3caf26cd	0.021380806
26	0xbd7bcd13	-0.06147487
27	0x3aa4ba94	0.0012567812
28	0x3dad51a9	0.08462841
29	0x3d2201b3	0.0395524
30	0xbdb2696c	-0.08711514
31	0xbe15e0ad	-0.14636488
32	0x3ce53f9d	0.027984435
33	0x3de38831	0.11109961
34	0x3d921d9e	0.07134555
35	0xbde582fd	-0.11206625
36	0xbcd47ee1	-0.025939407
37	0xbdb6879e	-0.08912586
38	0xbc715e81	-0.014732004
39	0x3da322d5	0.07965628
40	0xbde0cdc6	-0.10976748
41	0xbb92cd80	-0.004480064
42	0xbc47680c	-0.012170803
43	0x3d1ace2e	0.037794285
44	0xbcda2697	-0.02662973
45	0xbd7be3c5	-0.061496515
46	0x3de90469	0.11377794
47	0xbd87714e	-0.06613408

emb_net.v_lins1.3.weight f4 [48, 48]
0	0xbd9589ed	-0.07301698
1	0xbd0a908a	-0.03382925
2	0x3d8e3e32	0.069454566
3	0xbdc0f6d0	-0.09422076
4	0x3de98acd	0.11403427
5	0xbcfe81c3	-0.031067735
6	0x3d96c1ae	0.0736116
7	0x3dfdb8d7	0.12388771
8	0xbe07307e	-0.13202092
9	0x3dd9a816	0.10627763
10	0xbd3564c2	-0.044285543
11	0x3db7f675	0.08982555
12	0x3d25897c	0.04041432
13	0xbcf74340	-0.030183434
14	0xbd9eba36	-0.07750361
15	0x3cf4b746	0.029872548
16	0x3db189ef	0.08668887
17	0x3dcabcb6	0.09899275
18	0x3de0d1bd	0.109775044
19	0x3de11589	0.10990436
20	0xbe1351e3	-0.14386706
21	0x3e0630df	0.1310458
22	0x3cfd8670	0.030947894
23	0xbdbff9e6	-0.09373836
24	0xbdecac62	-0.11556317
25	0x3e12f336	0.1435059
26	0xbd831a29	-0.06401474
27	0x3d0e937e	0.03480863
28	0xbd94f932	-0.07274093
29	0xbe17e767	-0.14834367
30	0x3da46281	0.08026601
31	0xbdedc829	-0.11610443
32	0x3ca06d1e	0.019583281
33	0x3e11ca87	0.14237414
34	0x3df784e8	0.12085897
35	0x3cdac204	0.026703842
36	0xbd82e9fb	-0.063922845
37	0xbe01307b	-0.1261615
38	0xbd93dd35	-0.07219926
39	0xbd5a5191	-0.053300444
40	0x3e0b5350	0.13606
41	0xbd49d361	-0.049273852
42	0xbe1478ff	-0.14499281
43	0xbb20b5ce	-0.0024522427
44	0xbded1a1b	-0.11577245
45	0xbc498f7e	-0.012302278
46	0xbd97d384	-0.0741339
47	0x3de5f848	0.112289965
48	0xbd72452e	-0.059148006
49	0xbd526252	-0.051363297
50	0x3e09375c	0.13400024
51	0x3dd0cead	0.1019567
52	0xbc3c10c3	-0.011478606
53	0xbe055498	-0.13020551
54	0x3d4ccbdb	0.0499991
55	0x3de0ae1b	0.10970708
56	0x3dcf832a	0.101324394
57	0xbd98060a	-0.07423027
58	0xbe1055c2	-0.14095214
59	0xbd9b3cab	-0.07579931
60	0xbe08a17d	-0.13342853
61	0x3db975d5	0.09055678
62	0xbda5462a	-0.08070023
63	0x3cd13eca	0.025542635
64	0x3e03c6f4	0.12868863
65	0x3d1b57f1	0.037925664
66	0xbe03e69e	-0.12880942
67	0xbc14d2a9	-0.009083428
68	0x3e043a65	0.12912901
69	0x3caba3af	0.020952074
70	0xbc9c251c	-0.019060664
71	0x3dfd44d8	0.123666465
72	0xbe056d84	-0.13030058
73	0xbd8807dc	-0.06642124
74	0x3ca6af36	0.020347219
75	0x3dee3674	0.1163148
76	0xbd49afaf	-0.04923981
77	0xbda7bd43	-0.08190396
78	0xbe08c885	-0.13357742
79	0xbe083e44	-0.13305002
80	0x3d9d8ed6	0.076932594
81	0xbd9414f6	-0.072305605
82	0x3c9e3d30	0.019316286
83	0x3d2ba0d4	0.041901425
84	0x3d649dd9	0.055814598
85	0xbe13e8fb	-0.14444344
86	0x3d71cf4d	0.059035588
87	0xbd53930d	-0.05165391
88	0xbd4317e8	-0.04763022
89	0xbcfeac40	-0.031087995
90	0xbe03d9f3	-0.1287611
91	0xbc8349d2	-0.016026411
92	0x3d1e166d	0.038595606
93	0xbe13e568	-0.1444298
94	0xbd903f65	-0.070433415
95	0xbdbc09e1	-0.09181572
96	0xbdbfde7e	-0.09368609
97	0xbda48c5d	-0.08034585
98	0x3dfb12d3	0.1225945
99	0x3d045148	0.03230408
100	0x3d958f19	0.07302684
101	0xbdf99eb2	-0.12188472
102	0xbd7a2141	-0.06106687
103	0xbdeaebb7	-0.1147074
104	0x3da9f117	0.08297937
105	0xbe1b44b0	-0.15162921
106	0xbe07ff7d	-0.13281055
107	0xbc0e2a36	-0.008677056
108	0x3ce5215b	0.027970007
109	0x3d1b1fdd	0.037872184
110	0xbca573a6	-0.020196747
111	0x3ce59ab5	0.028027872
112	0x3ca61e4b	0.020278117
113	0x3d1b5464	0.037922278
114	0xbd085c78	-0.03329131
115	0x3dc0ab98	0.09407729
116	0x3c30f2da	0.010800088
117	0x3da9067d	0.08253191
118	0x3cc2e462	0.023790542
119	0xbdb9e281	-0.09076405
120	0xbd9a2d4e	-0.075281724
121	0xbdaf5f37	-0.08563083
122	0xbce35165	-0.027748773
123	0x3c059861	0.008154006
124	0xbc884b71	-0.016637536
125	0x3dec74b1	0.115456946
126	0x3e073b36	0.13206181
127	0x3cfa68f3	0.030567622
128	0x3c0d9b90	0.008643046
129	0xbdb21bc9	-0.08696706
130	0x3db227ec	0.08699021
131	0xbd7e5a7a	-0.062098004
132	0xbdff2414	-0.12458053
133	0x3d9ba6e8	0.07600194
134	0x3da9eca6	0.0829709
135	0x3d836021	0.064148195
136	0x3c9b6a26	0.018971514
137	0xbd8f8d3c	-0.0700936
138	0x3db7c98d	0.0897399
139	0x3e0c9b74	0.13731176
140	0x3d8e42af	0.06946313
141	0x3d93394d	0.07188664
142	0xbd55becf	-0.052183922
143	0x3d8e375b	0.06944152
144	0xbd602933	-0.05472679
145	0xbd3bd84b	-0.04586057
146	0x3d57b7bf	0.05266547
147	0x3d440ed3	0.0478657
148	0x3da6ec1a	0.081505015
149	0xbca1d1c0	-0.019753337
150	0xbce5d53a	-0.028055776
151	0x3d2ad76c	0.04170935
152	0x3d819887	0.063279204
153	0x3c907943	0.017635947
154	0xbde1083d	-0.109878995
155	0x3e0d7dbe	0.13817498
156	0x3d76f1bf	0.06028914
157	0x3d38f277	0.045153107
158	0xbd03a1a6	-0.03213658
159	0x3e06cc90	0.13163972
160	0x3c2f2b9a	0.010691548
161	0x3a9fd95c	0.0012195515
162	0x3d76b87b	0.060234528
163	0xbc471134	-0.012150098
164	0x3cccf63a	0.025019754
165	0x3ba00376	0.004883225
166	0x3d20771e	0.0391761
167	0xbbcb7724	-0.006209271
168	0xbda9190b	-0.0825673
169	0xbd1034df	-0.03520667
170	0x3e0766c9	0.13222803
171	0x3db1d214	0.08682647
172	0xbc3d4e9f	-0.011554389
173	0x3b83805d	0.004013105
174	0xbdc9c41c	-0.09851858
175	0x3dd43454	0.10361543
176	0xbe015c7b	-0.12632935
177	0x3d958567	0.07300835
178	0x3deab9e8	0.1146124
179	0x3d050682	0.03247691
180	0x3d8fee84	0.07027915
181	0xbe00fca5	-0.12596376
182	0xbd4dfe90	-0.050291598
183	0xbd7f1f57	-0.062285747
184	0x3d7231f8	0.059129685
185	0xbdf424d8	-0.1192109
186	0xbdc9b71a	-0.09849377
187	0x3d613efe	0.054991715
188	0x3ce59d3b	0.028029075
189	0xbe087c71	-0.1332872
190	0x3dd40b8d	0.10353766
191	0x3db61105	0.08889965
192	0x3ce5de6d	0.028060162
193	0xbb028602	-0.00199163
194	0xbde3ac88	-0.11116892
195	0xbe1baf74	-0.15203649
196	0xbde46438	-0.11151928
197	0xbdbe19a7	-0.092822365
198	0xbdc25f06	-0.094907805
199	0xbd8684ed	-0.06568322
200	0x3e01daf3	0.12681179
201	0xbe1c5694	-0.15267402
202	0x3dfcbbd1	0.12340511
203	0x3df8eea7	0.12154894
204	0x3ca9d55f	0.020731626
205	0x3b20da46	0.0024544164
206	0x3d54d4b7	0.051960673
207	0x3c89f7b5	0.016841749
208	0xbdda6b82	-0.10665037
209	0xbddb06f8	-0.106946886
210	0x3e1a6b10	0.15079904
211	0xbd3f2aa7	-0.046671536
212	0x3d9b91c4	0.07596162
213	0x3d704822	0.05866254
214	0xbd992db9	-0.07479424
215	0xbc9a1b7f	-0.01881194
216	0xbca2f580	-0.019892454
217	0x3e09c37e	0.1345348
218	0x3c894d9a	0.016760636
219	0x3d3b7736	0.045767985
220	0xbda03071	-0.078217395
221	0xbdab27fd	-0.083572365
222	0xbddfcd6e	-0.109278545
223	0x3d7fd895	0.062462408
224	0xbdebec01	-0.115196235
225	0x3d75644a	0.059910096
226	0x3da0b679	0.07847304
227	0x3c7a129d	0.015263227
228	0xbd1e2090	-0.038605273
229	0x3db06293	0.086125515
230	0xbde0bfbd	-0.10974071
231	0x3dcfbd4f	0.101435296
232	0xbbbf2369	-0.0058330786
233	0xbde7240e	-0.11286174
234	0x3d2cc318	0.042178243
235	0xbd908fcd	-0.07058678
236	0x3ddd0eb3	0.10793819
237	0xbdf55b03	-0.1198025
238	0x3dcb7c6f	0.09935843
239	0x3cd606dd	0.02612632
240	0xbe264cf5	-0.16240294
241	0x3d3dd713	0.04634769
242	0xbd622485	-0.05521061
243	0x3d787717	0.060660448
244	0x3cb1dee1	0.021712722
245	0xbd9db8a8	-0.07701236
246	0x3cf56263	0.029954141
247	0xbdb25fbd	-0.08709667
248	0xbc8181a6	-0.015808892
249	0xba48484b	-0.0007640167
250	0x3d897c74	0.06713191
251	0x3c119b11	0.008887068
252	0xbe0dca37	-0.1384667
253	0x3d7ea11d	0.06216537
254	0xbcc01844	-0.02344907
255	0xbdb89f21	-0.090147264

emb_net.v_lins1.3.bias f4 [48]
0	0xbd1443b4	-0.03619738
1	0x3dbe45d6	0.09290664
2	0x3e080779	0.132841
3	0xbdde7d34	-0.10863724
4	0xbe115737	-0.14193426
5	0x3d0a3248	0.03373936
6	0xbd1ddfd1	-0.038543526
7	0x3bc4c2a2	0.0060046474
8	0x3d4d6c47	0.05015209
9	0x3d366324	0.04452814
10	0xbdb7d099	-0.08975334
11	0xbdb365f4	-0.087596804
12	0x3cb343bb	0.021882882
13	0x3daf07ec	0.08546433
14	0x3dbfd238	0.09366268
15	0x3dae7e27	0.085201554
16	0x3d435636	0.04768964
17	0xbd5104fa	-0.051030137
18	0x3d9344d7	0.071908645
19	0x3dc61479	0.096718736
20	0x3d8ee9c5	0.06978182
21	0x3d069d3f	0.032864805
22	0xbe09534b	-0.1341068
23	0x3c16f975	0.009214749
24	0xbde22908	-0.11042982
25	0x3e03e228	0.1287924
26	0x3dbd5ffe	0.09246825
27	0xbbf9cbfd	-0.0076231943
28	0x3db7f184	0.08981612
29	0xbde802fb	-0.113286935
30	0xbe094de9	-0.13408627
31	0xbda0608d	-0.078309156
32	0x3d91ad2b	0.07113107
33	0x3db06a5f	0.08614039
34	0xbd069cbc	-0.032864317
35	0xbc1347be	-0.008989273
36	0x3d52a26a	0.05142442
37	0x3cd5fc5d	0.026121313
38	0x3d268ba7	0.040660527
39	0x3df7024e	0.120609865
40	0xbd965b0e	-0.07341586
41	0xbe0f01bc	-0.13965505
42	0x3da12d2f	0.07869946
43	0x3e0806f1	0.13283898
44	0x3df3b9f0	0.11900699
45	0xbd27294d	-0.040810872
46	0xbd118556	-0.03552755
47	0xbc954f27	-0.01822622

emb_net.v_lins1.4.weight f4 [48, 48]
0	0xbdb6bf4c	-0.08923206
1	0xbdef6a61	-0.11690212
2	0x3c854fbb	0.01627337
3	0xbc90fcb9	-0.017698633
4	0xbc9be701	-0.01903105
5	0xbd6d849d	-0.057987798
6	0xbdf435a6	-0.11924295
7	0x3da05481	0.07828618
8	0x3c55fa9b	0.013060237
9	0xbc983ce4	-0.018583722
10	0x3df44d1d	0.11928771
11	0xbb48d4b7	-0.0030644366
12	0x3d512be1	0.051067237
13	0x3e025d4d	0.12730904
14	0x3d72911c	0.05922042
15	0xbb06eca7	-0.0020587833
16	0x3d844119	0.06457729
17	0x3d86f478	0.065895975
18	0x3cf38c20	0.029729903
19	0xbe0b33dc	-0.13594002
20	0x3da3c180	0.079958916
21	0xbdb2f012	-0.08737196
22	0x3d8d96d1	0.069135316
23	0xbc9c4edd	-0.019080574
24	0x3d3ef86c	0.046623632
25	0x3cdad26f	0.02671167
26	0xbd62a3bf	-0.05533194
27	0x3db8acc9	0.09017331
28	0xbddf50ae	-0.1090406
29	0xbddc6aa9	-0.10762531
30	0x3d257340	0.040393114
31	0x3df9f07d	0.122040726
32	0xbc84efd4	-0.01622764
33	0x3de45d3c	0.111505955
34	0xbd58a61c	-0.05289279
35	0x3d574f28	0.052565724
36	0xbda95720	-0.08268571
37	0xbb1ef088	-0.0024252255
38	0xbd808332	-0.062750235
39	0xbdb9424d	-0.09045849
40	0xbda83299	-0.08212776
41	0x3d833413	0.06406417
42	0xbdb25975	-0.08708469
43	0xbc264df7	-0.010150424
44	0x3da2ea59	0.079548545
45	0x3e031166	0.12799606
46	0xbaa550f8	-0.0012612632
47	0xbdfb5fbd	-0.1227412
48	0x3dc791d0	0.097446084
49	0x3e016924	0.12637764
50	0x3d9866d4	0.07441488
51	0xbd9e1540	-0.07718897
52	0xbd5eb723	-0.05437387
53	0x3da0eb63	0.078573965
54	0xbc6f7458	-0.014615141
55	0xbe09950f	-0.13435768
56	0x3b1b3530	0.0023682825
57	0xbbea0be4	-0.0071425308
58	0x3a77699b	0.00094380387
59	0xbb32816e	-0.002723779
60	0xbe1c04ef	-0.15236257
61	0xbe04eda6	-0.1298128
62	0xbd91fa94	-0.07127872
63	0xbdb2821d	-0.087162234
64	0xbd74161a	-0.05959139
65	0xbe0b30ff	-0.1359291
66	0x3c6e7211	0.014553563
67	0xbdb06cdb	-0.086145125
68	0xbdb1f55a	-0.08689375
69	0xbd6fdc0c	-0.058559462
70	0x3d8c4d02	0.068506256
71	0x3ddef2a4	0.10886124
72	0x3c5ef83c	0.013608988
73	0x3e0e0347	0.13868438
74	0xbd84f1ca	-0.0649143
75	0x3d58445e	0.052799575
76	0x3d9d6b16	0.07686441
77	0x3d157409	0.036487613
78	0x3d87e85c	0.06636116
79	0xbc1f2748	-0.009713955
80	0xbca65348	-0.020303383
81	0x3d20d29b	0.03926335
82	0x3e04ddf7	0.12975298
83	0x3cc2b099	0.023765849
84	0xbcf09e46	-0.029372346
85	0xbc3bd69d	-0.011464742
86	0xbdd04af6	-0.10170548
87	0xbd435ef9	-0.047697995
88	0xbe154ace	-0.14579317
89	0xbd1822b7	-0.03714248
90	0x3d93542d	0.0719379
91	0x3e09dd86	0.1346341
92	0x3b9c957c	0.004778562
93	0x3c814962	0.015782062
94	0x3b39f4ab	0.0028374593
95	0xbe03c8f3	-0.12869625
96	0x3df631d4	0.12021223
97	0xbc1eddfa	-0.009696478
98	0xbdb7c50a	-0.08973129
99	0xbd801039	-0.06253094
100	0xbd07c286	-0.033144496
101	0x3bf96787	0.0076112184
102	0x3cb8fb78	0.022580847
103	0xbbd69baa	-0.0065493183
104	0x3dfb18d4	0.12260595
105	0xbdf39535	-0.11893693
106	0xbe0300c7	-0.12793265
107	0xbe13ca35	-0.14432605
108	0x3d1e4e18	0.038648695
109	0x3de052d3	0.109532975
110	0x3dfe8481	0.12427617
111	0x3aa20580	0.0012361258
112	0x3c3ed8be	0.011648355
113	0x3dcc0891	0.099625714
114	0x3dabdedf	0.08392119
115	0xbdc948c3	-0.09828331
116	0xbd3182bf	-0.04333758
117	0xbe0472be	-0.12934396
118	0x3df94886	0.12172036
119	0x3daa0a5c	0.08302757
120	0xbd5196a2	-0.051169045
121	0xbc904d4d	-0.017614985
122	0xbbce0369	-0.0062870276
123	0x3de3dbeb	0.111259304
124	0x3da2c12b	0.07947
125	0xbdf5b9e5	-0.11998347
126	0xbccd54cc	-0.025064848
127	0x3d2a37a4	0.04155697
128	0x3e07b0be	0.13251016
129	0xbd2f6aca	-0.04282645
130	0x3d949bfb	0.072563134
131	0x3c85105a	0.016243149
132	0xbd7bc4c9	-0.061466966
133	0x3d56860a	0.052373923
134	0x3cdfad93	0.027304446
135	0xbdb605ec	-0.08887848
136	0x3bf7a6f7	0.0075577456
137	0x3c059d94	0.008155245
138	0xbd0f7cc1	-0.035031084
139	0x3d0ed8b5	0.034874637
140	0xbd64e680	-0.055883884
141	0xbd6f42d8	-0.058413357
142	0xbcd56e0a	-0.026053447
143	0x3d47be23	0.048765313
144	0xbaeeddac	-0.0018224022
145	0xbe113620	-0.14180803
146	0xbd0320e7	-0.0320138
147	0x3a9d7323	0.0012012463
148	0xbdb14471	-0.08655632
149	0xbcfca50c	-0.03084042
150	0x3d148369	0.036258135
151	0x3de49bea	0.11162551
152	0x3da8160e	0.082073316
153	0xbd8f3fa6	-0.06994562
154	0xbdce562e	-0.10075031
155	0x3d5d8984	0.054086223
156	0x3c66e5ec	0.014092904
157	0xbd8e1041	-0.06936694
158	0x3d864631	0.06556357
159	0xbe01bf8f	-0.1267073
160	0x3d817868	0.06321794
161	0x3d32ca4e	0.043649964
162	0x3e064196	0.13110957
163	0xbce3bca7	-0.027799917
164	0xbdb868fb	-0.090043984
165	0x3e14a349	0.14515413
166	0xbd059432	-0.032612033
167	0xbe13f3aa	-0.14448419
168	0xbd488419	-0.048954103
169	0x3df8ebc5	0.121543445
170	0xbdc5ffdc	-0.09667942
171	0x3cea9d68	0.02863951
172	0xbe16d1a5	-0.1472841
173	0xbd331969	-0.043725405
174	0xbd4f8027	-0.050659325
175	0xbd500bc5	-0.050792474
176	0xbd84d24d	-0.06485424
177	0xbdcc3d4d	-0.0997263
178	0x3d2c16bb	0.042013865
179	0x3d891b40	0.06694651
180	0x3c9ec099	0.019378947
181	0x3d3781ff	0.04480171
182	0xbdbd7b14	-0.09251991
183	0x3d6dbe34	0.05804272
184	0x3d14b55d	0.036305774
185	0x3de4127e	0.111363396
186	0x3d8798cd	0.06620941
187	0x3e0bc37d	0.13648792
188	0x3d928895	0.07154957
189	0xbdff69f4	-0.12471381
190	0x3dbfc707	0.09364133
191	0xbcb92466	-0.022600364
192	0x3c4d5db4	0.012534548
193	0x3d5c774f	0.05382472
194	0x3c4a630e	0.012352718
195	0xbd3c0045	-0.045898695
196	0x3d1d430d	0.038394023
197	0x3d6b595a	0.05745826
198	0x3d7cfefa	0.061766602
199	0xbd71eaac	-0.05906169
200	0xbdc1a5e3	-0.094554685
201	0xbe0317c4	-0.12802035
202	0xbdeb409f	-0.11486935
203	0xbd2208fd	-0.039559353
204	0xbd921ab9	-0.07134003
205	0x3ddbc9b2	0.1073183
206	0xbd778a85	-0.060434837
207	0xbd855cfc	-0.06511876
208	0xbdbb8911	-0.09157003
209	0xbd9a4a54	-0.07533708
210	0x3daf73de	0.08567022
211	0x3dfc312d	0.12314067
212	0x3de71cc9	0.11284787
213	0xbdbcc0fc	-0.09216496
214	0xbd65c0cd	-0.056092072
215	0xbe03f4b9	-0.12886323
216	0x3d8f6c44	0.07003072
217	0x3e0aa9ce	0.13541338
218	0xbe00b8fb	-0.12570564
219	0x3dd12916	0.10212915
220	0xbd90910b	-0.07058915
221	0xbe12bc0d	-0.14329548
222	0x3d3b999c	0.04580079
223	0xbe084288	-0.1330663
224	0xbd95f5ef	-0.07322299
225	0x3e136c8d	0.14396878
226	0xbdf3c22b	-0.11902269
227	0xbdbfc866	-0.09364395
228	0xbd1c389a	-0.038139917
229	0x3de63940	0.11241388
230	0x3dbd7706	0.092512175
231	0x3dc13217	0.09433382
232	0xbd973fb2	-0.07385196
233	0xbd991f8c	-0.0747672
234	0x3da3a874	0.07991114
235	0x3e09546a	0.13411108
236	0x3ddc4587	0.10755449
237	0x3d691da5	0.056913037
238	0xbd23c73f	-0.039984938
239	0x3d03570b	0.032065433
240	0xbdf38ee9	-0.11892492
241	0xbca92531	-0.020647617
242	0x3e119ff8	0.1422118
243	0x3c810cd1	0.015753182
244	0x3dea6a95	0.1144611
245	0x3dc2c63a	0.09510465
246	0x3e11ffc1	0.14257719
247	0x3d9b9966	0.07597618
248	0xbe081774	-0.13290197
249	0xbd81def4	-0.06341353
250	0xbb9b36a2	-0.0047367373
251	0x3e0538a5	0.1300989
252	0x3cdcc530	0.026949495
253	0x3d088034	0.03332539
254	0x3c99214d	0.018692637
255	0xbd8a0fc9	-0.06741292

emb_net.v_lins1.4.bias f4 [48]
0	0xbe06dc7d	-0.13170047
1	0x3ca720a6	0.02040131
2	0x3d1224d8	0.03567967
3	0xbbeb2d0d	-0.0071770013
4	0xbd935e59	-0.0719573
5	0xbd04cee3	-0.032423865
6	0x3e11860a	0.14211288
7	0x3d2ec8c7	0.042671945
8	0x3e07e1d2	0.13269737
9	0x3d64cf07	0.0558615
10	0xbd9806f4	-0.07423201
11	0x3dfd2f1d	0.12362502
12	0xbd25d6a2	-0.040487893
13	0xbdbd8245	-0.092533626
14	0xbd8f8e25	-0.07009534
15	0xbcf9d47f	-0.030496834
16	0xbdf97856	-0.121811554
17	0xbca80b80	-0.020513296
18	0xbdaf0b50	-0.085470796
19	0x3dbb6e3e	0.091518864
20	0x3e12c33b	0.14332287
21	0x3d7743f0	0.060367525
22	0xbc3caefb	-0.011516328
23	0x3de87513	0.11350455
24	0xbe0982d1	-0.13428809
25	0x3cf7ed2c	0.03026446
26	0xbc3ed575	-0.011647572
27	0x3d331408	0.043720275
28	0xbc02f162	-0.00799212
29	0x3dd2860a	0.10279472
30	0x3caedb26	0.021344732
31	0x3d7d922f	0.06190699
32	0xbbd865a1	-0.006603912
33	0x3d9e3d99	0.077265926
34	0x3d85ba4f	0.06529676
35	0x3d99c546	0.0750833
36	0x3c1fc0c2	0.009750547
37	0xbdf320b7	-0.11871474
38	0xbd5484aa	-0.05188433
39	0xbbe6dc4e	-0.0070453053
40	0x3db39bb7	0.087699346
41	0xbe11ce94	-0.1423896
42	0xbd7e1433	-0.062030982
43	0x3d93644a	0.07196863
44	0x3d7ae14b	0.061250012
45	0xbd14e30f	-0.036349352
46	0xbe0fe04f	-0.1405041
47	0x3d4a57d8	0.04940018
