pretrained/Partitioner/pctsp/pctsp-500.pt (torch, 364226 bytes, 225 tensors)

emb_net.v_lin0.weight f4 [32, 2]
00000000: 2234 9ebe 1472 33bf 621d cbbe 2550 003f
00000010: f3d6 2e3f 7078 8abe 2c0e ebbe 06b6 0fbe
00000020: 9ab8 d03d cc0f 983e c870 063f 68d9 0abf
00000030: 76d2 a9be 282b eabe ec8e b43e 908b d2bc
00000040: be91 b9be 830c f3bd 592b b3bd 36bc 6f3e
00000050: 3fd0 043f d9cb 96be 4962 c7be 3f81 453e
00000060: ecdb 023f 13e2 893d 92bd 1bbf e1e6 bcbe
00000070: dc97 ffbe 34b5 47bd 4628 1d3f 1e51 9ebe
00000080: 70bd c03e b52e 5dbe 917c 25bf b208 a2bc
00000090: 7535 9f3d 125d 0abf b370 923e 89b0 d03e
000000a0: e1c2 38be 2a4a 06bf 7da3 56be f152 c43e
000000b0: a29b 1b3f d729 443d f4ab 0f3f acee b1bd
000000c0: 6cd5 093f a560 ecbd 5b60 343f d765 dbbe
000000d0: 1c83 01bf 93c0 df3e 005a 2cbf e4e2 02be
000000e0: 76a0 053f 0049 a43d 84c0 30bf 2764 b7be
000000f0: f8cb e73e cdb7 cebe d392 22bf 14b6 19be
-0.3089915 -0.70095944 -0.39670855 0.5012229 0.68296736 -0.27045012 -0.4590925 -0.1403428
0.1019146 0.29699552 0.5251584 -0.54237986 -0.3316838 -0.4573605 0.3526529 -0.025701314
-0.36244005 -0.11867621 -0.08748502 0.2341164 0.5188026 -0.29452398 -0.38942173 0.19287585
0.51116824 0.06732573 -0.60836136 -0.36894897 -0.49920547 -0.048756793 0.6138958 -0.30921263
0.3764453 -0.21599849 -0.646432 -0.019779537 0.07773868 -0.54048264 0.28601608 0.40759686
-0.1804309 -0.52456915 -0.20960803 0.3834453 0.6078435 0.047891464 0.56121755 -0.08688101
0.5384128 -0.11541871 0.70459527 -0.42851135 -0.5059068 0.4370161 -0.6732483 -0.12781864
0.5219797 0.08021736 -0.69043756 -0.35818598 0.45272803 -0.40374604 -0.63505286 -0.15010864

emb_net.v_lin0.bias f4 [32]
00000000: 79b5 d33a b7e5 2fbf 2882 5a3e 4d9b f4bd
00000010: 142e bc3e f8d4 53be 16c3 f03e 1eeb 7abe
00000020: e25b c23c 135a ffbe 86f4 1cbe 3017 cc3e
00000030: 9adc 76be 6512 19bf cc53 e23d 3fbb 333d
00000040: bc37 9ebe 34c4 223e 75c8 753e 7e02 71bd
00000050: a7a1 a03e 49bd d33e 4823 79be c186 40be
00000060: 3c34 a4bd 430b 1abf 32fa ecbe d9a4 323f
00000070: 4411 23bf 5f92 cb3e 75d3 17bf 13b4 26bf
0.0016152106 -0.6870989 0.21338713 -0.11943684 0.36753905 -0.2068671 0.4702384 -0.24503753
0.023725454 -0.4987341 -0.15327653 0.3986144 -0.2410759 -0.5979369 0.11051139 0.043879744
-0.30901897 0.15895158 0.2400225 -0.058840267 0.3137333 0.4135535 -0.24329865 -0.18801405
-0.080177754 -0.60173434 -0.46284634 0.6978279 -0.6369822 0.3976011 -0.5930703 -0.6511852

emb_net.v_lins1.0.weight f4 [32, 32]
00000000: b328 db3d e66b c83d 46c8 dd3d 93ae 0e3c
00000010: 83d2 19be 9953 313e 3153 ff3c 9003 693d
00000020: b666 e33c 7f5e 883b b43d 0cbd 152a ec3d
00000030: 1665 2bbe b6b9 2bbc 5a60 ebba 36b4 0ebd
00000040: 9a61 143e bde0 d73d 7788 b93d f009 1f3e
00000050: e5df 1c3e bc78 64bb ab5e c4bd 1fd4 8b3d
00000060: e000 1dbe 5bcd 6abd 53db 21bc 75b9 5b3d
00000070: f59a cd3c b713 c2bc 2a97 443d 79ea c5bc
00000080: d80b 3dbd b1f1 a43a c1ca f13d 6b16 c03d
00000090: 9264 063e a8db a3bd 649f ed3d e7c3 4fbc
000000a0: 8ee9 a4bd 1de3 103e 7ba4 d63d 679b 5bbd
000000b0: 9db6 4a3d a3ee 16be 5cb9 a83d 03c7 80bc
000000c0: 691b 133e f31e 9a3d 9f64 80bd f76b 6e3c
000000d0: b89d 56bd 6b2d 2cbe 24ac 99bd 23dc de3d
000000e0: 8014 1ebe 8e73 5a3d 16b8 04bd fe34 18be
000000f0: 6258 56bd 2a10 813c 0784 d73b 47d8 b6bc
00000100: af24 ac3d 9b4e 393d 61ff 9b3d 973d 6c3d
00000110: e91d 263e f302 e03d 97da 933d 5811 9abc
00000120: c129 143e eb32 313e 9cb8 133e a3e9 c2bd
00000130: ab72 8ebc b884 dc3d ca8a 0c3e 2200 863d
00000140: 95ef 8ebd f280 813c 5812 37be b409 23be
00000150: 5935 fa3d a5b7 a0bc b628 b8bc 3ac2 c6bb
00000160: 4e49 2c3e 1b4a 0cbe 8b07 bc3d f256 013e
00000170: edee e1bd 3dc0 9bbc 813f b9bc e284 1ebe
00000180: a0c2 63bc 199a 07be 33b9 adbd 083c a3bd
00000190: e9d6 123e 4c15 de3c 4ea6 b43d 5b78 063a
000001a0: af1a 1e3e aeb7 0ebe ec93 efbd 26b8 28be
000001b0: bca2 03bd a48e cd3d 3f53 8c3d 9b03 303e
000001c0: 7a7d 9a3d 7b39 86bd ae0c 7a3d ff60 8bbd
000001d0: 6a55 a8bd cd10 db3d e900 323e 2d19 c63d
000001e0: 1046 fdbb 8be5 f13d 326b e1bd 0a2b 9d3d
000001f0: 86ec 213d cb68 fc3d 1faf 27be aac4 203d
00000200: 98f4 b2bd e64e 12bc f0e5 23bd 7256 e5bd
00000210: 6664 04be d3d2 dcbd 3a64 13be 2d2c ba3d
00000220: 6b5e 9bbc 05d8 04be 68eb d73c 668b 0ebd
00000230: 68af 3c3c 77c9 4b3d bb04 bc3c 20bf b9bc
00000240: 39fe 89bd e4d0 7fbd 379c 1bbe cb9e eb3d
00000250: b408 2ebd 6e7f 0abe e6d2 47bc 93cc 0cbe
00000260: a3e9 0fbe c867 b6bd f39a da3c 779c 24be
00000270: f6f7 e6bd 8f0d e93d 7859 86bd 75ef 153e
00000280: 92e9 683d 66d3 d93d d8c5 5dbd 4379 a63c
00000290: 5f1a 043d 5026 3b3d ad80 293e 87d3 f63d
000002a0: fdc7 13be a5fc 983d 5437 433d 374b 583d
000002b0: f730 a73d 9e18 07be eaef fb3d 260c 1e3e
000002c0: a493 253e 02dd 99bd ed95 323d 5954 a1bd
000002d0: 1ab8 c2bd 9f23 d33d d1e8 eb3d c66a 013e
000002e0: 4c34 38be 81dd 18be b6c9 113e 57ff 753d
000002f0: bd62 7d3c e383 c63d b308 253e 68c9 08b9
00000300: d8d6 35bd eeae 17be 7727 90bc 6588 a9bd
00000310: 24f5 05bd b1b2 fa3d a5e0 01bc 0f54 b93d
00000320: 4613 11be 8a56 bcbc f920 a3bc 1bdd 5f3c
00000330: 7dfc 273e 4f4c 29be df80 0dbe dfaf 303e
00000340: 286f 1c3e 71ce af3d 81c6 91bd 1491 c2bd
00000350: 79f3 2cbd b323 78bd cabc c9bb caad 1c3e
00000360: fba5 083d 9926 2c3e 55e3 163e af27 2abd
00000370: 1a10 77bd 7835 1bbe 4ee3 c03d 8d5e 11be
00000380: 1835 7abd 4981 10be da62 21bb 9815 823d
00000390: be77 8a3c c75b 513d df0c f9bc 3681 523d
000003a0: 10d6 a73c 759f 543d c83c 7c3d ed51 8fbd
000003b0: b57d 043d 7fd8 35be 473b 02be 6b18 09be
000003c0: 01ef 113e 3f70 94bc e773 cb3d 6716 d8bd
000003d0: 1d2c 383d 9eef a7bc b581 a03d 7290 46bd
000003e0: febf 35be c607 1f3e 8a45 0a3e 0447 1fbe
000003f0: d74e 273e 5373 953d a2ce 913d 5cc4 563d
0.10701122 0.09786205 0.10829215 0.008708614 -0.1502171 0.17317046 0.031167598 0.056888163
0.027758937 0.0041616554 -0.034238532 0.11531464 -0.1673778 -0.010481289 -0.0017957792 -0.03483983
0.14490357 0.10540912 0.09059232 0.15531135 0.15319784 -0.0034862002 -0.09588369 0.06827568
-0.15332365 -0.05732475 -0.009878951 0.053643662 0.025098303 -0.023691041 0.047995724 -0.024159657
-0.046153873 0.0012584237 0.1180625 0.09379276 0.13124302 -0.080008805 0.11602667 -0.012680984
-0.080523595 0.14149137 0.10480591 -0.053615 0.04949056 -0.1473947 0.082384795 -0.015719896
0.14365925 0.07525434 -0.06269192 0.014552108 -0.052396506 -0.168142 -0.07503536 0.108818315
-0.15437508 0.053332858 -0.03240212 -0.14863965 -0.052330382 0.015754778 0.006577018 -0.022319926
0.08405434 0.04524098 0.07617069 0.057675924 0.16222347 0.109380625 0.07219427 -0.018807098
0.14469053 0.1730458 0.14425892 -0.09517219 -0.017388662 0.107675016 0.13724819 0.06542994
-0.069792904 0.015808556 -0.17878091 -0.1592167 0.122172065 -0.019618819 -0.02248035 -0.006065634
0.16824839 -0.13700144 0.09181126 0.12630823 -0.110318996 -0.019012565 -0.022613289 -0.15480378
-0.013901383 -0.13242377 -0.084825896 -0.079704344 0.14339794 0.027109765 0.088207826 0.00051296287
0.15439866 -0.13937256 -0.11698136 -0.16476497 -0.032137617 0.10036972 0.068518154 0.17188875
0.07543464 -0.06553932 0.06104725 -0.0680561 -0.082194164 0.10696564 0.1738316 0.09672771
-0.0077292994 0.1181136 -0.11006774 0.07674225 0.039532207 0.12324675 -0.16375397 0.039250053
-0.08738059 -0.008929944 -0.040014207 -0.11198129 -0.12928924 -0.10782399 -0.14393702 0.09090457
-0.01896592 -0.1297303 0.026357368 -0.03480091 0.0115164295 0.04975268 0.022951474 -0.022674143
-0.06737942 -0.062455073 -0.1519631 0.11504897 -0.04248877 -0.13525173 -0.012196278 -0.13749914
-0.14053969 -0.089065135 0.026685214 -0.16075312 -0.112777635 0.11379539 -0.065600336 0.14642127
0.056863375 0.10636024 -0.054143757 0.020321494 0.032251712 0.045690835 0.16552992 0.120520644
-0.14431758 0.07470063 0.047660187 0.052806105 0.08163636 -0.13192984 0.12301619 0.15434322
0.16169602 -0.07512857 0.04360001 -0.07877416 -0.09507771 0.103095286 0.115190156 0.12638387
-0.179887 -0.14928247 0.14237103 0.060057964 0.015465436 0.09693124 0.161166 -0.00013045
-0.044394344 -0.14812824 -0.017596943 -0.08277968 -0.032704487 0.12241114 -0.007927095 0.09049236
-0.14167508 -0.022990484 -0.019913184 0.0136635555 0.1640491 -0.16533016 -0.13818692 0.1725459
0.15276778 0.085842974 -0.0711794 -0.09500328 -0.04222438 -0.06058092 -0.0061565386 0.1530067
0.033361416 0.16811599 0.14735158 -0.04154175 -0.06031809 -0.15157115 0.09418355 -0.14196225
-0.06108579 -0.14111818 -0.002462557 0.06351775 0.0169028 0.051112916 -0.030401645 0.051392756
0.020487815 0.051909883 0.061581403 -0.06998048 0.032346446 -0.17758368 -0.12717925 -0.13388221
0.14251329 -0.01811993 0.09934216 -0.10551148 0.044963945 -0.0205 0.0783724 -0.048477598
-0.1774902 0.15530309 0.1350309 -0.15554434 0.16338669 0.07297387 0.0711949 0.052433357

emb_net.v_lins1.0.bias f4 [32]
00000000: cae9 80bd 604e 13be dde2 003e 307c 06be
00000010: 9156 a23d d168 8bbc 2647 cbbc 105c 333e
00000020: bfa0 b23d 1bc7 0fbe 0e64 7dbc cb7a 88bc
00000030: 5a0c 3e3d 52c8 b13d 3564 1abe 31ba d5bd
00000040: c205 1ebd 4dea b13d e29d 6b3d ef00 c2bd
00000050: 80b1 463d 6f6e 33be 25a7 0c3d 2e2f 01be
00000060: c999 49bc 4ca7 e8bd e6ec 9dbc 27a0 3cbd
00000070: 7b87 9bbc d2bd d4bd 2102 0a3e 8ef6 92bd
-0.06294592 -0.14385366 0.12586541 -0.13133311 0.079266675 -0.017017754 -0.0248142 0.17515588
0.08722066 -0.14040796 -0.015465749 -0.016660115 0.046398498 0.08680786 -0.15077288 -0.10435904
-0.03857971 0.086872675 0.057523616 -0.09472834 0.04850912 -0.17522596 0.03433909 -0.12615654
-0.012304732 -0.11360034 -0.019278001 -0.04605117 -0.0189855 -0.10387768 0.13477375 -0.07175933

emb_net.v_lins1.1.weight f4 [32, 32]
00000000: 5fec 1cbe 9ffa b6bd cfca eabd c022 fcbd
00000010: c227 e83d f828 a4bc 54a1 8dbd 4561 1fbe
00000020: 996b 30bd 8aaf 85bc fb4d 12be 8aa9 8d3c
00000030: cbef 30bc fdfe 1f3c d7be 273d dfa9 e9bd
00000040: 5e67 dd3d ef4e e53d 1efa a03d 4803 2c3e
00000050: 6728 e43d 1160 c2bc 2b2f adbd a29d 24be
00000060: 4bac acbd 9ddc 373e e428 7a3c da01 07be
00000070: 795c c8bc 626a 1d3d c7c8 cebd 2626 373e
00000080: c118 2b3d 0209 debd e47e e9bd 3759 0c3d
00000090: a0aa 803c 1eca 6b3d da86 233e b595 29be
000000a0: 81a4 583c 8dcc 90bc b014 ffbd fad1 ec3d
000000b0: 388c 06be a0d0 223e 2fc6 07be fce9 f8bd
000000c0: a7f5 b83b f282 dabd cfac 1ebe 3688 2a3d
000000d0: c922 f1bb fd8b 7cbd e809 aeba 7415 aa3d
000000e0: 3e33 c33d 756f 20be 6b1b 093e 139f e3bd
000000f0: eb46 43bd 770a 12be acc8 173e f749 1f3e
00000100: b5be c8bd b2c0 183e ecf5 293e e4e7 613d
00000110: 52f2 9e3d 1871 06be b9c4 933d 78b3 9d3d
00000120: b86f 813c e22c 26bb 54d7 343e 966b 0bbe
00000130: 8b78 7fbd 022e 06be 33bc f93d 7d89 1c3e
00000140: ecb7 eebc 85a0 273e 826b 953d c90c 02be
00000150: b848 093e 39ca aebd c989 44bd f58e 193e
00000160: d000 00bd ba1e b7bd a3e4 f43d 43b7 20be
00000170: 5ac1 843d f96c 683b 792f 103e 4fa2 c43b
00000180: d72e a6bd 26ba 10be 9476 bdbd cff7 023e
00000190: fa6b 023e bfe7 163e de97 0fbe 1eb8 39be
000001a0: 8b51 963d 5fb9 1dbe 09e2 bf3d 0ba4 e83d
000001b0: ea48 0d3e cef4 843c 8d9a 76bd ebe2 72bd
000001c0: b9c9 d8ba d5d2 633d dec9 1a3d c7b5 7dbd
000001d0: 031c 0bbe 6aa3 04be ede5 dcbd 3dc7 76bd
000001e0: 1fab 16be 78eb 2bbe c56a 25be 2a37 553d
000001f0: 803c 16be 1ac1 cbbd c8b0 de3d 27fc 56bc
00000200: a046 eebd 3771 e6bd 7a66 073e ba91 2dbd
00000210: 98b5 053e 1338 2b3e bb85 593d 67a3 99bb
00000220: 7996 613c acb8 0ebe 7f5b 4f3c a1b0 883d
00000230: 6fd3 ad3d 3bfa 1ebd 9864 093e 1a18 d5bd
00000240: 5229 0abd 086b a73c a677 d43d 29eb 233e
00000250: 6b9e 093e e584 e7bd 0183 ae3c 2036 173e
00000260: fc7c 103e b472 113e 2315 31be dc54 313e
00000270: e654 fcbd 8332 003d a1e1 1dbe 96ef 0d3d
00000280: 854c 1cbe 8f31 e3bd 9854 053e 29d8 b03d
00000290: 6a78 543d 973b 463d 4f68 e1bc 8381 05bc
000002a0: 29c4 273e e724 873c e0f1 0c3e a5de bc3d
000002b0: 5a3f 6e3c eeba ec3d 9732 19be e7a8 d7bd
000002c0: a27f 843d 57a0 95bc c767 c6bd e120 cbbd
000002d0: ce50 233e 59a9 64bd 4b90 fc3d 0f58 3a3e
000002e0: 4a2c 01be 92f9 313d a4eb edbc c9c6 eabd
000002f0: 5244 5dbc 678c 4bbd 2f6c 74bb 4275 403c
00000300: 95a4 bcbd 6a02 fd3c 71f8 1e3e 6491 2bbd
00000310: d6bd 3d3c 2bd1 ed3d 93bd 2f3c 734e 1cbe
00000320: 9c1e 033e 0810 62bd c62a 16be 3034 163e
00000330: f356 1abe cc03 1c3d e826 e4bd b263 1cbe
00000340: 0c1f 363d e440 143e f011 11be 9dae cb3c
00000350: 88ee f13d 4e16 b73d 3601 1e3d 3cff cdbc
00000360: cf55 063e 3f61 fb3d 0cf2 c93b a464 fd3d
00000370: ec7f d33d ed05 243d dd9c 403d 8efe 31be
00000380: 097f aebd 81d4 523d f86b 10bc 46db 02be
00000390: 9261 9e3d 0095 a53d c3ae 973d 4999 e93b
000003a0: 51af d6bd 655e 173e 6368 2f3d b1fc 3abe
000003b0: c186 1cbe 5759 603d 2731 f7bd 7a87 833d
000003c0: c805 79bd 6b30 80bd 1f06 9ebb f8e0 3e3e
000003d0: 72f0 4fbd bf71 243e 07bf c83d a22f d7bd
000003e0: 4bb3 1fbe a36c 9a3d 8030 2cbd 37c3 edbc
000003f0: 9dc1 6f3d 0a87 f63d 08f2 1bbe 13c0 053e
-0.15324543 -0.08934521 -0.11464464 -0.123113155 0.11335708 -0.020039067 -0.069155365 -0.15564449
-0.043071363 -0.016319055 -0.1428756 0.017292757 -0.010799359 0.009765384 0.040953483 -0.114093535
0.10810731 0.11196696 0.07860206 0.16798127 0.11140519 -0.023727449 -0.08456262 -0.16075757
-0.084313 0.17955251 0.015268538 -0.131843 -0.024458157 0.038431533 -0.10096889 0.17885646
0.041771654 -0.10841562 -0.114011556 0.03426477 0.01570636 0.0575658 0.1596941 -0.16561015
0.013222815 -0.017675662 -0.12455118 0.11563487 -0.13139427 0.15899897 -0.13259195 -0.12154004
0.0056445184 -0.10669507 -0.15495609 0.041633807 -0.007358883 -0.06165694 -0.0013278099 0.08304873
0.09531258 -0.15667517 0.13389365 -0.111143254 -0.047675055 -0.14261805 0.14822644 0.15555559
-0.098019995 0.14917257 0.16597718 0.05515279 0.07761063 -0.1312908 0.07215256 0.077002466
0.015800342 -0.0025356342 0.17660266 -0.1361526 -0.062370818 -0.13103488 0.12194099 0.15286823
-0.029140435 0.16369827 0.07295896 -0.1270019 0.13406646 -0.08534665 -0.047982965 0.1499594
-0.031250775 -0.089414075 0.119576715 -0.15694909 0.064821914 0.0035465343 0.1408061 0.006000794
-0.08114403 -0.1413351 -0.092511326 0.12789844 0.12736502 0.14736842 -0.14022776 -0.18136641
0.07339772 -0.15402745 0.09369285 0.11359414 0.13797346 0.016230013 -0.060205985 -0.059298437
-0.001653961 0.055620987 0.03779017 -0.061940935 -0.13584904 -0.12952963 -0.10786042 -0.060248602
-0.14713715 -0.16789043 -0.1615401 0.05205456 -0.14671516 -0.099489406 0.10873562 -0.013121641
-0.116345644 -0.11252063 0.13222685 -0.042375304 0.13057554 0.1672061 0.05310605 -0.0046886685
0.013768786 -0.13937634 0.012656092 0.06674314 0.084875934 -0.038812857 0.1341728 -0.10404988
-0.033730812 0.020436779 0.10374384 0.16007675 0.13439338 -0.113046445 0.021302702 0.14766741
0.14110178 0.14203912 -0.1729322 0.17317528 -0.123208806 0.03129817 -0.15418102 0.034652315
-0.15263565 -0.11093437 0.13020551 0.08634979 0.05187265 0.048396673 -0.027515559 -0.008148554
0.16383423 0.016497089 0.13764143 0.092221536 0.014541471 0.115590915 -0.14960705 -0.105302624
0.064696565 -0.018264933 -0.09687763 -0.099183805 0.15948793 -0.055825565 0.12332209 0.18197654
-0.12614551 0.0434509 -0.029043026 -0.114636965 -0.013505058 -0.049694445 -0.0037295928 0.011746706
-0.09211079 0.03088494 0.1552446 -0.041886702 0.011580905 0.11612161 0.01072635 -0.15264301
0.12804645 -0.05519107 -0.14664754 0.14668345 -0.15072231 0.03808956 -0.11140233 -0.15272406
0.044463202 0.14477879 -0.14166999 0.024863536 0.11813074 0.08939801 0.038575374 -0.02514612
0.13118671 0.122744076 0.0061628874 0.12372711 0.103271335 0.040044714 0.047024596 -0.17382261
-0.08520324 0.05147219 -0.008814804 -0.12778959 0.07733454 0.0808506 0.0740638 0.0071288687
-0.10482658 0.14782102 0.04282416 -0.18260457 -0.1528578 0.0547727 -0.12069922 0.064223245
-0.06079653 -0.06259235 -0.004822507 0.18640506 -0.050766416 0.16059016 0.098020606 -0.10507132
-0.15595739 0.07540252 -0.04203844 -0.02902375 0.058534253 0.120374754 -0.15229046 0.13061552

emb_net.v_lins1.1.bias f4 [32]
00000000: f8d4 38bd 47d9 40bc b5ab 563d d86e e8bb
00000010: b815 f7bd f96f 03be 10fc 453d b303 ea3d
00000020: fd3f dcbc 6f75 d53c 0274 193e ec66 013e
00000030: 846c a7bd a01e 30be c896 46bd 0f2a 22be
00000040: 5d1e 893d 1e36 0cbd 4f3c 1e3d bf51 11be
00000050: 49e1 b23d e3f2 c5bb 030d f0bd 3644 a5bd
00000060: 2cf1 1f3e 5ab1 093d a51d c0bd 0c0d 6ebd
00000070: 56f8 913c 516e eb3d 58a2 07be 4334 89bd
-0.045124978 -0.011770553 0.052409846 -0.0070932917 -0.120646894 -0.12835683 0.04833609 0.11426487
-0.02688598 0.026056973 0.1498566 0.12636918 -0.081749946 -0.17199183 -0.04848364 -0.15836357
0.066952445 -0.034231298 0.038631734 -0.1419134 0.08734376 -0.0060409172 -0.11721232 -0.08069651
0.15619344 0.0336164 -0.09380654 -0.05811791 0.017818611 0.114956506 -0.13245523 -0.06699421

emb_net.v_lins1.2.weight f4 [32, 32]
00000000: 4641 b23d 07ce f53d 5e8f 22bd 28be 8dbd
00000010: 49da e4bb d10d 1f3e 7ff3 213e 67e8 5dbd
00000020: 56b9 813d ea99 08be a4c0 db3c a4a6 a0bd
00000030: afb3 2c3d db77 c5bd d18c 793d f382 8a3d
00000040: 3c5f 243e d294 a7bd f068 f3bd c73d e23d
00000050: f6d8 2e3c 0f35 c5bd 388d 1d3e ff10 2bbd
00000060: 9089 c8bd e2e3 7dbd 5c5b 21be ed59 333e
00000070: bc2b a5bd 02a0 e63d 415e debd 3920 23be
00000080: fcbd f1bd 7879 8ebd 75c6 42bd 4276 12bd
00000090: 596f 293d cf85 a33d f9ff 34be 671c 11be
000000a0: 15e4 3b3d e1a0 4e3d c4d6 b4bb 66be 6c3d
000000b0: f476 25be d81a bc3d 1cc5 683d be58 ef3c
000000c0: c174 163e f1fb 1dbd 1ca6 cd3d 40ef 69bd
000000d0: cb84 e5bd 206c 323e 98d0 d43d 053a 2ebe
000000e0: 1d28 113d d1b5 29be d7e8 59bc fa12 78bc
000000f0: 1629 0dbe c07a a83d 5433 0ebe 3d6e dc3d
00000100: d458 b0bb 6891 79bd 4309 da3b a290 e0bb
00000110: a1e1 503d 128f 193d 4120 d33d 60ff b03c
00000120: 88e7 a4bd 31ca 01be a1e0 3c3e af6c 783d
00000130: 63bd eebd 5a63 a13d 9224 f5bd f933 103e
00000140: 93de 87bd 6a60 c5bc bea1 e23d f450 913d
00000150: f256 9f3d 68ef 143e c65d f53d e6dd 713d
00000160: fbb4 dabc c147 14be 5fb4 c23c a24f 8fbd
00000170: 24e2 2b3e 3dfd ecbc e405 1bbe 49e0 1cbe
00000180: 0f5f a93d e480 26be 9e5c 99bd 7232 cb3d
00000190: 6bfd d6bd e22a 153d df12 4ebd bc34 18bd
000001a0: 6892 f7bc 1205 a63d 9d04 94bd 5d6d b8bd
000001b0: 060e b8bd fd2b e23d e857 1ebe a76f f43d
000001c0: aecb cd3c c02f 38be 525e 2a3e 93e1 8e3d
000001d0: 0b4e 163e 2cbe 1a3e 4ef0 17be 5de8 c5bb
000001e0: f4c1 2ebe b8fe cf3d a3d6 b6bd 5069 313d
000001f0: d169 dc3c 6a0a 893d 8b7a dcbd f6f5 c8bd
00000200: 56dc 9e3d ca91 823d 1f43 c13d a152 403b
00000210: 3d79 1e3e 0ccd abbc 1c4a 823c afd8 37be
00000220: 0965 fc3d a3d8 653c d721 42bd 0261 1a3e
00000230: 1ccd 373c b23c 8ebd 4c28 233b ebfb 173e
00000240: 0c88 2abe 5399 1d3e 3fe5 0e3e 79a4 263e
00000250: 9f6f 16be 28c4 c03d 5195 ccbd b224 b0bd
00000260: 12dd 873d 84c7 d2bc f448 933d ae50 1f3c
00000270: 60b0 24be 46e8 e8bd 7d73 d8bd d272 2fbe
00000280: 1736 59bd b94a 503d 396c 7dbd 4a47 1f3d
00000290: f375 7ebd 9c7b b238 10c1 f3bd 352f 253e
000002a0: e6f7 0ebe 83cc c6bd a448 973d 18ee 05bd
000002b0: 2690 423d 07d5 47bd 0af1 183e 39e2 343d
000002c0: 47ca bcbb eb9d 62bd 691b a1bd 8d80 b6bd
000002d0: 7b2c 973d 3507 0ebe 8f52 aebc a0a6 8b3c
000002e0: b15f 1cbe 12b0 1abe f421 e8bc 0720 08bd
000002f0: a8fe 03be f1e5 a6bd 5e80 293e e5c4 a5bd
00000300: 3110 7fbd 7058 dfbc bfea aebd 3823 d63d
00000310: e89a f2bc 3d2c 023e 5c04 f53d 8049 e63c
00000320: 2f38 fb3c e19a afbd f8dd e8bd c0b6 a2bd
00000330: 52bb f03d f3dd ac3d 316f 913d d519 09be
00000340: 5997 dfbd f2df 26be 7141 213d 103e 0fbe
00000350: 490c d3bd f933 363e 0c1b fdbd 7f75 2c3e
00000360: 8d8d 263e f60c c63d eacd 82bc cb52 d53d
00000370: 56e1 c33d c522 be3d 3774 333b 5598 ab3d
00000380: f14a 113e b857 143c 82ab 563d 139f 123e
00000390: 997b d23d b85b 19bd 9c36 f6bd bf9e 5b3d
000003a0: e97a 0c3e f253 edbd 2567 bebd ecea 04be
000003b0: 9c25 0a3e 2e32 0abe e3b8 2dbe 5fbc 273e
000003c0: 7f10 3cbd 59b6 383d fd3f 293e 8201 2d3e
000003d0: ff4a bcbd 7f75 76bd 4fac a33d f9c8 78bd
000003e0: 1604 2cbe 9176 ecbd d37f e2bd bdb2 d9bd
000003f0: f76b 27bd fbb4 72bd a846 ae3d dc14 613d
0.08703856 0.12002187 -0.039687507 -0.06921035 -0.0069840294 0.15532614 0.15815543 -0.054176714
0.06334178 -0.13339964 0.026825257 -0.07844284 0.042163547 -0.09642001 0.06092531 0.06763258
0.16051954 -0.08182682 -0.118852496 0.11046939 0.010671845 -0.09629261 0.15385902 -0.041764256
-0.09791863 -0.061984904 -0.15757507 0.17514773 -0.08064982 0.11260988 -0.10857821 -0.1593026
-0.11803815 -0.06956762 -0.047552545 -0.03575731 0.041365955 0.07984506 -0.17675771 -0.14170991
0.045871813 0.050446395 -0.005518766 0.057798766 -0.16158658 0.091848075 0.056828603 0.02921712
0.14692976 -0.03857035 0.100414485 -0.057112932 -0.11206969 0.17424059 0.103913486 -0.1701432
0.035438646 -0.16573264 -0.013300142 -0.015141243 -0.13785204 0.08226538 -0.13886768 0.10763214
-0.005381683 -0.060929686 0.006653936 -0.006853179 0.050996426 0.037489958 0.10308886 0.021606147
-0.080519736 -0.12674786 0.18445064 0.060650524 -0.116572164 0.07880278 -0.11969866 0.14082326
-0.066342495 -0.024093825 0.11066006 0.07095519 0.077802554 0.14544451 0.119807765 0.05904951
-0.026697626 -0.14480497 0.023767648 -0.06997611 0.16785485 -0.028929347 -0.15138966 -0.15319933
0.08270084 -0.16260105 -0.074883685 0.09921731 -0.104975544 0.03641785 -0.050310966 -0.037159666
-0.03022118 0.08106436 -0.072274424 -0.090052344 -0.0898705 0.11043546 -0.15463221 0.119353585
0.025121536 -0.17986965 0.16637543 0.069766186 0.14678209 0.15111607 -0.14837763 -0.0060396628
-0.17066175 0.101560056 -0.089276575 0.043313324 0.026905926 0.066914394 -0.10765561 -0.09812538
0.077568695 0.06375463 0.094366305 0.0029346126 0.15475936 -0.020971797 0.015904479 -0.17953752
0.123239584 0.014028701 -0.047395553 0.15076068 0.0112183355 -0.069451705 0.0024895845 0.14842193
-0.1665346 0.1539052 0.13954638 0.16273679 -0.14691018 0.09412414 -0.09989417 -0.08600749
0.06633963 -0.025729902 0.07191649 0.009723825 -0.16082907 -0.11372428 -0.10568903 -0.17133644
-0.0530301 0.05085251 -0.061870787 0.038886346 -0.062124204 8.5107255e-05 -0.11902058 0.1613129
-0.13961753 -0.09706976 0.07386902 -0.032697767 0.047500752 -0.048787143 0.14935699 0.044161055
-0.005761418 -0.055326384 -0.07866556 -0.08911238 0.07381531 -0.13869937 -0.021279601 0.017047226
-0.15270878 -0.15106228 -0.028336503 -0.03323367 -0.12890112 -0.081493266 0.16552874 -0.08094195
-0.0622713 -0.02726385 -0.08540868 0.10455936 -0.02961488 0.12712188 0.11963722 0.02811122
0.030666439 -0.08574463 -0.11370462 -0.07945013 0.117544785 0.08440771 0.07101286 -0.1338876
-0.10917539 -0.16296366 0.03936905 -0.13988519 -0.103050776 0.17793263 -0.123586744 0.16841696
0.16264935 0.09670441 -0.015967328 0.10416182 0.09564464 0.092839755 0.0027382502 0.083786644
0.14188744 0.009054117 0.052409656 0.14318494 0.10277481 -0.037440985 -0.12022135 0.05361819
0.13718762 -0.11588277 -0.09297017 -0.1298024 0.1349091 -0.13495705 -0.1696506 0.16380452
-0.04591417 0.045095775 0.16528316 0.16895106 -0.09193992 -0.060170647 0.0799185 -0.060738537
-0.16798434 -0.11546052 -0.11059537 -0.10629795 -0.040874448 -0.059254628 0.0850957 0.054951534

emb_net.v_lins1.2.bias f4 [32]
00000000: 8aab 28be 15c6 17be 2c5d 13be 6adb 35bd
00000010: 188a 04be c5ee 32be eec1 2d3e 62ed 183e
00000020: 049d b5bd a2a1 90bc 106c 1cbd 4c81 aa3d
00000030: ed7d 583d 0978 123e 4e6a e63d b073 373c
00000040: ff97 f23a 624d 0c3e 76e7 323b 0a2a bdbd
00000050: eb67 b03a 97c9 b83d ec27 063e c45b 5f3d
00000060: 8aec 88bd 9893 c13c 26bb 06be ff5e 973b
00000070: 487f f7bd bf11 f83d 1fd9 a93d 446f 31be
-0.16471687 -0.14821656 -0.14391011 -0.044398703 -0.12943304 -0.17473896 0.1696851 0.14934304
-0.08867839 -0.017655198 -0.038188994 0.08325443 0.052854467 0.14303602 0.11250745 0.011197016
0.0018508433 0.13701394 0.0027298606 -0.09236534 0.0013458704 0.09022825 0.13101166 0.054530874
-0.06685741 0.023629948 -0.13157329 0.0046194787 -0.12084824 0.1211276 0.08293366 -0.173276

emb_net.v_lins1.3.weight f4 [32, 32]
00000000: d6e3 ebbd 3c91 49bd 554e b13d 6499 e73d
00000010: 08a1 303c 224c 55bd 46ff 193e 4711 b2bd
00000020: 75df 813d 92b8 133e 255f 41bd b21c 25be
00000030: de19 26bd c5d4 1d3e ec6d d0bb 06ca 2bbe
00000040: 3381 d1bd 8f28 1bbd c62d 4e3d 38e3 29be
00000050: 6591 423c bfa1 663d a5d3 ad3d ded3 5dbd
00000060: a133 f83c 24ca 0abe 22a2 a53d f868 cf3d
00000070: 95fb ee3d 8b9f 1f3e fa4a f03d a4a9 efbc
00000080: 5b04 283e 7410 c93c cce4 d23d 61af f93d
00000090: 11ba 12be ff4a 48bd 087e c03d e36b fe3d
000000a0: 5c4d b4bd 045e 25be 223e 7fbc d320 04be
000000b0: 9b5e 9dbd 651b 173e 250a 063d 46b7 453d
000000c0: 2ecf 90bc a6d6 f13d 742b 593c 523c 2cbd
000000d0: f634 29bd 1c62 fabd ed05 b1bd 85e3 22be
000000e0: 6f26 b93d 11e3 03be 1105 843d 7817 17bb
000000f0: 0a80 9dbc 6fce 993c a2a8 603d 46b5 273e
00000100: 6770 463d e5df d1bd 1505 113e 96a1 e63d
00000110: b4e4 cabc 735b 12be ddce 123e 2283 a6bd
00000120: 0a99 0c3e 6532 21be 1694 9ebd 1e8e d3bd
00000130: ac1f 233e cf37 0dbd 1da0 713d 2f26 2b3d
00000140: 860d 89bb 9293 b0bd a3dd c33d 17e8 03be
00000150: 4423 0cbe bd9f 1abe ae56 f3bd 4e99 a43d
00000160: d949 3a3d b53c 6dbd d0ce 59bd 4280 b73d
00000170: 11f8 75bd 83fb 09be d1fa 9f3d 273f f03c
00000180: 75d2 2dbe 48bc 0c3d cb11 22bc 3f59 ab3c
00000190: a352 62bd 2339 203d 8e78 e9bc 35bf d33d
000001a0: 2412 b93d 4c60 11be 22ed 383c 72fa c73d
000001b0: a990 033e 3512 b3bd 7f54 69bd 6dd9 0e3e
000001c0: e0c8 623a 0b56 713d 1e3c 233e 5946 61bd
000001d0: aaa4 0d3d bd82 80bd ce04 073e e317 933b
000001e0: 8efb d3bc 0c63 88bd b813 37be 5b78 1a3e
000001f0: 008f 333e a029 e13d 7f2c 7a3d 1ccd dfbd
00000200: 155b 573c a2eb 0e3d 4ba8 ba3d e14d bbbc
00000210: e8a1 503d 9210 d1bd 13e3 21be 2a04 0d3e
00000220: 193c acbd 578f 06be c70b 3dbc 4965 2e3e
00000230: 34fc ec3d e962 e8bd 097b 0e3e 3d21 433d
00000240: d07a 163d a351 603d 2c3e 413d 65d9 eebd
00000250: 2528 c03d 4b86 ef3d 9ed9 263e ad1f 313c
00000260: 1a1a 15be 63da 2dbe 8663 aabd 759f 17be
00000270: de75 503d c058 b3bd 9fd2 fc3d 07c8 11bd
00000280: 80cb 813c 19fb c7bd 1529 fcbd a7dc b1bd
00000290: 09ca 873c 9dde c93c 22e0 23be 2413 f0bd
000002a0: b8e5 37be afb2 133e 8c34 e6bd 5f4b 24be
000002b0: 00ac eebc d424 b5bd e5f1 f5bc b894 c63d
000002c0: 6f68 173e 03a9 e03d 9ede 8d3d 4ff5 69bd
000002d0: 81b6 f03d 5f20 1c3e 5e7c e7bd a99f 813d
000002e0: 846b 8b3d fa2f d93d 0497 0fbe c668 c43d
000002f0: c26e 993c 409f 1a3e 6974 79bd a92b 203e
00000300: 9107 9abd f357 0c3e 1ea9 98bb b403 bcbc
00000310: 3ba3 023e d3cf 473d 68aa cbbd d34a fb3d
00000320: 384e ce3d 8d19 ad3d fff5 24be 166d 213e
00000330: 727f 54bc c6ca 413b 552a fdbc f84e bb3c
00000340: 3577 263e 8889 6e3d 3037 853d 6f1a 61bd
00000350: fd55 e23d 7bb7 afbd 1b61 1cbc 5cda 20be
00000360: 0df8 03be 4434 bfbd 6cd7 cdbd c2ea babc
00000370: 5ee6 823d c113 b83d 3418 d83d dd00 b83d
00000380: af68 29bd f462 343e 9730 2e3c fe1d b73d
00000390: e3e1 b2bd 95a8 b53d 424e 1f3e 521a 363c
000003a0: 5041 f33d e59a c03d 3406 b33d dc94 2b3d
000003b0: 54e1 8b3d 472f 8a3d c6eb 42bd 285a d83d
000003c0: b18f f03d 621c a6bd ff7b db3d 76ed a53c
000003d0: b8ab 29be df08 99bd 00a1 923c ef4a d93d
000003e0: 9e75 173e 5925 6abc 62d3 1c3c ebeb 12bd
000003f0: 9c80 a63d 2eb1 123e efb3 2abe 4738 ac3b
-0.11518066 -0.049210772 0.08657519 0.11308554 0.01078058 -0.05207456 0.15038785 -0.08694702
0.06341449 0.14425877 -0.047209878 -0.16124228 -0.040552013 0.15413196 -0.00636076 -0.16776285
-0.10229721 -0.037880477 0.05033662 -0.16590583 0.011875485 0.056306597 0.084876336 -0.05415713
0.030298056 -0.13553673 0.08087565 0.10127443 0.11669079 0.15588205 0.11733051 -0.029255696
0.16407911 0.024543978 0.10297546 0.12191654 -0.14328791 -0.048899647 0.093990386 0.124229215
-0.08803818 -0.16149145 -0.015578778 -0.12903146 -0.0768406 0.14756544 0.03272452 0.048270486
-0.017676916 0.11808519 0.013254989 -0.042049713 -0.041310273 -0.12225744 -0.086437084 -0.15907104
0.09040534 -0.12879588 0.06446279 -0.002305476 -0.019226093 0.018775193 0.05484832 0.16377744
0.04844704 -0.102477826 0.14162095 0.11261289 -0.024767257 -0.14292698 0.14336725 -0.0813048
0.13730255 -0.1574188 -0.07743089 -0.10329841 0.1593005 -0.03447705 0.058990587 0.04178446
-0.0041825203 -0.08621897 0.09563758 -0.12881504 -0.13685328 -0.15099998 -0.11881767 0.08037053
0.045480583 -0.057919223 -0.053175747 0.0896001 -0.060051028 -0.1347485 0.07811511 0.029326988
-0.16974814 0.034359246 -0.0098919375 0.02091658 -0.05525459 0.03911699 -0.028499868 0.10339204
0.09036663 -0.1419689 0.011287006 0.097645655 0.12848152 -0.08743707 -0.056965347 0.13950129
0.00086511485 0.058919948 0.15940902 -0.05499873 0.034580864 -0.06274936 0.13185427 0.0044889315
-0.025876787 -0.06659517 -0.17878616 0.15084974 0.17535019 0.109942675 0.06107759 -0.109277934
0.013144274 0.034892686 0.091141306 -0.022864284 0.050935656 -0.10208239 -0.15809278 0.1377112
-0.084099 -0.13140617 -0.0115384525 0.17030825 0.115715414 -0.113469906 0.13914122 0.04763912
0.036738217 0.054765355 0.047178432 -0.116625585 0.09382657 0.11695536 0.16293952 0.010810775
-0.14560738 -0.16977839 -0.08319764 -0.14806922 0.050893657 -0.08757162 0.1234486 -0.03559115
0.015844107 -0.0976469 -0.12312523 -0.08684664 0.01657583 0.024642283 -0.16003469 -0.11722401
-0.17958724 0.14423631 -0.11240491 -0.16044377 -0.02913475 -0.08844915 -0.03002257 0.096963346
0.14785932 0.109697364 0.069272265 -0.05711871 0.1175356 0.15246724 -0.11303018 0.06329281
0.06807616 0.10604854 -0.14022452 0.095902964 0.018729571 0.15099812 -0.060902033 0.15641655
-0.075209744 0.13705425 -0.004658832 -0.022950985 0.1275758 0.04878218 -0.09944612 0.12270131
0.10073513 0.08452139 -0.16109465 0.15764269 -0.012969838 0.0029570325 -0.030903975 0.022864804
0.16256411 0.05823663 0.06504667 -0.05495685 0.11051557 -0.08579918 -0.009544636 -0.15708297
-0.12887593 -0.09336141 -0.10050854 -0.02281702 0.06391595 0.08988143 0.105514914 0.0898454
-0.0413596 0.17615873 0.010631702 0.089412674 -0.08734491 0.08870045 0.15557197 0.011114674
0.11877692 0.09404544 0.087414175 0.04189001 0.06830087 0.06747299 -0.047588132 0.10564071
0.11746157 -0.08110882 0.1071701 0.020254832 -0.16569412 -0.07472395 0.017899036 0.106099956
0.14790961 -0.014291131 0.009571882 -0.03586952 0.08129999 0.14325401 -0.16670202 0.005255732

emb_net.v_lins1.3.bias f4 [32]
00000000: 03a2 01be 14ea 2bbe 6a7f ec3d 5fc8 f0bc
00000010: 5252 503c ff35 56bd 2471 1b3e a7c5 d63d
00000020: 185a 0ebe cd5c d53d 4564 253e 680b 8bbd
00000030: 7a14 123e 04c5 8d3d c860 0f3e 0ad5 0fbe
00000040: 71fd 893d 0438 d9bc 934a 063e 7909 a93d
00000050: 97b1 f2bd 6f4b 073e 8c81 9f3d ff1f 933c
00000060: 4d6f 29bd 3c4c bbbd b374 2b3d ad7f 20be
00000070: c2c8 0dbe 97cd 8cbc 1173 3d3d 10bc bf3d
-0.12659459 -0.16788512 0.1154774 -0.02939242 0.012714939 -0.05229759 0.15179878 0.10486918
-0.13901556 0.10418091 0.16151531 -0.06789285 0.14265624 0.069223434 0.14001763 -0.14046112
0.06737793 -0.026515968 0.13114385 0.0825376 -0.11850279 0.1321237 0.07788381 0.017959593
-0.04136591 -0.091454 0.04185934 -0.15673704 -0.13846114 -0.017187877 0.046252314 0.09362042

emb_net.v_lins1.4.weight f4 [32, 32]
00000000: de80 b73b 74a5 aebd 0cab 173c 5572 893d
00000010: 4b94 033d 3996 38bd 2b2d 153e 7b17 eabd
00000020: d498 1dbe 392c ab3d 91a2 30be db65 d6bd
00000030: 847a 833d e85f aebd 5aee 85bd b015 26bb
00000040: ff18 4e3d 2909 d7bd 6f5a 76bd 97db 9e3d
00000050: 64ce 2cbe 6f6a 38bd 8c2c e43d 0d6f 6cbb
00000060: e6d3 e1bd 742e 803d 2801 0b3c 44fe 223d
00000070: 82ee 17be eb91 1cbe cd02 ff3d 63b7 4a3d
00000080: dd8e 813d 0357 4c3d 0533 8abd 226d b9bc
00000090: d49e 143d e5ac 373e e2d5 aebd efd3 d13d
000000a0: c050 283d 231f 7b3d db0d 30be 9b96 c33d
000000b0: 12d2 03be 3cb6 1b3d bfa6 dcbb bc99 eabd
000000c0: 3625 283d 31e2 0c3e 45bc c1bd ef56 bc3c
000000d0: ed37 7c3d 25e2 83bd 4269 a9bc a003 7e3d
000000e0: 6ff2 29be 7618 1ebe 51e4 b3bd 0824 1e3d
000000f0: 86ea 6dbd 1737 243e 9654 4b3b b32e a6bc
00000100: 2ab6 0bbe 5a2b 983d a776 2a3e 9214 28be
00000110: 4e85 cbbd 1acd 313e 859d b63d dfb4 b53d
00000120: fca2 82bd c3bd 183c c0b9 85bd 8338 c3bd
00000130: 2e84 98bd 2213 f9bd 7db7 1ebe e707 26be
00000140: 230e 37bc b919 b9bd e57c 80bc f8c4 ba3d
00000150: c99d 90bd f052 d6bd de85 173e 15b3 18be
00000160: 341a b4bd f7c0 b43d 2300 48bb dba9 d53d
00000170: 52d2 083e 2282 e33d 0e5f e73d 5fb0 04be
00000180: 2c75 393e 2af7 bd3d 7310 873d 97ab e2bd
00000190: 6822 cc3c 3fb8 063e c943 d2bd ad63 a33d
000001a0: e0f5 5ebd 309e 04be 68eb 5f3d 5b24 d6bc
000001b0: bd9b 603c a622 523c f67f 923c 750d c03d
000001c0: eff3 f93d 6f0d 60bd 45d3 debd f937 c63b
000001d0: cb21 f1bd a0c3 38bd 53b0 083e 8be0 30be
000001e0: 44bc e23c 57a8 d3bd 5795 b0ba 4e8d edbc
000001f0: 5742 15be 6d04 b53d 44f0 223d d062 ddbc
00000200: 369b b23b af01 f5bd 227d d3bd ca25 9bbc
00000210: 2a9b dfbd f546 55bd 1bd7 103e 2474 853d
00000220: 514a febc 9bc3 163e 4938 ba3d d543 d7bc
00000230: 21c4 d93d 7d1b 00be 509c 6ebd c15f 423d
00000240: 1ed9 7c3b 57ab 74bc e1a1 a3bd 57c7 ec3d
00000250: 7aa7 0bbd ada1 04bd 4a17 eb3d 678f 61bd
00000260: 0976 113e 2adf 4b3d 29dc 33be 9523 9abb
00000270: ac86 19bc 463f 883d c20b 023c 57de 3bbd
00000280: 2f94 c63d 6bea 1cbd 1aed 0c3e 80d2 343e
00000290: c252 3c3d 3dcd 57bd 536a 0bbe f93d b53d
000002a0: 5d91 21be d740 053e 23e8 17be a8bd 22bd
000002b0: 7aca 29be f490 f43c c6ef f43d 6b60 05bd
000002c0: 0ab0 a5bd 8d44 59bb 2358 92bd 5823 e83d
000002d0: 5d29 82bc 0d8c f83d 7623 1e3e a98a 58bc
000002e0: d851 5ebd d6f1 6cbd d7c5 cfbd 6d71 873c
000002f0: a09a e0bd 6abc 63bc e73d 49bc ee2c 183d
00000300: d7a3 9abd a3dc 1cbe 4bd2 063e 2274 cabd
00000310: 481c 62bd 7a1f c9bd 3f78 2cbe 3ddf f5bc
00000320: 445e 0ebc dedb ed3d 387f c83b b6d4 243e
00000330: dd8b 2c3c dafc 16be ee03 c3bd 8647 dd3d
00000340: d2e6 bcbc 647c 073e ac3e 73bd 4997 e2bc
00000350: 33db 083e 4b6a 353e 2d82 14bd 0c86 1bbc
00000360: 0ad4 263e a0c4 f3bd 67d1 363e c7e2 c03d
00000370: 41e7 6f3d ff41 0d3e 0563 6cbd 946c e23d
00000380: 86b1 133e 27bf 94bc 9067 993b bcb1 d8bd
00000390: 1e8a 70bd 16a2 13be 164e 0fbe 99fa ee3d
000003a0: 030b 26be 9cdd 04be e389 183d e48d 62bb
000003b0: 58f9 903d 393f e83d 36c9 0e3e c178 1abd
000003c0: c3ce 06bd 270d 853d 2b4d d0bd 75f6 d1bd
000003d0: 1377 f73c 199f 9a3d ba8f 203e 444f b43d
000003e0: 330a fc3c 5967 123e d768 aabc d614 243e
000003f0: 12ff b73d 4415 843d afe5 38bd 9f53 03bd
0.005600079 -0.085276514 0.009257089 0.0671126 0.032123845 -0.04506514 0.14568011 -0.1143026
-0.1539033 0.08358044 -0.17249514 -0.10468646 0.064198524 -0.085143864 -0.065396026 -0.0025342517
0.050316807 -0.10499794 -0.060144838 0.07756727 -0.16875607 -0.045023378 0.11141309 -0.0036076934
-0.110267445 0.0625886 0.008484162 0.039793268 -0.14837077 -0.15290038 0.12451706 0.049491297
0.06326077 0.04988767 -0.067480125 -0.022635046 0.036284283 0.17937048 -0.08536889 0.10245501
0.041092634 0.06130899 -0.17192785 0.0955021 -0.12873104 0.03801559 -0.006733745 -0.11455104
0.041051112 0.1375816 -0.09459738 0.022990672 0.061576772 -0.06439618 -0.020680074 0.062015176
-0.16596387 -0.15439019 -0.08783782 0.03860858 -0.058084987 0.1603664 0.003102576 -0.02028594
-0.13643709 0.07430144 0.16646825 -0.16414097 -0.09937535 0.17363396 0.08916763 0.08872389
-0.06378743 0.0093225865 -0.065295696 -0.09532263 -0.07447086 -0.121618524 -0.15499683 -0.16213952
-0.011172804 -0.09038109 -0.015684554 0.091196 -0.07061345 -0.10465038 0.1479716 -0.14912064
-0.0879406 0.088258676 -0.003051766 0.10432788 0.13361481 0.11108805 0.11297427 -0.12957905
0.18111104 0.092756584 0.06594934 -0.110678844 0.02491875 0.13156222 -0.10266835 0.07977996
-0.054433703 -0.12950969 0.05466786 -0.026140383 0.013709006 0.012825644 0.017883282 0.09377567
0.1220473 -0.05470031 -0.1088014 0.006049153 -0.117740236 -0.045108438 0.13348512 -0.17273156
0.027677663 -0.10334843 -0.0013472241 -0.028998043 -0.14576088 0.08838735 0.039779916 -0.027024657
0.0054506315 -0.11963212 -0.103266016 -0.018938918 -0.10918267 -0.052069623 0.14144556 0.06516293
-0.031041296 0.14723055 0.09092767 -0.026277462 0.10633112 -0.12510486 -0.05825454 0.0474546
0.003858156 -0.014933429 -0.0798986 0.115614586 -0.034095265 -0.03238075 0.114790514 -0.0550684
0.14205183 0.049773373 -0.17564453 -0.0047039487 -0.009370487 0.066526935 0.007937374 -0.045866337
0.096962325 -0.038309496 0.13762322 0.17658424 0.04597736 -0.052685965 -0.13614778 0.08849711
-0.15778108 0.13013016 -0.14834647 -0.03973165 -0.16581145 0.029854275 0.11959796 -0.032562654
-0.080902174 -0.0033152432 -0.07145717 0.11334866 -0.015888864 0.121360876 0.15443215 -0.013216653
-0.05427727 -0.05784782 -0.10145157 0.016533578 -0.109669924 -0.013899902 -0.012282825 0.037152223
-0.07550781 -0.15318541 0.13166158 -0.09885432 -0.055202752 -0.09820457 -0.16842745 -0.030013675
-0.008689467 0.11614202 0.0061186813 0.16096768 0.010531393 -0.14744893 -0.09522234 0.10804658
-0.023059282 0.13231045 -0.05938594 -0.027660029 0.13364868 0.17716329 -0.036256958 -0.0094924085
0.16291824 -0.119027376 0.17853318 0.09418254 0.05857015 0.13794707 -0.05771162 0.11055866
0.14423189 -0.018157555 0.004681535 -0.10580775 -0.05872547 -0.144173 -0.13994631 0.116688915
-0.16215138 -0.12975162 0.037240874 -0.0034569437 0.070788085 0.11340184 0.13943943 -0.037712816
-0.032912027 0.06496649 -0.101709686 -0.10252086 0.030208146 0.07549877 0.15679827 0.08804181
0.030766582 0.14297237 -0.020801945 0.16023573 0.08984198 0.064493686 -0.04514092 -0.03206217

emb_net.v_lins1.4.bias f4 [32]
00000000: 6149 893c 2ed6 92bd b574 17be 846b cebd
00000010: 8290 593d 022c 1cbc f1ee 1b3e d8f6 bbbd
00000020: 0d06 08be f1f4 503d 447a 61bd cceb 20be
00000030: dc11 81bd a74b bfbd c4a6 d43d a254 493d
00000040: 3087 25bd 119f fb3d d7ea 9e3d c635 743d
00000050: f5f4 f9bd 4504 46bd f8fc aabd 4cae aabc
00000060: 2323 923d d5ab 293e a424 2b3e 3f72 debd
00000070: ed12 2fbd 03a5 023d 8e65 23be c3ec 303e
0.016758623 -0.07169758 -0.14790614 -0.10079101 0.05311633 -0.009531977 0.15227868 -0.09177941
-0.13283558 0.051014844 -0.055048242 -0.1571495 -0.063022345 -0.093406014 0.103833705 0.049152978
-0.040412128 0.12286199 0.07759636 0.059621595 -0.12204925 -0.048343915 -0.08349031 -0.020835064
0.07135608 0.16569455 0.16713196 -0.108616345 -0.04274266 0.03189565 -0.15956709 0.17277817

emb_net.v_lins1.5.weight f4 [32, 32]
00000000: d3f8 8bbd b57d c8bd 8d44 1b3e 7c7f e1bd
00000010: 5de1 c3bd 72d4 273e ea8c 943d 5377 fd3d
00000020: bd32 953d aed1 91bd 4baa 183e 1899 edbb
00000030: e32f 923d eb7d b23c 542f 1b3e cd3d 2ebe
00000040: 6700 72bd cd52 f73d d747 273d cb0b 0a3d
00000050: b538 843b 0e28 81bd a853 e7bd f9f8 84bd
00000060: 5956 02be dfef 18be ea6e 9b3d 1614 88bd
00000070: cf13 1b3e e14e 213e 6258 c2bd 0a4e f9bd
00000080: d0bf 433d 4496 683d 2d92 843d d907 d8bc
00000090: be6d f2bc 1898 fcbd 89bb c5bd 71e0 f13d
000000a0: 3c91 18be 7441 833d aa02 023e d34f 48bd
000000b0: c423 d83d 2b4c 1cbe c080 82bd 0853 2bbe
000000c0: d3cb 923c bcff cfbc 4aa2 9bbd 5a87 fcbc
000000d0: 51a2 fd3d a759 a4bd a7a1 87bd c487 febd
000000e0: 1192 2abd 6b52 8fbd 30c1 bfbd 4e1e a2bd
000000f0: c006 183d c09d 323e d9c1 663d 531a 543d
00000100: f351 cc3d 458d 06be 3b49 35be 793e 71bd
00000110: 41bf 0dbe 4c0d 0ebe 9eab b2bd 23e8 223e
00000120: 990f 023e a95d 30be 6b2b 28be 4c37 193e
00000130: b530 023e ca5e 713d 8364 173e 1849 3fbd
00000140: 414d 1a3e 0251 2bbe aed5 a5bd 8bb8 78bd
00000150: babf 6dbd 0928 9cbc 2c60 ebbb 2771 f93d
00000160: d71f 93bd ec7b 213d 104f c73d f76b 173e
00000170: 5cd5 833b ee03 07be 6748 bd3c a302 103e
00000180: 9702 0cbd 6abd a9bc 5b6a c73d 9035 33be
00000190: 8816 12be b184 d7bc a875 21be 0dcf cbbd
000001a0: 8c5c dcbd 9aa5 e1bd e12c 863d 9468 2b3e
000001b0: 9ecb 32bd a7b9 16be 5b24 ac3d 70c6 1d3e
000001c0: 60cc 0c3e b66f a6bc 8106 2dbe 584a d73d
000001d0: 306a de3d 40f5 a83d a103 d63d 8abd debd
000001e0: 680b 043e c2e3 93bc d101 203a 177b f03c
000001f0: aaae 3a3d 82cb d93c 77f2 c2bd beb4 5e3d
00000200: edf9 25be 6fd9 9c3a 83e1 2ebe 8e76 d4bd
00000210: 0539 f43c e7c9 34be bfd5 01be f9f4 bfbc
00000220: d27c 683c 7139 87bd 2863 8a3d 1003 7fbb
00000230: f7a1 6ebd 0bd2 f13d c67c 10bd 896d f83c
00000240: 8b21 1cbe 852a fe3d cc89 fc3d 3e01 a2bd
00000250: 02d5 a33d c2b2 de3d e4aa 3c3c 196d c9bc
00000260: 3294 cfbd 09f0 9e3d e0bb eabd 95aa b0bd
00000270: a7cb 33be 61bd 94bd 16a3 03bd 99c0 703d
00000280: 2e83 e8bc 966e dcbd 3d9c 083e e789 24be
00000290: 3340 5abb 52e6 26be ed36 333e 8992 53bd
000002a0: 48d9 543d 85d9 193e 23b7 453d e235 4e3d
000002b0: 8f15 3d3d 4133 6dbc 69d9 22be 8c03 0d3d
000002c0: a09e 0a3d b484 633d ec5d e2bd 1d0e 2dbd
000002d0: 4c5a 0dbe ca43 c2bd ead1 34bd 7a35 193e
000002e0: ed6e 5d3d 777b 32be bd8f 153e 71bf 873d
000002f0: 64f8 8e3c e692 ba3d 842d 03be 4b6b da3d
00000300: 41c7 f7bd 6150 00be a527 403d 68e8 4e3d
00000310: fb99 1bbe 09fe 1d3e 8df9 873d 2c01 cf3d
00000320: b77c f63d 40b8 e63d 52d5 a6bd 31c7 083e
00000330: eb3e a23d 6b0e 283e 44a3 14be 29f0 013b
00000340: e5e8 8e3d 835b e8bc 0074 dbbd 81d7 fd3d
00000350: 1326 5a3d 5996 efbd 7723 0cbe b493 b53c
00000360: deba 1abe f30a 4ebd fd53 c6bc 6f41 44bc
00000370: 07b4 17be 7325 213d e8dc 8bbd a66c 05be
00000380: ae75 293e a359 d6bd ac22 46bd bf64 cebc
00000390: 67f9 8d3c 2c36 8cbb 2ec9 40bc 97a3 e23c
000003a0: 6175 a53d 1b4e d9bd db1a b83d 89e2 a53d
000003b0: c20d ce3d 5913 2d3c 372c 23be e3b9 113e
000003c0: 7962 f93d 0f99 21be 8719 e8bd 9cd2 1f3e
000003d0: 8f7a f43d 9162 c03d 4589 34be 6e2c a43d
000003e0: ef4f dbbd 84f1 743d 4db9 99bd 907f 113e
000003f0: 058b 933c 896a ec3c 897c 793d ac36 afbd
-0.06834569 -0.09789602 0.15162869 -0.11010644 -0.09564469 0.16389635 0.0725344 0.12376275
0.07285068 -0.07120071 0.14908712 -0.007250916 0.0713804 0.021788558 0.15154773 -0.17015763
-0.059082415 0.1207634 0.040839996 0.033702653 0.0040350803 -0.06306468 -0.11295253 -0.064928
-0.12728252 -0.14935254 0.075895146 -0.06644456 0.15144275 0.15752746 -0.09489514 -0.12173088
0.04779035 0.05678393 0.06473193 -0.02637093 -0.029593345 -0.12333697 -0.0965491 0.11810387
-0.14899153 0.064089686 0.12696329 -0.04890425 0.10553697 -0.15263431 -0.06372213 -0.16730893
0.017919457 -0.025390498 -0.075993136 -0.03082626 0.12384475 -0.08024912 -0.066226296 -0.12428239
-0.041643206 -0.06998142 -0.093630195 -0.079159364 0.037115812 0.1744299 0.05633721 0.051782917
0.09976568 -0.13139828 -0.17703716 -0.05889747 -0.13842489 -0.1387226 -0.0872414 0.15908866
0.12701263 -0.17223229 -0.16422813 0.149625 0.12713893 0.05892829 0.14784436 -0.046700567
0.15068533 -0.16730121 -0.08097397 -0.06072287 -0.058044173 -0.019062059 -0.0071830954 0.12179785
-0.07183807 0.03942482 0.09731877 0.14787279 0.004023237 -0.13185093 0.023105813 0.14063506
-0.034182157 -0.020720202 0.097370826 -0.17500901 -0.14266407 -0.02630839 -0.15767539 -0.09951601
-0.107598394 -0.11017914 0.06551529 0.16739112 -0.043651216 -0.14719258 0.08405372 0.15407729
0.13749838 -0.02031694 -0.16897012 0.10512227 0.108600974 0.08249903 0.10449911 -0.108759955
0.12894976 -0.01805294 0.0006103786 0.029355569 0.04557673 0.026586298 -0.09518903 0.054371588
-0.1620862 0.0011966656 -0.17078213 -0.10374175 0.029812345 -0.17655145 -0.12679194 -0.023432242
0.014189916 -0.06602753 0.06757194 -0.0038911738 -0.05825993 0.11807641 -0.035275243 0.030325668
-0.1524717 0.12410454 0.1233097 -0.07910393 0.079996124 0.10873939 0.011515353 -0.024588155
-0.10135688 0.07760627 -0.114616156 -0.08626286 -0.17558156 -0.07262684 -0.032137953 0.058777425
-0.028382864 -0.1076328 0.1334085 -0.1606823 -0.0033302426 -0.16298798 0.17501421 -0.05165342
0.051965028 0.15024383 0.048270356 0.050344355 0.046163138 -0.014477552 -0.15903248 0.03442721
0.033842683 0.055546477 -0.110530704 -0.042249788 -0.13803977 -0.09485586 -0.044145502 0.14961806
0.054060865 -0.1742991 0.14605613 0.066283114 0.017452426 0.0911005 -0.12810332 0.10664996
-0.120985515 -0.12530662 0.046912808 0.05051461 -0.15195458 0.15428938 0.06639395 0.101076454
0.12035506 0.11265612 -0.08146156 0.13357235 0.07922157 0.1641175 -0.14515406 0.0019826984
0.06978015 -0.028363949 -0.107154846 0.1239462 0.053258967 -0.116985984 -0.13685404 0.022165157
-0.15110347 -0.05030341 -0.02420997 -0.011978491 -0.14814769 0.039342355 -0.06829244 -0.13029727
0.16548797 -0.104663156 -0.04837291 -0.025194524 0.017330838 -0.0042789187 -0.011766715 0.027665896
0.08079029 -0.106106006 0.08989497 0.08099849 0.10061218 0.010563695 -0.15934835 0.14231066
0.12176985 -0.15781043 -0.11332994 0.15607685 0.11937439 0.093938 -0.17630489 0.08016287
-0.107086055 0.05980064 -0.075060464 0.14208817 0.018010626 0.028859394 0.06090978 -0.0855535

emb_net.v_lins1.5.bias f4 [32]
00000000: 60e1 4c3b 3e1b c03d 1da9 7e3d ebe0 f2bd
00000010: 682f 6bbd a288 10be 2245 38bd 210b a63d
00000020: a2b9 1f3e 16fd bf3d 6d80 413c b7ee 98bd
00000030: 2927 9f3c c7d7 c03d ad7e cabd df5e 21be
00000040: 8251 24bd 6b3d af3d 322a 233e 3df3 13be
00000050: bded 303d 457a 303e 3fed 0a3d 7345 c93d
00000060: 6ba3 80bb 9a3f 16bd c47a e53d b8b9 0bbd
00000070: b01e 2bbe 04c0 d1bc 1c06 07be f63e d2bc
0.0031262264 0.09380196 0.062172998 -0.11859306 -0.057418257 -0.14114621 -0.044987805 0.081075914
0.15598157 0.09374444 0.011810404 -0.07467406 0.019427853 0.09416156 -0.09887443 -0.15758847
-0.040116794 0.085566364 0.15934065 -0.14448257 0.043195475 0.17234142 0.03391766 0.098276995
-0.003925731 -0.03668175 0.11205056 -0.034112662 -0.16710925 -0.025604255 -0.13185924 -0.025664788
