pretrained/Partitioner/pctsp/pctsp-1000.pt (torch, 364226 bytes, 225 tensors)

emb_net.v_lin0.weight f4 [32, 2]
-0.3172086 -0.7004541 -0.40642032 0.504233 0.6798686 -0.27158535 -0.46194232 -0.14961204
0.09976217 0.29070053 0.52117676 -0.5387583 -0.3229491 -0.45510316 0.34753987 -0.028107475
-0.35695305 -0.11674888 -0.09319239 0.23423707 0.5197614 -0.29489157 -0.39391676 0.19274136
0.51591 0.07032315 -0.6136099 -0.36720067 -0.5072367 -0.053669337 0.61650246 -0.30520284
0.37879375 -0.21155147 -0.6469247 -0.017630477 0.080804825 -0.537713 0.27734768 0.4096301
-0.17871502 -0.5299192 -0.20748448 0.38968995 0.6113854 0.050673183 0.5583902 -0.08173671
0.53765994 -0.121352375 0.7040666 -0.42471626 -0.50814706 0.4359911 -0.6715554 -0.12769927
0.5161925 0.08636101 -0.6938805 -0.36519447 0.4558842 -0.4025519 -0.6307231 -0.14705327
00000000: 2a69 a2be f650 33bf 5316 d0be 6a15 013f
00000010: de0b 2e3f 3c0d 8bbe b483 ecbe e633 19be
00000020: 1c50 cc3d b3d6 943e d76b 053f 10ec 09bf
00000030: 9659 a5be 4803 e9be bff0 b13e a641 e6bc
00000040: 8dc2 b6be 091a efbd a7db bebd d8db 6f3e
00000050: 150f 053f 07fc 96be 75af c9be fe5d 453e
00000060: ae12 043f 9505 903d 8a15 1dbf ba01 bcbe
00000070: 44da 01bf 61d4 5bbd 1bd3 1d3f 8c43 9cbe
00000080: 41f1 c13e f3a0 58be db9c 25bf ca6d 90bc
00000090: 007d a53d 8fa7 09bf 8400 8e3e 09bb d13e
000000a0: 1201 37be c9a8 07bf d076 54be 7185 c73e
000000b0: c183 1c3f af8e 4f3d a9f2 0e3f 9465 a7bd
000000c0: 15a4 093f 9887 f8bd b53d 343f 6974 d9be
000000d0: ed15 02bf 3a3a df3e 0eeb 2bbf 99c3 02be
000000e0: 3125 043f 0bde b03d 27a2 31bf c5fa babe
000000f0: a769 e93e 481b cebe 1277 21bf 2295 16be

emb_net.v_lin0.bias f4 [32]
0.0051698694 -0.68395394 0.21424247 -0.10835279 0.36592582 -0.21039842 0.4654239 -0.24828093
0.025065709 -0.4959712 -0.15058161 0.39409137 -0.2378542 -0.59761685 0.10903082 0.03933366
-0.31404114 0.15915921 0.23385206 -0.058842897 0.31776646 0.4161727 -0.24624062 -0.18699525
-0.0786569 -0.60598344 -0.46123078 0.6949025 -0.6356501 0.40898532 -0.5921043 -0.66080004
00000000: 0268 a93b 9b17 2fbf 6162 5b3e 11e8 ddbd
00000010: a15a bb3e af72 57be 0b4c ee3e 5b3d 7ebe
00000020: 9a56 cd3c f0ef fdbe 1132 1abe 58c6 c93e
00000030: 0d90 73be 6bfd 18bf 8d4b df3d 551c 213d
00000040: 00ca a0be a2fa 223e ea76 6f3e 4005 71bd
00000050: 49b2 a23e 9714 d53e 8026 7cbe af7b 3fbe
00000060: de16 a1bd bb21 1bbf 7126 ecbe 21e5 313f
00000070: f7b9 22bf 8666 d13e 2694 17bf 312a 29bf

emb_net.v_lins1.0.weight f4 [32, 32]
0.10148427 0.10083437 0.108188406 0.002401193 -0.14515942 0.17089322 0.025900133 0.056574907
0.021483902 0.008896284 -0.03488822 0.11491769 -0.16499865 -0.018126246 -0.0043857014 -0.035216145
0.14302674 0.10535833 0.08620764 0.16112067 0.1476542 -0.00094864186 -0.094425485 0.06798365
-0.15292631 -0.05802284 -0.007844482 0.047425468 0.03198261 -0.030384911 0.04550201 -0.029025603
-0.04332903 -0.0018076919 0.12040788 0.09755538 0.12830201 -0.077499874 0.119025044 -0.012957993
-0.076750346 0.13824698 0.10728049 -0.056108188 0.044424027 -0.1443361 0.08748266 -0.013259581
0.14607218 0.07978596 -0.05992199 0.011557997 -0.049500216 -0.17075622 -0.08005624 0.10949309
-0.15275906 0.05563726 -0.034909446 -0.14431383 -0.05713659 0.019158594 0.009416804 -0.018731764
0.09096369 0.039809138 0.07844535 0.064899996 0.15561503 0.11416285 0.07955704 -0.020744674
0.15198307 0.16719277 0.14774106 -0.09836841 -0.024041101 0.11370286 0.14257623 0.06850654
-0.06728056 0.020040793 -0.17244384 -0.16627115 0.1289988 -0.025249153 -0.027046684 -0.0072782347
0.1683158 -0.13378958 0.087347426 0.13251682 -0.116344504 -0.011493655 -0.018762548 -0.14900629
-0.016902871 -0.13018191 -0.08621103 -0.08371271 0.1465236 0.024957675 0.08489759 0.0016239553
0.15040435 -0.13669987 -0.118639976 -0.16286485 -0.028371826 0.09691611 0.0644057 0.17032793
0.07334427 -0.06879697 0.05834875 -0.06488512 -0.08513336 0.109361894 0.17757156 0.0973777
-0.007967638 0.116537265 -0.10778803 0.07297958 0.042092737 0.11945647 -0.16607746 0.035267875
-0.086124875 -0.010024638 -0.038707078 -0.11002323 -0.13035926 -0.10679484 -0.14197323 0.090464875
-0.016890563 -0.13065602 0.027407423 -0.035285972 0.0102477865 0.05179927 0.024155235 -0.021580143
-0.06608032 -0.06205304 -0.15099119 0.1135664 -0.041284017 -0.13561484 -0.013137089 -0.13684054
-0.13946956 -0.08812491 0.025162932 -0.15831351 -0.11488473 0.115840964 -0.06519645 0.14861204
0.05419315 0.10870472 -0.05454843 0.015748342 0.03451024 0.044589493 0.16245882 0.122741275
-0.14910096 0.077781335 0.04720957 0.052501738 0.08700045 -0.13542941 0.11755451 0.15383519
0.16093636 -0.07926057 0.04149124 -0.07570723 -0.097790934 0.10431479 0.12046828 0.1276757
-0.1791131 -0.14911516 0.14374338 0.05377419 0.023364251 0.092711106 0.15983729 -0.0031299246
-0.04309333 -0.14932105 -0.01642388 -0.08185617 -0.03395443 0.123678364 -0.0071353363 0.09260877
-0.14075913 -0.02450888 -0.018662192 0.012171751 0.16360651 -0.1639934 -0.13796811 0.17379053
0.15409201 0.085896716 -0.069798484 -0.096230924 -0.040795725 -0.06188635 -0.0061866464 0.15425938
0.03474692 0.16943908 0.1464566 -0.041061204 -0.06121142 -0.15034214 0.09558927 -0.14170162
-0.061113026 -0.1407718 -0.0043007936 0.06348197 0.017007153 0.05043292 -0.030279612 0.04582865
0.020616295 0.052159403 0.060307175 -0.068369806 0.031376813 -0.17774765 -0.12618724 -0.13527118
0.14088714 -0.015205099 0.09911845 -0.105554745 0.04490899 -0.020011839 0.076577 -0.052461762
-0.1811336 0.15406682 0.13557607 -0.15482412 0.16165738 0.07304734 0.07038037 0.05254429
00000000: fcd6 cf3d 4082 ce3d e291 dd3d 555d 1d3b
00000010: aca4 14be a2fe 2e3e 842c d43c 17bb 673d
00000020: 02ff af3c b8c1 113c f3e6 0ebd f759 eb3d
00000030: 68f5 28be 7e7d 94bc eeb5 8fbb ce3e 10bd
00000040: 9a75 123e 1cc6 d73d a28d b03d d1fc 243e
00000050: aa32 173e 47ae 78ba 2662 c1bd 033b 8b3d
00000060: b798 1cbe 5ca9 6dbd 2486 00bc 3541 423d
00000070: 3200 033d c7e9 f8bc 5160 3a3d 1ac7 edbc
00000080: c879 31bd 13f0 ecba 6898 f63d 1dcb c73d
00000090: 9a61 033e 41b8 9ebd 67c3 f33d c34d 54bc
000000a0: 492f 9dbd 9e90 0d3e e0b5 db3d b3d1 65bd
000000b0: f8f5 353d d8cc 13be 1c2a b33d b73e 59bc
000000c0: f293 153e d266 a33d c370 75bd c15d 3d3c
000000d0: bdc0 4abd b8da 2ebe 87f4 a3bd ea3d e03d
000000e0: df6c 1cbe e5e3 633d 35fd 0ebd 01c7 13be
000000f0: 0f08 6abd 7cf2 9c3c f048 1a3c 5b73 99bc
00000100: 2c4b ba3d e80e 233d f5a7 a03d 4aea 843d
00000110: 8c59 1f3e 36ce e93d cdee a23d bcf0 a9bc
00000120: 73a1 1b3e 9534 2b3e 6f49 173e 6075 c9bd
00000130: d8f1 c4bc 0cdd e83d 81ff 113e 284d 8c3d
00000140: 64ca 89bd 972c a43c 1e95 30be fc42 2abe
00000150: 4318 043e 50d7 cebc 0291 ddbc 427e eebb
00000160: fa5a 2c3e 2300 09be 35e3 b23d 7db2 073e
00000170: 0746 eebd e24f 3cbc eab3 99bc 1b95 18be
00000180: e477 8abc 684e 05be 698f b0bd 9271 abbd
00000190: 480a 163e 0a74 cc3c cade ad3d e6da d43a
000001a0: 9903 1a3e 0dfb 0bbe 84f9 f2bd 0bc6 26be
000001b0: 086c e8bc f47b c63d 23e7 833d 726a 2e3e
000001c0: 8535 963d 6de5 8cbd 19ff 6e3d 7de2 84bd
000001d0: 665a aebd 21f9 df3d 52d5 353e f66d c73d
000001e0: b28a 02bc 17ab ee3d f8bf dcbd 5176 953d
000001f0: 6f69 2c3d 98a5 f43d 3610 2abe 0c75 103d
00000200: 3d62 b0bd 613e 24bc 508b 1ebd dc53 e1bd
00000210: e67c 05be 41b7 dabd 6e61 11be a645 b93d
00000220: 145e 8abc b1ca 05be 8885 e03c 0688 10bd
00000230: 55e6 273c 792b 543d 33e1 c53c d7c8 b0bc
00000240: 1e55 87bd 542b 7ebd 6f9d 1abe 8095 e83d
00000250: 6e19 29bd 9ede 0abe f23c 57bc ed1f 0cbe
00000260: 1cd1 0ebe d57a b4bd 7e22 ce3c f01c 22be
00000270: af48 ebbd 073e ed3d b785 85bd c12d 183e
00000280: a3f9 5d3d 95a0 de3d 2d6e 5fbd ab02 813c
00000290: 9c5a 0d3d 79a3 363d 9b5b 263e c75f fb3d
000002a0: ecad 18be d24b 9f3d d25e 413d 100c 573d
000002b0: 4b2d b23d 02ae 0abe 6bc0 f03d f986 1d3e
000002c0: 80cc 243e 5e53 a2bd b8f2 293d 640c 9bbd
000002d0: 9d46 c8bd fea2 d53d 13b8 f63d 6bbd 023e
000002e0: 6d69 37be a5b1 18be 7731 133e 5342 5c3d
000002f0: 6366 bf3c 52df bd3d 63ac 233e 6c1f 4dbb
00000300: a282 30bd 9ee7 18be 5f8b 86bc 35a4 a7bd
00000310: cd13 0bbd 154b fd3d 8acf e9bb aba9 bd3d
00000320: 2923 10be d9c6 c8bc 74e1 98bc 066c 473c
00000330: 7788 273e e3ed 27be 8347 0dbe 25f6 313e
00000340: 4cca 1d3e 9eea af3d 82f2 8ebd b814 c5bd
00000350: 6b19 27bd 8b7c 7dbd 5ab9 cabb 2cf6 1d3e
00000360: c952 0e3d 7081 2d3e b8f8 153e cb2f 28bd
00000370: d3b8 7abd 4af3 19be 4fc4 c33d 3b1a 11be
00000380: a751 7abd 7c26 10be aced 8cbb d602 823d
00000390: 9652 8b3c c092 4e3d f30c f8bc d3b6 3b3d
000003a0: 81e3 a83c 19a5 553d a804 773d 7805 8cbd
000003b0: f984 003d 7b03 36be 3a37 01be 8784 0abe
000003c0: b844 103e cf1e 79bc 9dfe ca3d 162d d8bd
000003d0: 7df2 373d deef a3bc 67d4 9c3d 25e2 56bd
000003e0: 167b 39be b1c3 1d3e 74d4 0a3e 378a 1ebe
000003f0: 8389 253e d899 953d 9523 903d ae38 573d

emb_net.v_lins1.0.bias f4 [32]
-0.06155023 -0.15116976 0.122640476 -0.13219285 0.07448455 -0.019721163 -0.029311918 0.17827111
0.083423264 -0.14593087 -0.016690308 -0.017626876 0.03764531 0.084975846 -0.15435171 -0.10363853
-0.042275544 0.09166741 0.0587668 -0.09694202 0.046929475 -0.17623289 0.034912385 -0.124704756
-0.018414494 -0.12177545 -0.017445793 -0.055269267 -0.015878087 -0.1010048 0.13561752 -0.07585356
00000000: 181c 7cbd 3fcc 1abe ee2a fb3d 905d 07be
00000010: 5b8b 983d 478e a1bc 8c1f f0bc b48c 363e
00000020: d1d9 aa3d e76e 15be 1dba 88bc 3d66 90bc
00000030: f831 1a3d d107 ae3d 600e 1ebe 7040 d4bd
00000040: 1f29 2dbd 20bc bb3d 75b5 703d 8a89 c6bd
00000050: 1f39 403d 6576 34be 4a00 0f3d 3565 ffbd
00000060: fed9 96bc 6865 f9bd 7bea 8ebc 0762 62bd
00000070: c312 82bc 9bdb cebd 52df 0a3e 1c59 9bbd

emb_net.v_lins1.1.weight f4 [32, 32]
-0.15752827 -0.08149364 -0.11777303 -0.1258545 0.112831645 -0.023631148 -0.06495108 -0.15624247
-0.043589707 -0.017371321 -0.14282756 0.013254224 -0.010715952 0.00021663686 0.041664463 -0.115454644
0.103329554 0.1129988 0.07240118 0.17006084 0.107893296 -0.023678135 -0.0855171 -0.15979312
-0.08902855 0.17769977 0.01216439 -0.13219953 -0.026593251 0.03773181 -0.10344446 0.17962137
0.035290565 -0.10076425 -0.11865967 0.030765062 0.01860263 0.054125372 0.16821386 -0.16758974
0.012159179 -0.0127035435 -0.12694158 0.10799991 -0.12771457 0.15729503 -0.13376261 -0.12376745
-0.0030344583 -0.10178166 -0.16180193 0.051074438 -0.011610489 -0.059854373 0.0009246292 0.08539208
0.08605909 -0.1585843 0.13014175 -0.10612248 -0.04753033 -0.14455225 0.13665034 0.15303713
-0.09672617 0.15164317 0.17515804 0.06581988 0.06819164 -0.12084311 0.07135536 0.07864518
0.021844024 -0.008801304 0.16648437 -0.1320827 -0.072051436 -0.13431777 0.12857442 0.1653355
-0.028852912 0.15401898 0.07081002 -0.12441566 0.146942 -0.09431747 -0.05713139 0.14101776
-0.027574843 -0.08293123 0.13126315 -0.16661438 0.07709963 0.0053234757 0.14801864 0.008836891
-0.075302266 -0.14488964 -0.08785969 0.13033347 0.13093133 0.14500105 -0.14335859 -0.18140528
0.081010446 -0.15894973 0.09182855 0.116493054 0.14164364 0.011327393 -0.06608698 -0.053736676
-3.620105e-05 0.056544874 0.04374943 -0.06652218 -0.13270144 -0.12229894 -0.103814125 -0.053000942
-0.14414467 -0.16506153 -0.15810862 0.04915641 -0.1441681 -0.09817748 0.114766896 -0.0107092215
-0.115232565 -0.1106851 0.13249737 -0.041369688 0.13042991 0.16813125 0.054282628 -0.0036985204
0.014379467 -0.13818099 0.0124589205 0.06603529 0.08737183 -0.037957184 0.13313995 -0.10275834
-0.032048795 0.021324936 0.100511186 0.16104113 0.13471419 -0.11204853 0.0217611 0.1499785
0.1415123 0.14286715 -0.17127939 0.17395975 -0.122423194 0.03315487 -0.15178126 0.036175903
-0.14784168 -0.118519 0.13520442 0.09074365 0.04979906 0.053099085 -0.030161021 -0.0071181823
0.16672881 0.015151054 0.13240287 0.09764016 0.012808021 0.11856135 -0.1488953 -0.101711094
0.06767903 -0.020190561 -0.09415537 -0.10037492 0.16462767 -0.058001548 0.12122594 0.17904167
-0.12289758 0.045503173 -0.02420153 -0.11539273 -0.009074716 -0.04971216 0.00068348803 0.013031356
-0.08853773 0.03555764 0.15852116 -0.03622812 0.010795376 0.11908602 0.01707802 -0.14663175
0.13522445 -0.050915245 -0.152217 0.14451998 -0.15072253 0.045637414 -0.10415985 -0.14698818
0.043866053 0.14531595 -0.15076756 0.029510412 0.121721156 0.086009644 0.036616508 -0.02581557
0.12018462 0.13052562 0.010662258 0.124890186 0.100352965 0.048234403 0.03647736 -0.16857241
-0.0841246 0.05357234 -0.006709667 -0.12516065 0.075440556 0.08369611 0.076392055 0.009032376
-0.10272372 0.14937188 0.045452695 -0.17960522 -0.1546349 0.056018356 -0.117800064 0.06703367
-0.054829717 -0.06410288 -0.008911976 0.18611658 -0.04832391 0.15778811 0.0960806 -0.107766725
-0.155737 0.07732953 -0.039350286 -0.02959679 0.060382165 0.12268963 -0.14706537 0.13288693
00000000: 174f 21be 23e6 a6bd fd32 f1bd 01e0 00be
00000010: 4714 e73d 1c96 c1bc 1205 85bd 07fe 1fbe
00000020: 1f8b 32bd 4d4e 8ebc 6341 12be 3f28 593c
00000030: f691 2fbc 0429 6339 5ba8 2a3d 7c73 ecbd
00000040: 729e d33d ea6b e73d 1247 943d 6e24 2e3e
00000050: 29f7 dc3d a6f8 c1bc 9723 afbd cfa0 23be
00000060: 9a54 b6bd eef6 353e 264d 473c 505f 07be
00000070: 17da d9bc ac8c 1a3d b0da d3bd aaee 373e
00000080: d78c 103d 7d5d cebd d703 f3bd 0307 fc3c
00000090: 8b64 983c 91b2 5d3d 4140 2c3e a59c 2bbe
000000a0: 4b37 473c 8622 50bc f9fc 01be 0f2f dd3d
000000b0: 9cc7 02be f311 213e 11f9 08be ca79 fdbd
000000c0: c3dd 46bb e772 d0bd 68af 25be 6e33 513d
000000d0: ec39 3ebc dc29 75bd d162 723a 0be2 ae3d
000000e0: c03f b03d ec63 22be e143 053e be56 d9bd
000000f0: 2aaf 42bd 8105 14be 11ee 0b3e c4b5 1c3e
00000100: 5f18 c6bd 5948 1b3e a15c 333e 93cc 863d
00000110: 0fa8 8b3d 987c f7bd c222 923d b910 a13d
00000120: 3df2 b23c 5833 10bc e17a 2a3e b040 07be
00000130: b48f 93bd 998a 09be 03a9 033e b64d 293e
00000140: f15c ecbc 27b7 1d3e d804 913d a3cd febd
00000150: f777 163e 8529 c1bd 9b02 6abd f666 103e
00000160: a3e4 e1bc d9d7 a9bd d969 063e f69c 2abe
00000170: 69e6 9d3d 8d70 ae3b 3392 173e 9bc8 103c
00000180: 1338 9abd f35d 14be c8ef b3bd 2376 053e
00000190: dd12 063e 287b 143e 98cc 12be 4ec2 39be
000001a0: cee8 a53d b8c3 22be 9b10 bc3d e993 ee3d
000001b0: 080b 113e 8896 393c 9c58 87bd fd1a 5cbd
000001c0: 95d6 17b8 999b 673d 9a32 333d c83c 88bd
000001d0: e3e2 07be de77 fabd 809c d4bd 8417 59bd
000001e0: a99a 13be e405 29be 3ae7 21be 3b58 493d
000001f0: cda0 13be 4611 c9bd e80a eb3d bb75 2fbc
00000200: 0dff ebbd dfae e2bd 64ad 073e 4373 29bd
00000210: 6b8f 053e 992a 2c3e 7657 5e3d e062 72bb
00000220: db97 6b3c 517f 0dbe 8020 4c3c 833d 873d
00000230: 01f0 b23d fe78 1bbd d755 083e f772 d2bd
00000240: 9945 03bd a2b1 ae3c cfd8 cd3d f7e7 243e
00000250: 84f2 093e b379 e5bd 5644 b23c f793 193e
00000260: 9ae8 103e c44b 123e dd63 2fbe 8122 323e
00000270: 03b9 fabd 67cd 073d 8c6c 1bbe 2f2d 143d
00000280: cf63 17be 17ba f2bd 0773 0a3e cfd7 b93d
00000290: 19fa 4b3d 6d7e 593d 3f14 f7bc a43f e9bb
000002a0: f5ba 2a3e 203c 783c 9e94 073e 90f7 c73d
000002b0: bcd8 513c 4bd0 f23d 0278 18be e84d d0bd
000002c0: 4e9b 8a3d ad66 a5bc 88d4 c0bd 5e91 cdbd
000002d0: 2894 283e 0893 6dbd 4e45 f83d b356 373e
000002e0: bab1 fbbd 8961 3a3d 4942 c6bc 0653 ecbd
000002f0: 1eae 14bc fa9e 4bbd 1b2c 333a 7881 553c
00000300: 4553 b5bd e3a4 113d 5f53 223e f063 14bd
00000310: 17df 303c 5fe3 f33d 34e7 8b3c a226 16be
00000320: 4778 0a3e 818c 50bd c6de 1bbe 0cfd 133e
00000330: 0257 1abe 4cee 3a3d c251 d5bd 1284 16be
00000340: e4ac 333d b4cd 143e d062 1abe d2bf f13c
00000350: f148 f93d d325 b03d 31fb 153d 2d7b d3bc
00000360: 5b23 f63d 82a8 053e c0b0 2e3c 6dc6 ff3d
00000370: db85 cd3d 7091 453d 4969 153d 3f9e 2cbe
00000380: 8549 acbd ac6e 5b3d c4dc dbbb 1d2a 00be
00000390: 9480 9a3d de68 ab3d 7073 9c3d 88fc 133c
000003a0: d060 d2bd f1f4 183e 9b2c 3a3d 6eea 37be
000003b0: 9c58 1ebe 8173 653d 2941 f1bd f348 893d
000003c0: 2095 60bd 5f48 83bd 8903 12bc 5895 3e3e
000003d0: 4bef 45bd 3593 213e e8c5 c43d cdb4 dcbd
000003e0: 8579 1fbe f25e 9e3d c42d 21bd f874 f2bc
000003f0: 4a53 773d b344 fb3d 4e98 16be 8313 083e

emb_net.v_lins1.1.bias f4 [32]
-0.04224175 -0.014926012 0.05483539 -0.010186291 -0.11718275 -0.1308202 0.055272907 0.10480262
-0.026399726 0.025065571 0.14895436 0.1269664 -0.08479976 -0.1710969 -0.051176738 -0.16204235
0.06070355 -0.03637212 0.037793048 -0.14067687 0.0867682 -0.0011459145 -0.11287773 -0.08030918
0.16032623 0.043181773 -0.09628246 -0.049252637 0.016239712 0.11708077 -0.1378196 -0.07063345
00000000: af05 2dbd 3b8c 74bc 139b 603d 67e4 26bc
00000010: 82fd efbd bbf5 05be d865 623d c2a2 d63d
00000020: 3d44 d8bc 5056 cd3c 7e87 183e 7b03 023e
00000030: 7fab adbd 0734 2fbe b39e 51bd 6eee 25be
00000040: 49a4 783d effa 14bd e2cc 1a3d 990d 10be
00000050: 87b3 b13d 8332 96ba 702c e7bd 2479 a4bd
00000060: 8f2c 243e 5fdf 303d bd2f c5bd 22bd 49bd
00000070: 2509 853c 0bc8 ef3d 9520 0dbe 45a8 90bd

emb_net.v_lins1.2.weight f4 [32, 32]
0.097397335 0.11354561 -0.038463272 -0.07457684 -0.00610791 0.15292865 0.16439691 -0.046141513
0.059038334 -0.13974062 0.022148332 -0.0815931 0.039082423 -0.10163746 0.06256085 0.06107658
0.16453102 -0.081175126 -0.1211147 0.11359369 0.010830363 -0.10123768 0.15390791 -0.046724375
-0.09934477 -0.06187849 -0.15783013 0.16352774 -0.0797203 0.11064679 -0.11002074 -0.15533403
-0.113738805 -0.06923713 -0.040406916 -0.037825882 0.037845064 0.07409147 -0.17271169 -0.12764336
0.059984744 0.044746783 -0.008502071 0.052731924 -0.1653642 0.09171922 0.065005004 0.03726932
0.15047222 -0.041849934 0.10490245 -0.06206668 -0.10860452 0.17173924 0.10540577 -0.16107707
0.030372001 -0.15883775 -0.016660811 -0.013741456 -0.13255654 0.09260923 -0.14306843 0.11515098
-0.019189805 -0.059464414 -0.006604572 0.0005432417 0.056137737 0.039810855 0.090968125 0.027939472
-0.07938573 -0.12261234 0.18904325 0.070257664 -0.113471895 0.08503868 -0.12946229 0.14408551
-0.0576374 -0.016055288 0.09856811 0.07730324 0.06708374 0.13765456 0.11160303 0.07260529
-0.018323688 -0.15152566 0.03003095 -0.06679202 0.1560702 -0.038563978 -0.1455991 -0.16459297
0.07948162 -0.16367134 -0.08254171 0.09524748 -0.10677709 0.02787057 -0.05995639 -0.045736477
-0.041209485 0.09303805 -0.070731506 -0.09765727 -0.09222625 0.100749165 -0.1620459 0.10461011
0.010947219 -0.18406191 0.15783823 0.06980941 0.14055748 0.14802596 -0.15351678 -0.0022271585
-0.1703814 0.09327876 -0.09996996 0.04694763 0.016412176 0.056554317 -0.11522969 -0.10519152
0.07686355 0.061741255 0.097000875 0.003265232 0.15991908 -0.02018647 0.016208475 -0.17768668
0.116285734 0.020752253 -0.044759512 0.15248075 0.016543848 -0.0675055 0.0010801674 0.14670715
-0.16042402 0.15719749 0.14151424 0.16311483 -0.14784414 0.09672124 -0.101825334 -0.081792325
0.068852626 -0.024830637 0.076817915 0.00958362 -0.16219848 -0.10898466 -0.10382028 -0.1731615
-0.049833663 0.053858638 -0.06288635 0.0347992 -0.06555239 -0.0062718824 -0.11125699 0.16689645
-0.13884445 -0.09799767 0.06753641 -0.035203572 0.0420327 -0.04668542 0.15787403 0.04765028
-0.0070137186 -0.05967738 -0.08161865 -0.08912659 0.07952604 -0.1452167 -0.026173968 0.017746134
-0.1578352 -0.14373001 -0.03422981 -0.033792034 -0.121786036 -0.07429472 0.16246378 -0.07075996
-0.062497854 -0.029608447 -0.0911065 0.10862595 -0.023821704 0.12731636 0.12578584 0.03813598
0.040810015 -0.096930124 -0.11248924 -0.076223366 0.12144301 0.09052631 0.0674911 -0.13031298
-0.10301689 -0.15944716 0.034570068 -0.13256869 -0.104696 0.17824017 -0.12157692 0.16844171
0.1645588 0.09093338 -0.012902332 0.09411667 0.0919755 0.09784095 0.005808228 0.0910788
0.13768668 0.015029917 0.06809355 0.14248139 0.09943474 -0.03712994 -0.11384386 0.04902143
0.14446081 -0.111027405 -0.091782995 -0.13430707 0.13391069 -0.13739927 -0.15989602 0.17142656
-0.049102884 0.041933235 0.17472327 0.1603522 -0.08636785 -0.05569824 0.086056665 -0.057814576
-0.1717412 -0.10568765 -0.11257107 -0.10098645 -0.031992324 -0.058193594 0.08494655 0.060543183
00000000: 4178 c73d 9a8a e83d aa8b 1dbd bebb 98bd
00000010: dd24 c8bb 5499 1c3e aa57 283e e2fe 3cbd
00000020: 2ed2 713d 2a18 0fbe 6b70 b53c 491a a7bd
00000030: e414 203d 4d27 d0bd e71f 803d 702b 7a3d
00000040: d27a 283e 253f a6bd fc0a f8bd cfa3 e83d
00000050: d671 313c b355 cfbd 099a 1d3e 0f62 3fbd
00000060: 4575 cbbd 4d74 7dbd 399e 21be d173 273e
00000070: 6644 a3bd c99a e23d 8e52 e1bd e20f 1fbe
00000080: e4ef e8bd 32cc 8dbd b981 25bd 50ef 1abd
00000090: 6d03 1b3d 45bd 973d 55db 30be f1b4 02be
000000a0: 90b2 753d 6748 373d 454c 0bbc 6efd 573d
000000b0: 3c55 29be 49d7 bb3d 5821 853d b7a7 183d
000000c0: 6415 1a3e d66a 2bbd 19d7 d63d a239 7ebd
000000d0: 0c6c debd 69dc 2f3e fbde d73d 63f1 24be
000000e0: b4ce f83c 5da6 22be 417c 88bc d823 61bc
000000f0: e7bc 07be e8a9 bd3d 8880 12be 47d4 eb3d
00000100: f033 9dbc f590 73bd 2a6b d8bb 5568 0e3a
00000110: aff0 653d b510 233d 7f4d ba3d 52e1 e43c
00000120: fc94 a2bd 2e1c fbbd 8e94 413e 40e3 8f3d
00000130: f463 e8bd c228 ae3d c391 04be 278b 133e
00000140: 3215 6cbd 6186 83bc 14de c93d 2951 9e3d
00000150: 3363 893d 51f5 0c3e 2190 e43d 15b2 943d
00000160: 8f1b 96bc 8b29 1bbe 7803 f63c 41ca 88bd
00000170: ded0 1f3e 43f5 1dbd ee17 15be 0f8b 28be
00000180: 42c7 a23d 7699 27be a10b a9bd 1c11 c33d
00000190: f2ad dabd d250 e43c d594 75bd 2c56 3bbd
000001a0: 47cb 28bd bc8a be3d aedb 90bd 8900 c8bd
000001b0: 1ee1 bcbd 9455 ce3d 5cef 25be d33d d63d
000001c0: f75b 333c ba7a 3cbe 58a0 213e 3cf8 8e3d
000001d0: 4dee 0f3e 1e94 173e 8133 1dbe 85f5 11bb
000001e0: 7678 2ebe ef08 bf3d 0dbd ccbd 284c 403d
000001f0: d472 863c 80a5 673d 8bfd ebbd a76e d7bd
00000200: a36a 9d3d 66e4 7c3d 65a8 c63d 81fd 553b
00000210: d4c1 233e 195e a5bc a3c7 843c 7ff3 35be
00000220: 3727 ee3d a100 aa3c c055 37bd ea23 1c3e
00000230: f786 873c 5340 8abd 6794 8d3a 663a 163e
00000240: 3246 24be 61f8 203e 1ce9 103e 9307 273e
00000250: 7464 17be c915 c63d cd89 d0bd bc82 a7bd
00000260: 9b02 8d3d 9f69 cbbc b652 9d3d 9e04 1d3c
00000270: 5c17 26be 5933 dfbd ba9f d4bd 4051 31be
00000280: 621e 4cbd e09a 5c3d 8fca 80bd 9b89 0e3d
00000290: 5540 86bd 5d84 cdbb b4da e3bd e7e6 2a3e
000002a0: 3d2d 0ebe 01b3 c8bd 8850 8a3d 9f31 10bd
000002b0: 7b2a 2c3d 3639 3fbd bba9 213e f12c 433d
000002c0: 56d3 e5bb 4570 74bd ae27 a7bd 0088 b6bd
000002d0: 8cde a23d b0b3 14be ca6a d6bc 5760 913c
000002e0: 8d9f 21be f62d 13be 8f34 0cbd 8469 0abd
000002f0: f56a f9bd d527 98bd e85c 263e 99ea 90bd
00000300: c0fd 7fbd 6a8d f2bc 0b96 babd 4877 de3d
00000310: bc25 c3bc 385f 023e 01ce 003e 7934 1c3d
00000320: 6728 273d 4d83 c6bd c260 e6bd ff1a 9cbd
00000330: 1db7 f83d dc65 b93d c638 8a3d c470 05be
00000340: 85fa d2bd 1e46 23be 5899 0d3d 16c0 07be
00000350: db6a d6bd 9784 363e 52fd f8bd fc7b 2c3e
00000360: 1a82 283e 483b ba3d 4d64 53bc 3ec0 c03d
00000370: a75d bc3d d660 c83d f352 be3b 8687 ba3d
00000380: bdfd 0c3e 0a40 763c a274 8b3d a4e6 113e
00000390: 71a4 cb3d 9015 18bd f826 e9bd b2ca 483d
000003a0: 89ed 133e 5662 e3bd b9f8 bbbd cb87 09be
000003b0: e21f 093e 65b2 0cbe c8bb 23be 728a 2f3e
000003c0: 1b20 49bd 2fc2 2b3d a8ea 323e 5e33 243e
000003d0: a1e1 b0bd d623 64bd 7a3e b03d face 6cbd
000003e0: eddc 2fbe c472 d8bd a98b e6bd fcd1 cebd
000003f0: 620a 03bd 685c 6ebd 75f8 ad3d 21fc 773d

emb_net.v_lins1.2.bias f4 [32]
-0.17126365 -0.14807798 -0.14628592 -0.038865093 -0.13218741 -0.17019074 0.16883865 0.15397274
-0.08819585 -0.01711342 -0.038464673 0.08152262 0.053236295 0.14328681 0.11535197 0.013849805
0.0029083835 0.13334738 0.0021735632 -0.08788492 0.0024959203 0.09109301 0.13058765 0.052887477
-0.06624628 0.021137306 -0.12362215 0.003108896 -0.12387356 0.117366344 0.0826722 -0.17574032
00000000: bd5f 2fbe c1a1 17be facb 15be 0131 1fbd
00000010: 235c 07be 7b46 2ebe 0ae4 2c3e 08ab 1d3e
00000020: 07a0 b4bd 7131 8cbc 228d 1dbd 55f5 a63d
00000030: 4d0e 5a3d c7b9 123e a73d ec3d 4bea 623c
00000040: 949a 3e3b 378c 083e 5772 0e3b 02fd b3bd
00000050: 9892 233b f98e ba3d c5b8 053e 8aa0 583d
00000060: 21ac 87bd 2528 ad3c 9c2d fdbd 9fbe 4b3b
00000070: 6cb1 fdbd c45d f03d 0b50 a93d 45f5 33be

emb_net.v_lins1.3.weight f4 [32, 32]
-0.11135018 -0.052924275 0.08243921 0.11064906 0.009558475 -0.058272343 0.15716079 -0.08416456
0.06264889 0.14100832 -0.050684966 -0.15733641 -0.045277447 0.15376079 0.004032754 -0.16905695
-0.09560353 -0.036437973 0.04858519 -0.16034357 0.018534943 0.062110193 0.09073426 -0.04901059
0.039628085 -0.13251007 0.08144836 0.10225507 0.11280923 0.16166766 0.123351775 -0.027718874
0.15918858 0.028203154 0.08991092 0.11740417 -0.1407688 -0.05233179 0.08809 0.13290636
-0.08145271 -0.17063124 -0.017717581 -0.13182792 -0.07920558 0.13890469 0.030560499 0.057937518
-0.017001253 0.12147319 0.00523999 -0.04146814 -0.048286475 -0.12704588 -0.067988686 -0.16640857
0.08982546 -0.13467681 0.06034067 -0.011546394 -0.029218128 0.011968592 0.060560994 0.15431434
0.04617312 -0.10052222 0.13156013 0.10288957 -0.019113608 -0.1391217 0.1287962 -0.076432124
0.14307605 -0.1627733 -0.06954682 -0.099534184 0.16557308 -0.046829946 0.04907585 0.045978706
-0.00055729324 -0.07944612 0.08325565 -0.12570739 -0.14685823 -0.1498768 -0.117489636 0.088083245
0.052961517 -0.06875135 -0.060885526 0.08853508 -0.06754102 -0.1467226 0.08494162 0.021915322
-0.17135108 0.037082106 -0.009634804 0.019732254 -0.058683403 0.035160434 -0.027356593 0.1028063
0.094190426 -0.13836873 0.0060841716 0.09380069 0.12644932 -0.08746941 -0.056883715 0.14047863
-0.002333744 0.054672174 0.158728 -0.057199825 0.033894986 -0.06511206 0.13424417 0.0058584046
-0.022387883 -0.06429517 -0.1752969 0.15578564 0.17711222 0.11147224 0.062399574 -0.10871567
0.017375372 0.033382483 0.09593645 -0.015478213 0.053551514 -0.09516087 -0.15881862 0.13143025
-0.094198756 -0.11702909 -0.0039490946 0.16543232 0.119822524 -0.109262094 0.13647331 0.040712185
0.04242224 0.0539926 0.05341037 -0.12021113 0.10147834 0.118598945 0.15521514 0.0121704945
-0.14751211 -0.1689494 -0.07988258 -0.15079872 0.053016994 -0.07693647 0.12075515 -0.03127148
0.01810597 -0.09622918 -0.12213711 -0.08459214 0.011183006 0.022914 -0.15690881 -0.12234031
-0.17823778 0.14019634 -0.116101705 -0.16865537 -0.032641396 -0.08398021 -0.027964257 0.09740274
0.14459553 0.10280447 0.067618005 -0.0631729 0.115435265 0.15373349 -0.125871 0.056110434
0.059308346 0.10910583 -0.1469497 0.11570079 0.024370853 0.1484877 -0.06662646 0.15945148
-0.0872376 0.1323145 -0.007034575 -0.02395219 0.13107312 0.045353256 -0.0912943 0.12960318
0.10762393 0.08574786 -0.16165997 0.16354713 -0.022433907 0.008423979 -0.028235048 0.02151486
0.15889995 0.06582863 0.067473434 -0.043431856 0.108420864 -0.090396434 -0.0079226345 -0.15065871
-0.12097322 -0.09167338 -0.10198414 -0.0061041233 0.06464785 0.09805563 0.11599273 0.08200471
-0.025725389 0.16725467 0.010464858 0.08480338 -0.095871374 0.08325383 0.16006693 0.012383427
0.12285745 0.09399801 0.07972805 0.03641753 0.05917574 0.061444875 -0.050088994 0.10425689
0.11197364 -0.08998055 0.097419806 0.017292168 -0.1705419 -0.0774901 0.016879555 0.11230155
0.14890844 -0.008754039 0.003978639 -0.028972944 0.09117463 0.13885674 -0.17061521 0.0070403893
00000000: 900b e4bd 20c7 58bd e3d5 a83d f99b e23d
00000010: 269b 1c3c fbae 6ebd c2ee 203e 785e acbd
00000020: 104e 803d 7c64 103e 0a9b 4fbd cc1c 21be
00000030: d874 39bd 7873 1d3e 3125 843b 441d 2dbe
00000040: c9cb c3bd fc3f 15bd 4401 473d 1b31 24be
00000050: 98d6 973c 4267 7e3d e2d2 b93d 54bf 48bd
00000060: 0f51 223d b8b0 07be 66ce a63d 1b6b d13d
00000070: 8708 e73d 358c 253e db9f fc3d b112 e3bc
00000080: 5502 233e 4d0a e73c 3723 b83d 9971 f03d
00000090: b225 10be dc59 56bd 8868 b43d 9b18 083e
000000a0: aed0 a6bd f5b9 2ebe 7624 91bc e6fd 06be
000000b0: 8936 a2bd 083d 0e3e 035a fa3c e44f 6d3d
000000c0: 3646 8bbc f0c6 f83d 39b4 ab3b 7fda 29bd
000000d0: 0ac8 45bd 5118 02be a73d 8bbd 0267 2abe
000000e0: 69f6 b73d b8e8 09be c727 773d 162d 3dbc
000000f0: db5a efbc ea17 443c ce0e 783d 9404 1e3e
00000100: 0720 3d3d 98de cdbd b3b7 063e c4b7 d23d
00000110: 2494 9cbc eb75 0ebe 27e3 033e 7288 9cbd
00000120: 8782 123e 0bae 26be 906e 8ebd 94d8 cbbd
00000130: fd8b 293e c2d0 3fbd c203 493d 2b54 3c3d
00000140: 5117 12ba a6b4 a2bd f081 aa3d 70b9 00be
00000150: 0162 16be 4e79 19be 689e f0bd fd64 b43d
00000160: 2dee 583d 82cd 8cbd 1a63 79bd e151 b53d
00000170: f252 8abd 733e 16be dff5 ad3d c387 b33c
00000180: a876 2fbe 68e3 173d 4cdb 1dbc 89a5 a13c
00000190: 025e 70bd 6304 103d ef1a e0bc 1c8c d23d
000001a0: e9e6 c03d 88b0 0dbe bb5d c73b 931a c03d
000001b0: ee7b 013e 2923 b3bd e6fe 68bd a1d9 0f3e
000001c0: baf1 18bb eeef 5f3d 9889 223e 5d4a 6abd
000001d0: 78d5 0a3d 7959 85bd 4e77 093e dcf7 bf3b
000001e0: cb66 b7bc 30ad 83bd 0881 33be 4586 1f3e
000001f0: e85c 353e 8f4b e43d b296 7f3d 52a6 debd
00000200: cc56 8e3c 12bc 083d 547a c43d 5598 7dbc
00000210: d558 5b3d b4e3 c2bd 59a1 22be a795 063e
00000220: 47eb c0bd f3ac efbd 6867 81bb 1767 293e
00000230: 8365 f53d cec4 dfbd a9bf 0b3e d2c1 263d
00000240: f1c2 2d3d 5827 5d3d d5c4 5a3d 4131 f6bd
00000250: e0d3 cf3d 01e4 f23d b8f0 1e3e c166 473c
00000260: 6a0d 17be 1201 2dbe 7a99 a3bd fb6a 1abe
00000270: 5928 593d de90 9dbd 7a4e f73d 8616 00bd
00000280: f952 943c ce13 c5bd 0523 fabd a53e adbd
00000290: ed38 373c 24b6 bb3c b4ac 20be 8e8d fabd
000002a0: f783 36be a18f 0f3e bbc6 edbd feb3 2cbe
000002b0: fcb2 05bd d1fd abbd 4c15 e5bc 167b c73d
000002c0: da10 143e 268b d23d 4f7b 8a3d cb60 81bd
000002d0: 5369 ec3d 506c 1d3e 54e4 00be 0ed4 653d
000002e0: 4fed 723d e172 df3d fb79 16be 89f4 ec3d
000002f0: 62a5 c73c 290d 183e 7473 88bd 4047 233e
00000300: a0a9 b2bd 747d 073e 4b82 e6bb 6237 c4bc
00000310: 0838 063e 56c4 393d 82f8 babd b2b6 043e
00000320: ef69 dc3d 939c af3d 318a 25be e678 273e
00000330: 50c7 b7bc bb04 0a3c 304d e7bc ef3f b03c
00000340: abb6 223e 29d1 863d 832f 8a3d 9ae5 31bd
00000350: c20b de3d c421 b9bd f0cd 01bc 4746 1abe
00000360: cfc0 f7bd 41bf bbbd 10dd d0bd 1905 c8bb
00000370: 1866 843d 64d1 c83d 998d ed3d 16f2 a73d
00000380: 0dbe d2bc cf44 2b3e cc74 2b3c 65ad ad3d
00000390: 3658 c4bd fc80 aa3d 96e8 233e dbe3 4a3c
000003a0: b09c fb3d 0782 c03d 7648 a33d 8c2a 153d
000003b0: 4362 723d 9fad 7b3d 1e2a 4dbd a384 d53d
000003c0: 7052 e53d b947 b8bd 0984 c73d 4ea8 8d3c
000003d0: 89a2 2ebe 21b3 9ebd fe46 8a3c 5bfe e53d
000003e0: 747b 183e 1a6d 0fbc 3e5f 823b ab58 edbc
000003f0: c4b9 ba3d 7630 0e3e c1b5 2ebe 11b3 e63b

emb_net.v_lins1.3.bias f4 [32]
-0.1312145 -0.1647368 0.11040867 -0.02858756 0.015354254 -0.04864854 0.14814085 0.11277639
-0.13810398 0.10140779 0.15909931 -0.06730312 0.14571516 0.07028086 0.14210856 -0.13531849
0.070419274 -0.027806696 0.13095394 0.08058499 -0.1211814 0.13903107 0.07511568 0.0068949186
-0.043769345 -0.08757645 0.033924777 -0.1538706 -0.14220807 -0.01857624 0.045424227 0.09491135
00000000: 185d 06be c4b0 28be f11d e23d 7530 eabc
00000010: 6990 7b3c b143 47bd 3cb2 173e 4ff7 e63d
00000020: 216b 0dbe e3ae cf3d eeea 223e 38d6 89bd
00000030: 5b36 153e 69ef 8f3d e884 113e ee90 0abe
00000040: fb37 903d deca e3bc ca18 063e be09 a53d
00000050: f42d f8bd 295e 0e3e 40d6 993d c5ee e13b
00000060: 7c47 33bd 485b b3bd b5f4 0a3d 4190 1dbe
00000070: fe9e 11be 332d 98bc c10e 3a3d e260 c23d

emb_net.v_lins1.4.weight f4 [32, 32]
0.0057696356 -0.08459379 0.007781657 0.058817856 0.030470587 -0.049979027 0.15416661 -0.11152033
-0.15759924 0.09288099 -0.17776255 -0.097518735 0.0599129 -0.07594843 -0.0691621 -0.012609074
0.05380958 -0.10338951 -0.059672683 0.08197099 -0.1639285 -0.05017554 0.111715905 -0.012746055
-0.107934676 0.06271118 0.017110437 0.04776321 -0.1318009 -0.14307159 0.12507184 0.045390915
0.0641484 0.049926642 -0.06491479 -0.02165189 0.029299287 0.17185807 -0.08327551 0.10103888
0.056444567 0.053948756 -0.18000105 0.0969037 -0.1290071 0.035231147 -0.008745432 -0.10956219
0.033065602 0.13119066 -0.09511848 0.024692407 0.0608154 -0.06861636 -0.009382588 0.058244444
-0.17060024 -0.15045823 -0.09484666 0.033115577 -0.062153287 0.15286346 -0.0031569086 -0.02771376
-0.13446838 0.079401314 0.16245395 -0.15948187 -0.09920341 0.17967722 0.08723455 0.094220005
-0.052581064 0.005335661 -0.06310696 -0.09528163 -0.06539432 -0.119757585 -0.15106143 -0.15918797
-0.012790618 -0.09131353 -0.017581338 0.09504899 -0.07379716 -0.0956637 0.15448913 -0.14522654
-0.07640398 0.09170732 -0.0019099842 0.10866547 0.12620148 0.1182323 0.10935182 -0.1366797
0.17050411 0.08514065 0.059930433 -0.10872331 0.02769328 0.13120797 -0.11081318 0.066365786
-0.04872526 -0.13504364 0.052108016 -0.038280174 0.016930137 -0.0017700236 0.01883418 0.09796882
0.11077206 -0.050468452 -0.11331932 0.008724613 -0.12644477 -0.047291696 0.13412893 -0.16974558
0.032058936 -0.111384876 -0.012745614 -0.03258865 -0.15961027 0.08022231 0.046156667 -0.028655637
0.0011237727 -0.12931322 -0.106156476 -0.014564681 -0.099953026 -0.045961887 0.14553228 0.06142234
-0.0485539 0.14781542 0.10212595 -0.026826108 0.11250226 -0.12064222 -0.06444306 0.050130215
0.01359971 -0.006694433 -0.072993495 0.11998981 -0.028167509 -0.02733561 0.11173773 -0.049953032
0.13923453 0.043789156 -0.16990033 0.0007148617 -0.0023973885 0.06752073 0.015394942 -0.036963
0.09185973 -0.04481368 0.13491176 0.16488488 0.041462284 -0.06604145 -0.14217424 0.07516242
-0.15014783 0.1258397 -0.15796219 -0.042294197 -0.15829615 0.022397893 0.11325241 -0.038639326
-0.094987415 -0.008976349 -0.082956456 0.111454464 -0.016815327 0.110934325 0.14984006 -0.01902819
-0.059874512 -0.059092876 -0.11444427 0.0153334 -0.11327677 -0.022825668 -0.015517177 0.030849816
-0.079953626 -0.15870763 0.12889326 -0.09591905 -0.057129852 -0.10000421 -0.1710839 -0.03963138
0.0066423714 0.10203128 0.0054891803 0.15698819 0.012233667 -0.14621302 -0.09730941 0.10869332
-0.029228115 0.13003626 -0.061895233 -0.028826026 0.13084774 0.1777258 -0.035886973 -0.014967828
0.16046262 -0.12257284 0.17445408 0.09811068 0.046644114 0.13571617 -0.05929453 0.11055295
0.14242558 -0.021287505 0.0047980184 -0.10875633 -0.06436613 -0.14658578 -0.14369331 0.108860195
-0.15603803 -0.13430685 0.032057494 -0.0058025736 0.08299361 0.10879844 0.1372307 -0.04002974
-0.0419693 0.06255022 -0.10760091 -0.10544563 0.027471162 0.06888679 0.15657656 0.08498543
0.030846631 0.1401722 -0.02885753 0.15361708 0.08689548 0.05902836 -0.04995048 -0.03459486
00000000: 360f bd3b 823f adbd 45fd fe3b feea 703d
00000010: 749d f93c cfb6 4cbd dadd 1d3e c564 e4bd
00000020: b261 21be 6338 be3d 6307 36be e7b7 c7bd
00000030: 3b67 753d da8a 9bbd dca4 8dbd 4a96 4ebc
00000040: 6f67 5c3d e1bd d3bd 586b 74bd 68e0 a73d
00000050: dfdc 27be de84 4dbd 4fcb e43d d4d4 50bc
00000060: db0c ddbd b86e 803d 302b 8c3c 5ba3 433d
00000070: d1f6 06be 5c81 12be d512 003e d3eb 393d
00000080: 3d60 833d e17f 4c3d 0cf2 84bd 4e5f b1bc
00000090: 0f05 f03c 90fb 2f3e 5a8c aabd 79ed ce3d
000000a0: 6b32 673d 5ff9 5c3d 3252 38be 7275 c63d
000000b0: 701a 04be 894e 103d 0049 0fbc 2462 e0bd
000000c0: cc6f 073d d856 063e 7acd c2bd bb47 ca3c
000000d0: 9219 793d bc86 8cbd 6db9 19bc ba91 6e3d
000000e0: d4b1 2ebe b911 1abe f73e c2bd 33a4 073d
000000f0: 7294 7ebd 3d88 1c3e 23e4 4ebb f807 e3bc
00000100: 14b2 09be 289d a23d 545a 263e 374f 23be
00000110: 282b cbbd 4efd 373e 07a8 b23d 6bf6 c03d
00000120: 3e5f 57bd c5d6 ae3b 393e 81bd 0423 c3bd
00000130: 75ed 85bd 7743 f5bd d9af 1abe 2c02 23be
00000140: be8f 51bc 9702 bbbd bd06 90bc 0ba9 c23d
00000150: f722 97bd 54eb c3bd 6632 1e3e 44b6 14be
00000160: b179 9cbd 0cd1 bb3d 6f58 faba 008c de3d
00000170: f63a 013e c723 f23d d9f3 df3d c3f5 0bbe
00000180: a198 2e3e 395e ae3d 9d79 753d 54aa debd
00000190: 04dd e23c 625b 063e 05f2 e2bd c9ea 873d
000001a0: 2394 47bd e148 0abe 376f 553d accb 1cbd
000001b0: 12b1 8a3c 2300 e8ba 234a 9a3c e0a3 c83d
000001c0: 76dc e23d 02b8 4ebd f613 e8bd aef1 0e3c
000001d0: bd7a 01be f0b4 41bd 1859 093e c9d1 2dbe
000001e0: 3b50 033d c11d e4bd fbd2 50bc ad7b 05bd
000001f0: e070 23be 984b a43d c60e 3d3d 3abf eabc
00000200: 8e4b 933a af6a 04be 9168 d9bd b3a0 6ebc
00000210: 2cb4 ccbd 8842 3cbd 6a06 153e fe95 7b3d
00000220: 74e0 46bd ed5c 173e 6927 d13d 6dc2 dbbc
00000230: 9667 e63d 4513 f7bd b9fa 83bd 5755 4d3d
00000240: 51d1 5e3c f95c dbbb 9d7d 95bd 38bd f53d
00000250: 8cbf e6bc eeee dfbc c0d6 e43d 8d9b 4cbd
00000260: 7f93 0e3e 425c 333d 5afa 2dbe 8e65 3b3a
00000270: 811d 1dbb 4f48 8a3d 113b 7c3c 8466 17bd
00000280: f420 bc3d 8d8e 37bd 4f26 0a3e 95d7 283e
00000290: 5bd4 293d bd40 87bd 2096 11be c1ee 993d
000002a0: 5ac0 19be 1fdc 003e d7c0 21be ae3c 2dbd
000002b0: 6318 22be c97b b73c e1f0 e73d 4544 1ebd
000002c0: c388 c2bd 8911 13bc 13e5 a9bd 3d42 e43d
000002d0: 4cc0 89bc 8931 e33d ac6f 193e 02e1 9bbc
000002e0: fa3e 75bd 5f0b 72bd c261 eabd f138 7b3c
000002f0: a7fd e7bd e5fc babc c23b 7ebc c1b8 fc3c
00000300: babe a3bd 4184 22be 98fc 033e 3571 c4bd
00000310: fe00 6abd 02cf ccbd 9e30 2fbe 8454 22bd
00000320: 40a8 d93b c7f5 d03d 95de b33b 83c1 203e
00000330: b86f 483c deb8 15be 284a c7bd 9a9a de3d
00000340: cd6f efbc 3a28 053e db85 7dbd 8f24 ecbc
00000350: f3fc 053e c1fd 353e 38fe 12bd 9f3b 75bc
00000360: 5050 243e 7807 fbbd 17a4 323e 41ee c83d
00000370: e60d 3f3d 2ef9 0a3e d2de 72bd 9669 e23d
00000380: 03d8 113e 2263 aebc b238 9d3b a4bb debd
00000390: 64d2 83bd 951a 16be 5724 13be 18f2 de3d
000003a0: 6fc8 1fbe bc87 09be b84e 033d 8423 bebb
000003b0: 8ef8 a93d b7d1 de3d 3486 0c3e 3af6 23bd
000003c0: 00e8 2bbd 541a 803d de5d dcbd e1f3 d7bd
000003d0: 340b e13c 8414 8d3d 9b55 203e d70c ae3d
000003e0: 13b2 fc3c 4d89 0f3e a066 ecbc cc4d 1d3e
000003f0: 42f6 b13d b9c7 713d e098 4cbd 57b3 0dbd

emb_net.v_lins1.4.bias f4 [32]
0.020309987 -0.07294629 -0.1455471 -0.09953981 0.05641644 -0.008120722 0.14892595 -0.09205432
-0.13827543 0.051456824 -0.05741867 -0.15792766 -0.06617829 -0.08793327 0.104063384 0.047191817
-0.042136736 0.123824485 0.078018755 0.056897882 -0.12090303 -0.047829237 -0.08218524 -0.020509306
0.07420535 0.1663185 0.16904658 -0.110848464 -0.0442086 0.034740977 -0.16121723 0.17111367
00000000: 2161 a63c dd64 95bd 4d0a 15be 87db cbbd
00000010: ed14 673d c70c 05bc 0b80 183e fa86 bcbd
00000020: 1398 0dbe 64c4 523d d72f 6bbd cab7 21be
00000030: 7c88 87bd 5c16 b4bd 2f1f d53d 354c 413d
00000040: 9297 2cbd b197 fd3d 4cc8 9f3d c10d 693d
00000050: 029c f7bd 97e8 43bd bc50 a8bd 2203 a8bc
00000060: f9f8 973d 664f 2a3e 8c1a 2d3e 8504 e3bd
00000070: 1414 35bd 8e4c 0e3d 2116 25be 6c38 2f3e

emb_net.v_lins1.5.weight f4 [32, 32]
-0.060426746 -0.09597562 0.15630928 -0.11260239 -0.09346636 0.16146256 0.07988723 0.13178435
0.085883975 -0.068018004 0.14781277 -0.0008585796 0.08355148 0.025349202 0.1577218 -0.16814305
-0.05863384 0.12569869 0.04060222 0.036250833 0.00519125 -0.059172247 -0.10762894 -0.059771057
-0.12823015 -0.15155883 0.07472727 -0.058584083 0.15207751 0.14727905 -0.08656195 -0.113727175
0.053300805 0.058562636 0.07057472 -0.019446753 -0.042091347 -0.12532723 -0.09842336 0.11763797
-0.15390754 0.0595913 0.116748795 -0.04932046 0.09577457 -0.15483381 -0.06486369 -0.16760157
-0.0004849446 -0.03711692 -0.08345699 -0.03604679 0.11862089 -0.08178318 -0.056869823 -0.13905363
-0.06331594 -0.063659325 -0.10376248 -0.07812852 0.039399277 0.17177588 0.04234758 0.040267218
0.10833246 -0.121275224 -0.17293365 -0.04581932 -0.123802334 -0.1346675 -0.08427812 0.17217061
0.14118898 -0.1821056 -0.14701864 0.14901586 0.13531275 0.061477106 0.15043557 -0.029840127
0.16646318 -0.15193687 -0.071030825 -0.052913815 -0.05924094 -0.013439894 -0.004148274 0.13497472
-0.046904705 0.041663215 0.11020056 0.14050625 -0.003043929 -0.14065462 0.045035668 0.14905567
-0.037041035 -0.017412651 0.09987187 -0.17417808 -0.14512914 -0.03639817 -0.15916789 -0.10301658
-0.10903039 -0.10768018 0.06545554 0.16602923 -0.041401222 -0.1509507 0.084705986 0.15438916
0.14002113 -0.020033099 -0.16597684 0.102706134 0.11001228 0.08023003 0.10408458 -0.11194441
0.12261394 -0.018195815 0.0012412929 0.024153324 0.047694154 0.0276791 -0.098659545 0.051958162
-0.15927593 0.0063501527 -0.16066445 -0.09675506 0.04328138 -0.1728524 -0.1128585 -0.017613007
0.02099826 -0.060417756 0.08206681 0.0016728874 -0.0476711 0.12991486 -0.025699813 0.03837665
-0.13475521 0.13437317 0.14301527 -0.07311747 0.091604084 0.122191645 0.012808798 -0.016672838
-0.08948434 0.079228975 -0.098487146 -0.08421579 -0.16402645 -0.077275425 -0.014589694 0.072335154
-0.038588353 -0.11277662 0.13236445 -0.150098 -0.0017540165 -0.1567689 0.1739711 -0.05442794
0.055541057 0.1423195 0.055510543 0.05524684 0.05682672 -0.004540303 -0.1653744 0.035349447
0.042509925 0.05730135 -0.11168061 -0.045179673 -0.13320598 -0.0841847 -0.045565173 0.14885789
0.055798404 -0.17945655 0.14790753 0.07365444 0.0061914693 0.085958436 -0.12409156 0.11050341
-0.12814178 -0.12261049 0.043780632 0.07020795 -0.14771439 0.15120326 0.061159655 0.087996885
0.13496678 0.09196469 -0.077586 0.12562226 0.09485522 0.17041907 -0.15123306 0.013873864
0.07518793 -0.026831932 -0.10209115 0.12579395 0.056805678 -0.107331395 -0.13910563 0.02865481
-0.14718959 -0.060261827 -0.018259661 -0.016237212 -0.15624598 0.015818182 -0.060975097 -0.122640446
0.15683345 -0.09920025 -0.056908008 -0.027642652 0.015807698 0.0022781019 -0.013057841 0.014411062
0.08558517 -0.09920842 0.09028644 0.0843763 0.09728294 0.0061634155 -0.16690828 0.13874945
0.12259875 -0.15598668 -0.116674334 0.15790783 0.117034376 0.090282716 -0.18969944 0.075987965
-0.104393 0.04293486 -0.079998694 0.14986171 0.022625316 0.037517346 0.058024336 -0.082598664
00000000: 0982 77bd de8e c4bd 8a0f 203e 159c e6bd
00000010: 4a6b bfbd 7156 253e eb9b a33d 7af2 063e
00000020: f0e3 af3d 064d 8bbd 3b5c 173e 4d12 61ba
00000030: 0a1d ab3d 21a9 cf3c d381 213e b12d 2cbe
00000040: 0a2a 70bd 28b7 003e 834e 263d c17b 143d
00000050: 5c1b aa3b 995e 72bd 906c dcbd 7fd2 74bd
00000060: c44e 03be 3d32 1bbe 9c0a 993d ddf5 6fbd
00000070: 35ba 1b3e 52d0 163e 6447 b1bd cbe9 e8bd
00000080: f251 5a3d 60df 6f3d 7b89 903d cc4e 9fbc
00000090: fa67 2cbd c855 00be 3092 c9bd 2dec f03d
000000a0: f099 1dbe 0216 743d fe19 ef3d 4004 4abd
000000b0: 7525 c43d c18c 1ebe 41d7 84bd bf9f 2bbe
000000c0: 2a40 feb9 e907 18bd 80eb aabd cda5 13bd
000000d0: 82ef f23d f17d a7bd 55f0 68bd 1364 0ebe
000000e0: caab 81bd d25f 82bd 6c81 d4bd d801 a0bd
000000f0: 2361 213d 04e6 2f3e a874 2d3d 3def 243d
00000100: 69dd dd3d 255f f8bd 8515 31be 0aad 3bbd
00000110: 148c fdbd 47e6 09be 029a acbd 7e4d 303e
00000120: d893 103e e479 3abe 0e8c 16be 9d97 183e
00000130: 6d8f 0a3e 6bcf 7b3d c80b 1a3e 4873 f4bc
00000140: 5375 2a3e 5795 1bbe 9c78 91bd 28bc 58bd
00000150: a1a6 72bd 0033 5cbc 3fee 87bb d036 0a3e
00000160: 261f 40bd 0ca7 2a3d d5b0 e13d dfe0 0f3e
00000170: a87c 47bb c407 10be 5277 383d 0da2 183e
00000180: 57b8 17bd faa4 8ebc 9f89 cc3d bd5b 32be
00000190: bc9c 14be 3f16 15bd e8fc 22be 5bfa d2bd
000001a0: 534b dfbd 6d87 dcbd 8e0d 863d 9103 2a3e
000001b0: 5494 29bd d292 1abe 557a ad3d 3118 1e3e
000001c0: b361 0f3e 741c a4bc d5f5 29be 9857 d23d
000001d0: 1e4e e13d a44f a43d 4c2a d53d 1c43 e5bd
000001e0: 041d fb3d 640f 95bc e1b2 a23a 31dd c53c
000001f0: f25a 433d 48bf e23c 040e cabd 15d2 543d
00000200: 3b19 23be f114 d03b 3985 24be 8427 c6bd
00000210: d147 313d 3800 31be 5b22 e7bd 2749 90bc
00000220: 8b04 ac3c 9c78 77bd a512 a83d c944 db3a
00000230: c542 43bd 6708 053e 6a88 d2bc d630 1d3d
00000240: 45fd 09be 1f99 093e 9872 123e 9dbe 95bd
00000250: ec9a bb3d 9d3f fa3d fedb 513c 7a95 88bc
00000260: 9143 b7bd cd42 a23d a1b3 c9bd 5479 acbd
00000270: 8df6 27be 9442 9ebd 9d09 6fbc 7424 943d
00000280: d20e 1ebd 6ef7 e6bd 8c8a 073e 4ab3 19be
00000290: 07e7 e5ba 0788 20be 7b25 323e d5ef 5ebd
000002a0: 057f 633d 34bc 113e 065f 633d 834a 623d
000002b0: 22c3 683d d2c6 94bb e857 29be 95ca 103d
000002c0: e31e 2e3d d2b4 6a3d ceb8 e4bd 520e 39bd
000002d0: 2667 08be 0769 acbd 8ca2 3abd 346e 183e
000002e0: de8c 643d 75c3 37be 1275 173e 24d8 963d
000002f0: cfe1 ca3b fa0a b03d b723 febd 9d4f e23d
00000300: 9937 03be 351b fbbd 5253 333d 30c9 8f3d
00000310: 7142 17be 07d5 1a3e 8c82 7a3d b637 b43d
00000320: bb34 0a3e fc57 bc3d 69e5 9ebd 1fa3 003e
00000330: 7443 c23d 5682 2e3e d7dc 1abe 344f 633c
00000340: 21fc 993d a4ce dbbc 2a15 d1bd 21d0 003e
00000350: 12ad 683d 90d0 dbbd b571 0ebe 7ebd ea3c
00000360: deb8 16be 1bd5 76bd 4995 95bc e703 85bc
00000370: f2fe 1fbe 2295 813c 06c1 79bd ea2a fbbd
00000380: f398 203e 8029 cbbd 5f18 69bd d872 e2bc
00000390: 257f 813c 354c 153b 8ef0 55bc 601c 6c3c
000003a0: 4747 af3d c92d cbbd 19e8 b83d 7bcd ac3d
000003b0: 473c c73d 7af6 c93b 01ea 2abe 5614 0e3e
000003c0: 0e15 fb3d f9ba 1fbe f4f2 eebd 97b2 213e
000003d0: b8af ef3d 25e6 b83d 9240 42be 949f 9b3d
000003e0: ffcb d5bd 77dc 2f3d 5bd6 a3bd 5975 193e
000003f0: ba58 b93c caab 193d edaa 6d3d 7d29 a9bd

emb_net.v_lins1.5.bias f4 [32]
0.0029486786 0.09158033 0.06757212 -0.11696796 -0.060667202 -0.13869 -0.046157233 0.08015667
0.15930153 0.09534569 0.011381106 -0.07720335 0.017760059 0.09450877 -0.09678357 -0.15911871
-0.036175467 0.086860724 0.15823625 -0.14464353 0.045202497 0.16920874 0.030765181 0.10032236
-0.0073359725 -0.036534477 0.10947695 -0.03332933 -0.169146 -0.028830063 -0.13136765 -0.026277592
00000000: 9e3e 413b 788e bb3d 4063 8a3d e68c efbd
00000010: 2c7e 78bd c004 0ebe 5e0f 3dbd 2e29 a43d
00000020: f11f 233e 9a44 c33d d277 3a3c ca1c 9ebd
00000030: 8b7d 913c d08d c13d 7736 c6bd 04f0 22be
00000040: ba2c 14bd 09e4 b13d af08 223e 6f1d 14be
00000050: 4126 393d 0e45 2d3e 4307 fc3c cf75 cd3d
00000060: 9962 f0bb 2da5 15bd 7335 e03d 5684 08bd
00000070: 9c34 2dbe 062d ecbc 3e85 06be 1b44 d7bc
