pretrained/Partitioner/pctsp/pctsp-5000.pt (torch, 364226 bytes, 225 tensors)

emb_net.v_lin0.weight f4 [32, 2]
0	0xbea2be03	-0.31785592
1	0xbf32f920	-0.69911385
2	0xbeccb66f	-0.39982936
3	0x3efb6428	0.4909985
4	0x3f2ec765	0.68273
5	0xbe8b667d	-0.2722663
6	0xbeeddfe9	-0.46459892
7	0xbe1646f8	-0.1467551
8	0x3dd80063	0.10546949
9	0x3e9b4c07	0.30331442
10	0x3f06a59d	0.52596456
11	0xbf0c78c4	-0.54871774
12	0xbeae1d83	-0.3400689
13	0xbeed9d07	-0.46408865
14	0x3eb40ea4	0.3516742
15	0xbd04e3cb	-0.032443803
16	0xbeb81d37	-0.3595979
17	0xbde66b93	-0.11250987
18	0xbda7f815	-0.08201615
19	0x3e6cf47b	0.23140137
20	0x3f051d3a	0.5199772
21	0xbe9acbc5	-0.3023359
22	0xbec8121d	-0.3907632
23	0x3e42f299	0.19037856
24	0x3f04aa4a	0.5182234
25	0x3d8ebc9b	0.069695674
26	0xbf1ee574	-0.6206887
27	0xbebcc432	-0.36868435
28	0xbf00b3ed	-0.50274545
29	0xbd5a98aa	-0.053368248
30	0x3f1cb126	0.6120781
31	0xbe9c062a	-0.30473453
32	0x3ecac9c5	0.39607063
33	0xbe5bb612	-0.21456173
34	0xbf26cf3c	-0.65159965
35	0xbca605ef	-0.020266501
36	0x3db6a4dd	0.08918164
37	0xbf08aedb	-0.5339181
38	0x3e9690a2	0.2940722
39	0x3ed05acc	0.40694273
40	0xbe3a2783	-0.18179135
41	0xbf05cfaa	-0.52269995
42	0xbe58ff46	-0.21191129
43	0x3ec76c41	0.3894978
44	0x3f19bb07	0.60051006
45	0x3d1d6828	0.03842941
46	0x3f10774b	0.56432027
47	0xbda75c55	-0.08171908
48	0x3f07bc92	0.5302211
49	0xbde7b7b5	-0.11314336
50	0x3f35cb5a	0.71013415
51	0xbedcdfad	-0.431394
52	0xbf026826	-0.5094017
53	0x3edde591	0.43339208
54	0xbf2ddfe9	-0.67919785
55	0xbe03f7a9	-0.12887444
56	0x3f0595b3	0.5218155
57	0x3da3e2f9	0.08002276
58	0xbf32de06	-0.6987003
59	0xbebba977	-0.3665273
60	0x3eee183d	0.46502867
61	0xbec89f21	-0.39183906
62	0xbf1fd770	-0.62438107
63	0xbe11765f	-0.14205311

emb_net.v_lin0.bias f4 [32]
0	0x3b764b57	0.0037581527
1	0xbf32ec1f	-0.6989154
2	0x3e5c419f	0.21509407
3	0xbdd71b79	-0.10503287
4	0x3eb7ebc4	0.35922062
5	0xbe4ea078	-0.20178401
6	0x3eec00d8	0.46094394
7	0xbe82581f	-0.25457856
8	0x3cc9200b	0.024551412
9	0xbefebf9d	-0.49755564
10	0xbe125d84	-0.14293486
11	0x3ec748e9	0.38922814
12	0xbe783d45	-0.24242122
13	0xbf181afb	-0.5941617
14	0x3dd088fd	0.101823784
15	0x3d1902cb	0.03735618
16	0xbea0fbb8	-0.31442046
17	0x3e2afd7c	0.16698259
18	0x3e6da530	0.23207545
19	0xbd57b85d	-0.052666057
20	0x3ea1a2c0	0.3156948
21	0x3ed611e0	0.41810513
22	0xbe7dfb83	-0.24802975
23	0xbe3fab1a	-0.18717614
24	0xbd9a37af	-0.07530152
25	0xbf187552	-0.59554017
26	0xbeedc204	-0.46437085
27	0x3f30d03d	0.69067746
28	0xbf245be5	-0.6420272
29	0x3ed27568	0.411052
30	0xbf198022	-0.5996114
31	0xbf2a40de	-0.6650523

emb_net.v_lins1.0.weight f4 [32, 32]
0	0x3dd7f868	0.105454266
1	0x3dc7f17f	0.097628586
2	0x3dec9bbb	0.11553141
3	0x3b35bea7	0.0027732046
4	0xbe18dba9	-0.14927544
5	0x3e3508e2	0.1767917
6	0x3cec10f6	0.028816681
7	0x3d8f9e22	0.07012583
8	0x3cb0eba7	0.021596743
9	0x3b64cd78	0.0034912508
10	0xbce3df1a	-0.027816344
11	0x3ddb6756	0.10713069
12	0xbe238546	-0.15968809
13	0xbc716ffb	-0.014736171
14	0xbc264077	-0.010147206
15	0xbce57e43	-0.028014308
16	0x3e1b2eb1	0.1515453
17	0x3dc3bfa9	0.09558041
18	0x3db9e9ce	0.09077798
19	0x3e2143b8	0.15748489
20	0x3e1b8097	0.15185772
21	0xbbc34990	-0.005959697
22	0xbdad4cb4	-0.084618956
23	0x3da4a11c	0.08038542
24	0xbe125e1c	-0.14293712
25	0xbd4bd7b6	-0.049766265
26	0xbc56fc85	-0.013121729
27	0x3d335476	0.04378172
28	0x3d0ce702	0.034399994
29	0xbcee86bb	-0.029116979
30	0x3d57e482	0.052708156
31	0xbd05486a	-0.032539763
32	0xbd36f793	-0.0446697
33	0xb981719e	-0.0002468945
34	0x3dfa5d84	0.12224868
35	0x3dc01de9	0.09380705
36	0x3e042747	0.12905608
37	0xbd9dd441	-0.077065
38	0x3def90a5	0.11697511
39	0xbb865f7d	-0.0041007386
40	0xbda5f27d	-0.081028916
41	0x3e0fd9e5	0.14047964
42	0x3ddde8aa	0.10835393
43	0xbd6bf260	-0.057604194
44	0x3d5ab1a4	0.053392068
45	0xbe15a6a0	-0.14614344
46	0x3da3832e	0.07984005
47	0xbc40aeeb	-0.011760454
48	0x3e15f45e	0.14644
49	0x3d8f8dec	0.07009491
50	0xbd78e5d3	-0.060766052
51	0x3c58b7bb	0.0132273985
52	0xbd515ea6	-0.051115654
53	0xbe2ea1ae	-0.17053863
54	0xbd8fbd35	-0.0701851
55	0x3dedb638	0.11607021
56	0xbe171dbf	-0.14757441
57	0x3d665a71	0.056238595
58	0xbd121346	-0.03566291
59	0xbe19f175	-0.15033515
60	0xbd41f010	-0.047348082
61	0x3c80b6e7	0.015712215
62	0x3c2c71c4	0.010525171
63	0xbcbc6d99	-0.023001479
64	0x3dbf104c	0.0932928
65	0x3d25a3cd	0.040439416
66	0x3d9b6029	0.075867005
67	0x3d92712a	0.071504906
68	0x3e1c27f6	0.15249619
69	0x3dea918f	0.11453544
70	0x3da54b56	0.0807101
71	0xbcc59624	-0.024119444
72	0x3e2230ba	0.158389
73	0x3e2c2fb3	0.16815071
74	0x3e168cc4	0.14702135
75	0xbdc72b14	-0.097250134
76	0xbcf2e3e2	-0.029649679
77	0x3df7a246	0.12091498
78	0x3e1b9c8f	0.15196441
79	0x3d88d483	0.066811584
80	0xbd86fe17	-0.065914325
81	0x3d02331a	0.031787015
82	0xbe2f318e	-0.17108747
83	0xbe2d1667	-0.16903077
84	0x3e06424d	0.13111229
85	0xbcdb3786	-0.026759874
86	0xbd0f884a	-0.035042085
87	0xbc41b85e	-0.011823742
88	0x3e27cf0c	0.16387576
89	0xbe0853ce	-0.13313219
90	0x3db5259b	0.08845063
91	0x3e0d4c6c	0.13798684
92	0xbdee93c8	-0.11649281
93	0xbbf5a6a3	-0.0074966713
94	0xbc88c298	-0.016694352
95	0xbe0d58a8	-0.13803351
96	0xbc741df3	-0.014899719
97	0xbe051af9	-0.1299857
98	0xbdb2999e	-0.087207064
99	0xbda31ba4	-0.079642564
100	0x3e1453f2	0.14485148
101	0x3cd0e26e	0.025498595
102	0x3db32926	0.08748083
103	0xbb8db145	-0.0043241107
104	0x3e1dd962	0.15414956
105	0xbe0c79b3	-0.137183
106	0xbdf2f05f	-0.118622534
107	0xbe25c7f8	-0.16189563
108	0xbd0681a9	-0.032838497
109	0x3dcc6c6e	0.09981619
110	0x3d8d1a27	0.06889754
111	0x3e2dee47	0.16985427
112	0x3d9459be	0.072436795
113	0xbd883f7e	-0.06652735
114	0x3d74e3fa	0.059787728
115	0xbd894c7f	-0.067040436
116	0xbdaaaf88	-0.08334261
117	0x3ddea2cd	0.108708955
118	0x3e309f38	0.17248237
119	0x3dbfadaa	0.09359296
120	0xbc230ba4	-0.009951506
121	0x3df01e3b	0.11724516
122	0xbddd5201	-0.10806657
123	0x3d9c9d8f	0.076472394
124	0x3d22e024	0.03976454
125	0x3dfab2b3	0.122411154
126	0xbe2a0556	-0.16603598
127	0x3d20564d	0.039144803
128	0xbdb8f103	-0.09030344
129	0xbbf2269b	-0.007389856
130	0xbd215d21	-0.039395455
131	0xbdeb689f	-0.11494564
132	0xbe00f78f	-0.12594436
133	0xbde0321c	-0.109470576
134	0xbe151961	-0.14560463
135	0x3db7318d	0.08944998
136	0xbcb518c8	-0.022106543
137	0xbe020023	-0.12695365
138	0x3cd430a0	0.025902092
139	0xbd0add9e	-0.033902757
140	0x3c731625	0.014836823
141	0x3d3d2649	0.04617909
142	0x3ca0a2ad	0.01960882
143	0xbcb7e60c	-0.022448562
144	0xbd8e125d	-0.06937096
145	0xbd8b3f0c	-0.067991346
146	0xbe1e29cd	-0.15445633
147	0x3df1b2e5	0.118016995
148	0xbd3aa76b	-0.04556982
149	0xbe07671b	-0.13222925
150	0xbc0d0780	-0.008607745
151	0xbe0c4f30	-0.13702083
152	0xbe0dd24f	-0.13849758
153	0xbdb72de6	-0.08944301
154	0x3cd9a5bb	0.026568284
155	0xbe27564f	-0.16341518
156	0xbddcd495	-0.10782734
157	0x3de3cd12	0.111230984
158	0xbd8ae5d2	-0.06782116
159	0x3e12571a	0.14291039
160	0x3d77ed2f	0.06052893
161	0x3dd37bb7	0.10326331
162	0xbd4fff17	-0.050780382
163	0x3cc0e784	0.023547895
164	0x3ce619c2	0.028088454
165	0x3d4c8a42	0.04993654
166	0x3e2c2e05	0.1681443
167	0x3dfd1684	0.1235781
168	0xbe1070db	-0.14105551
169	0x3d93d45c	0.07218239
170	0x3d540283	0.051760208
171	0x3d44a14c	0.048005387
172	0x3da4d7b9	0.08048958
173	0xbe025777	-0.12728678
174	0x3e00a89a	0.12564316
175	0x3e21c742	0.15798667
176	0x3e2a9b1d	0.16660734
177	0xbd92aaa2	-0.07161452
178	0x3d417ad9	0.047236297
179	0xbda85549	-0.08219392
180	0xbdbaea51	-0.091267236
181	0x3dc931f6	0.098239824
182	0x3dec3bc8	0.1153484
183	0x3e040d9b	0.12895815
184	0xbe354688	-0.17702687
185	0xbe13e516	-0.14442858
186	0x3e0ef452	0.13960388
187	0x3d7b96e9	0.061423216
188	0x3c963ee2	0.018340532
189	0x3dcc46fb	0.09974476
190	0x3e29b459	0.16572703
191	0x3bd805f3	0.006592506
192	0xbd36bf18	-0.044615835
193	0xbe19460a	-0.14968124
194	0xbc4521e4	-0.012032006
195	0xbdb4bded	-0.08825288
196	0xbd073dc0	-0.033017874
197	0x3e0022b6	0.12513241
198	0xbc1474a7	-0.009061015
199	0x3dcdeb7c	0.10054681
200	0xbe173c67	-0.14769135
201	0xbcbd4e41	-0.023108603
202	0xbc812db5	-0.015768865
203	0x3c24d386	0.010060197
204	0x3e338546	0.17531309
205	0xbe2bc648	-0.16774857
206	0xbe19f948	-0.150365
207	0x3e35861b	0.17726938
208	0x3e1ea0a6	0.1549097
209	0x3d93971b	0.072065555
210	0xbd8fb4d7	-0.07016914
211	0xbdc0e3b9	-0.09418435
212	0xbd2d04a8	-0.04224077
213	0xbd7eb2a6	-0.06218209
214	0x3b86f98b	0.0041191033
215	0x3e26c199	0.16284789
216	0x3d2c3f16	0.04205235
217	0x3e2e82ae	0.17042038
218	0x3e1398ac	0.14413708
219	0xbd442a73	-0.047892045
220	0xbd514ef7	-0.051100697
221	0xbe1ef3e8	-0.1552273
222	0x3dc51486	0.09623055
223	0xbe15f5a0	-0.1464448
224	0xbd2e7929	-0.042596016
225	0xbe2161c6	-0.15759954
226	0x3c1c444a	0.009537766
227	0x3daac2fb	0.08337971
228	0xba2cff10	-0.00065992866
229	0x3d88d3f8	0.06681055
230	0xbc3be978	-0.0114692375
231	0x3d46fd7a	0.048581578
232	0x3d26a54b	0.04068498
233	0x3d10fafb	0.035395604
234	0x3d9a5cbd	0.0753722
235	0xbda9c8ab	-0.082902275
236	0x3c6a00c5	0.01428241
237	0xbe22f1f1	-0.15912606
238	0xbddfe1de	-0.109317526
239	0xbdf6c025	-0.120483674
240	0x3e2033fe	0.15644833
241	0xbba54b22	-0.005044357
242	0x3deeae8a	0.116543844
243	0xbdfe729d	-0.124242045
244	0x3d80e486	0.062935874
245	0xbd1897db	-0.037254196
246	0x3d814116	0.06311242
247	0xbd3e8fc9	-0.046523843
248	0xbe2ee756	-0.17080435
249	0x3e2df610	0.16988397
250	0x3df65777	0.12028401
251	0xbe0b7c16	-0.13621554
252	0x3e164130	0.14673305
253	0x3dbdb1e6	0.09262447
254	0x3db33176	0.08749668
255	0x3d8e6585	0.06952957

emb_net.v_lins1.0.bias f4 [32]
0	0xbd8c61ae	-0.068545684
1	0xbe189e00	-0.14904022
2	0x3df29eb0	0.118466735
3	0xbe03195a	-0.1280264
4	0x3d90990f	0.070604436
5	0xbca2423b	-0.019806972
6	0xbcda9a03	-0.026684767
7	0x3e3454f5	0.17610534
8	0x3da4f3c8	0.0805431
9	0xbe0ba915	-0.13638718
10	0xbc4b4301	-0.012406112
11	0xbc9f87df	-0.019473968
12	0x3d22ea3f	0.039774176
13	0x3da7e401	0.08197785
14	0xbe1d9d86	-0.15392122
15	0xbdde5307	-0.1085568
16	0xbd13a892	-0.036049433
17	0x3db79bc0	0.08965254
18	0x3d6568fc	0.056008324
19	0xbdc7740a	-0.097389296
20	0x3d5cb52c	0.053883716
21	0xbe2fe874	-0.17178518
22	0x3d056e16	0.03257569
23	0xbdfac490	-0.122445226
24	0xbc90f51a	-0.017694999
25	0xbdf0c19f	-0.1175568
26	0xbc8770ac	-0.016533218
27	0xbd48cfda	-0.049026348
28	0xbc76b109	-0.015056857
29	0xbdd86e9c	-0.10567972
30	0x3e083e2e	0.1330497
31	0xbd9772fc	-0.073949784

emb_net.v_lins1.1.weight f4 [32, 32]
0	0xbe27bfdd	-0.16381784
1	0xbdb33696	-0.08750646
2	0xbe048b12	-0.12943676
3	0xbe0df4c1	-0.13862897
4	0x3e01c722	0.1267362
5	0xbd1d71df	-0.038438674
6	0xbd85993c	-0.06523368
7	0xbe26cd49	-0.16289248
8	0xbd5c72d5	-0.05382045
9	0xbbb3f5a4	-0.005491929
10	0xbe03538e	-0.12824842
11	0x3ba3cafd	0.0049985633
12	0x3b120df3	0.0022286146
13	0x3b9d4a85	0.004800143
14	0x3d00bf10	0.03143221
15	0xbe038465	-0.12843473
16	0x3dcdc6b7	0.100476675
17	0x3e019728	0.12655318
18	0x3da301f6	0.079593584
19	0x3e2e2892	0.17007664
20	0x3dc1bc88	0.094597876
21	0xbc2eec99	-0.010676526
22	0xbd949f8f	-0.07256996
23	0xbe1a5a88	-0.15073597
24	0xbdb33caa	-0.08751805
25	0x3e2bc60a	0.16774765
26	0xba47a63c	-0.00076160184
27	0xbdf2a38f	-0.118476026
28	0xbd2d6584	-0.04233314
29	0x3cfef155	0.031120935
30	0xbde22c24	-0.110435754
31	0x3e306599	0.17226256
32	0x3d0727f5	0.03299709
33	0xbdd946aa	-0.10609181
34	0xbdf81cfc	-0.12114903
35	0x3ccf2135	0.025284389
36	0x3cc7881f	0.0243569
37	0x3d4b3643	0.049612295
38	0x3e265a02	0.16245273
39	0xbe32c928	-0.17459548
40	0x3b8e1ccd	0.0043369294
41	0xbc5dcf32	-0.013538169
42	0xbdf1dd74	-0.11809817
43	0x3ddb6817	0.10713213
44	0xbdfb1f81	-0.12261868
45	0x3e1860ec	0.14880723
46	0xbe1137ff	-0.14181517
47	0xbe0420e9	-0.12903179
48	0xbb6dfa94	-0.0036312686
49	0xbdc89ec8	-0.0979591
50	0xbe1e613d	-0.15466781
51	0x3d354983	0.04425956
52	0xbc7302e7	-0.014832235
53	0xbd5a243e	-0.05325722
54	0x3bfa1233	0.007631564
55	0x3dbacb50	0.0912081
56	0x3dc90a4d	0.09816418
57	0xbe291303	-0.16511159
58	0x3e00a953	0.12564592
59	0xbdd3630c	-0.10321626
60	0xbd5332aa	-0.05156199
61	0xbe1baa03	-0.15201573
62	0x3e13375b	0.14376585
63	0x3e1660ca	0.1468536
64	0xbdb99481	-0.09061528
65	0x3e11357d	0.1418056
66	0x3e2db48b	0.16963403
67	0x3d6f2605	0.058385868
68	0x3d976683	0.073925994
69	0xbe04328e	-0.1290991
70	0x3d835272	0.064122096
71	0x3da41e2b	0.080135666
72	0x3c8240b3	0.015899992
73	0xbbe52d1d	-0.0069939033
74	0x3e31ce24	0.17363793
75	0xbe00fd11	-0.12596537
76	0xbd8765e1	-0.06611229
77	0xbe056ee3	-0.13030581
78	0x3dfd558f	0.12369835
79	0x3e1e154f	0.15437816
80	0xbcbef4a2	-0.02331001
81	0x3e2218ff	0.15829848
82	0x3d9bc774	0.07606402
83	0xbe045277	-0.12922083
84	0x3e0c4c6d	0.13701029
85	0xbdb0b512	-0.086282864
86	0xbd500682	-0.050787456
87	0x3e156edd	0.14593072
88	0xbcd18dc2	-0.02558029
89	0xbdb2fe98	-0.08739966
90	0x3df9bcfa	0.121942475
91	0xbe26b08a	-0.16278282
92	0x3d8e3822	0.069443
93	0x3bdaea82	0.0066807875
94	0x3e173e11	0.1476977
95	0x3c0b2fb7	0.008495263
96	0xbd955e25	-0.07293347
97	0xbe18cfb2	-0.1492298
98	0xbdae577c	-0.0851278
99	0x3e0929ea	0.13394895
100	0x3e048803	0.1294251
101	0x3e187d17	0.14891468
102	0xbe1485d6	-0.1450418
103	0xbe36e95c	-0.17862457
104	0x3da75fb5	0.081725515
105	0xbe230c20	-0.15922594
106	0x3dc5104c	0.09622249
107	0x3df6c01c	0.12048361
108	0x3e0f3f82	0.1398907
109	0x3c72de59	0.01482352
110	0xbd79eef7	-0.06101891
111	0xbd495250	-0.049150765
112	0x3b8196d4	0.0039547477
113	0x3d5d7ea9	0.05407587
114	0x3d393abb	0.045222025
115	0xbd8c39d6	-0.06846969
116	0xbe05674e	-0.13027689
117	0xbe03b420	-0.12861681
118	0xbdd53158	-0.10409802
119	0xbd6342f8	-0.05548379
120	0xbe0f05b2	-0.13967016
121	0xbe267753	-0.16256456
122	0xbe1d9586	-0.1538907
123	0x3d44e1fc	0.048067078
124	0xbe13a7fc	-0.1441955
125	0xbdc3bb43	-0.09557202
126	0x3df729b0	0.12068498
127	0xbc1cc4a8	-0.009568371
128	0xbde7ac4b	-0.11312159
129	0xbdd8f630	-0.105938315
130	0x3e086c04	0.13322455
131	0xbd17ad2a	-0.037030376
132	0x3e07c324	0.13258034
133	0x3e2cc4dc	0.16871971
134	0x3d7c9758	0.06166777
135	0xb9b60a49	-0.00034721408
136	0x3cb85a83	0.022504097
137	0xbe05d030	-0.13067698
138	0x3c7a0ca3	0.015261802
139	0x3d8257ab	0.063643776
140	0x3db4b3c6	0.088233516
141	0xbd195dab	-0.037442844
142	0x3e0db80a	0.13839737
143	0xbdc2f6ce	-0.095197305
144	0xbd030de6	-0.031995676
145	0x3cbab4aa	0.022791225
146	0x3dc8509a	0.097809985
147	0x3e27f8f3	0.1640356
148	0x3e0c8e0e	0.13726065
149	0xbdede5b5	-0.11616079
150	0x3cba43b7	0.022737367
151	0x3e17ff45	0.14843471
152	0x3e0abe2e	0.1354911
153	0x3e1775ac	0.14790982
154	0xbe2bece9	-0.16789593
155	0x3e393af2	0.18088892
156	0xbdfc6ea7	-0.12325793
157	0x3d169088	0.03675893
158	0xbe1d7662	-0.1537719
159	0x3d1e0b3e	0.03858494
160	0xbe13a283	-0.14417462
161	0xbdfb89ce	-0.122821435
162	0x3e0f1da1	0.13976146
163	0x3dc0e498	0.09418601
164	0x3d34ce73	0.044142198
165	0x3d69801c	0.05700694
166	0xbd23b899	-0.039970968
167	0xbbafa1c9	-0.0053598625
168	0x3e2ccffd	0.16876216
169	0x3b71339e	0.0036804448
170	0x3dfc13a7	0.12308436
171	0x3dd57bc4	0.10423997
172	0x3bce5477	0.00629669
173	0x3de6e107	0.11273389
174	0xbe165dc7	-0.1468421
175	0xbdc7e5b7	-0.097606115
176	0x3d92dd43	0.071711086
177	0xbcd34ab9	-0.025792466
178	0xbdc60087	-0.09668069
179	0xbddaf2f5	-0.106908716
180	0x3e2e0c80	0.16996956
181	0xbd8109c4	-0.06300691
182	0x3deb010a	0.114748076
183	0x3e34965e	0.17635486
184	0xbde1cd0f	-0.1102544
185	0x3d442aa4	0.047892228
186	0xbca274c8	-0.019831076
187	0xbdff5768	-0.12467843
188	0x3b2e33c0	0.0026581138
189	0xbd48adb9	-0.0489938
190	0x3c7b9b54	0.015356857
191	0x3c744974	0.014910091
192	0xbdbfd53f	-0.09366845
193	0x3d10f293	0.035387587
194	0x3e1f25d1	0.1554177
195	0xbd19c3e8	-0.037540346
196	0x3c33614a	0.0109484885
197	0x3df7f8df	0.12108015
198	0x3c6abf4b	0.014327834
199	0xbe19c3a9	-0.15016045
200	0x3e04e965	0.12979658
201	0xbd510f17	-0.05103978
202	0xbe16fe84	-0.14745528
203	0x3e1256e1	0.14290954
204	0xbe1ac01b	-0.15112345
205	0x3d394e04	0.045240417
206	0xbdd97676	-0.10618298
207	0xbe18cbcc	-0.14921492
208	0x3d332cd0	0.04374391
209	0x3e1401df	0.14453839
210	0xbe1ab2b2	-0.1510723
211	0x3cf51298	0.029916093
212	0x3df6ae60	0.12044978
213	0x3db0cc80	0.08632755
214	0x3d1b1f7b	0.03787182
215	0xbcdeb5ae	-0.027186241
216	0x3e006b50	0.12540936
217	0x3e0227d5	0.12710507
218	0x3c23033e	0.0099495035
219	0x3e004949	0.12527956
220	0x3dd44433	0.103645705
221	0x3d347e43	0.044065725
222	0x3d3093ca	0.043109693
223	0xbe3100bd	-0.17285438
224	0xbda60d02	-0.0810795
225	0x3d3da268	0.04629746
226	0xbb64f8cf	-0.003493834
227	0xbdf94ad1	-0.12172473
228	0x3d93e215	0.07220856
229	0x3dae69ba	0.085162595
230	0x3d8f706f	0.07003867
231	0x3c504a56	0.012713036
232	0xbdcb4416	-0.09925096
233	0x3e140992	0.14456776
234	0x3d4216b3	0.04738493
235	0xbe329d3a	-0.1744279
236	0xbe221ab9	-0.15830506
237	0x3d7b1eb8	0.061308593
238	0xbdedc521	-0.11609865
239	0x3d8df698	0.069318
240	0xbd45c2a8	-0.04828134
241	0xbd8aa1f9	-0.06769175
242	0xbbe46a74	-0.006970698
243	0x3e305eeb	0.17223708
244	0xbd36f6dd	-0.04466902
245	0x3e1e4342	0.15455344
246	0x3dbeaf4d	0.0931078
247	0xbde5614a	-0.11200197
248	0xbe237be0	-0.15965223
249	0x3da25349	0.07926042
250	0xbd165b30	-0.036708057
251	0xbd097619	-0.033559892
252	0x3d742e90	0.059614718
253	0x3dff141c	0.124550074
254	0xbe1ccb58	-0.15311944
255	0x3e0adbbf	0.13560389

emb_net.v_lins1.1.bias f4 [32]
0	0xbd37a91a	-0.044839002
1	0xbc7a7732	-0.015287207
2	0x3d6c940c	0.057758376
3	0xbbf8ef27	-0.0075968686
4	0xbe000a23	-0.12503867
5	0xbe062d1f	-0.1310315
6	0x3d4d7817	0.050163355
7	0x3dde1e77	0.108456545
8	0xbcda43f9	-0.02664374
9	0x3cdb2ed9	0.026755737
10	0x3e1c983e	0.15292451
11	0x3e006b5d	0.12540956
12	0xbd9d7a12	-0.07689299
13	0xbe3093fb	-0.1724395
14	0xbd521953	-0.051293682
15	0xbe20a4bf	-0.15687846
16	0x3d705643	0.058676016
17	0xbd0c6ca2	-0.034283288
18	0x3d210b33	0.03931732
19	0xbe12ec37	-0.14347921
20	0x3db6c79e	0.08924793
21	0xbc48fc9d	-0.012267259
22	0xbde4de2f	-0.11175191
23	0xbda82d6e	-0.0821179
24	0x3e26075e	0.16213748
25	0x3d1fff3f	0.03906178
26	0xbdc20e46	-0.09475379
27	0xbd679921	-0.05654252
28	0x3c82ac6d	0.01595136
29	0x3deccce9	0.11562521
30	0xbe076d65	-0.13225324
31	0xbd8be4bc	-0.06830737

emb_net.v_lins1.2.weight f4 [32, 32]
0	0x3db93f92	0.09045328
1	0x3df24536	0.11829607
2	0xbd42daf0	-0.047572076
3	0xbd92598a	-0.071459845
4	0xbbdd0720	-0.006745234
5	0x3e199c2e	0.15000984
6	0x3e274e0a	0.16338363
7	0xbd3f3aad	-0.046686817
8	0x3d8756ee	0.066083774
9	0xbe13447f	-0.14381598
10	0x3cb99903	0.02265597
11	0xbda6bcec	-0.08141503
12	0x3d236a51	0.039896313
13	0xbdc2be0e	-0.09508906
14	0x3d552894	0.05204065
15	0x3d6e8a94	0.058237627
16	0x3e25b7c8	0.16183388
17	0xbda08818	-0.07838458
18	0xbe03e156	-0.12878928
19	0x3df5c67f	0.12000751
20	0x3beff698	0.0073230974
21	0xbdc87905	-0.09788708
22	0x3e1747f9	0.14773549
23	0xbd42cdd1	-0.047559563
24	0xbdbf96bf	-0.093549244
25	0xbd934274	-0.07190409
26	0xbe237c99	-0.15965499
27	0x3e21cc65	0.15800627
28	0xbdb504eb	-0.08838829
29	0x3ddcc6fa	0.10780139
30	0xbde155fd	-0.11002729
31	0xbe262b1a	-0.1622738
32	0xbde3e2b3	-0.11127224
33	0xbd931642	-0.0718198
34	0xbd10263d	-0.035192717
35	0xbcf48019	-0.029846238
36	0x3d381b37	0.04494783
37	0x3da94372	0.08264817
38	0xbe34ad49	-0.17644228
39	0xbe1a0063	-0.1503921
40	0x3d4f32e1	0.05058563
41	0x3d43f20d	0.04783826
42	0xba06fb37	-0.0005149128
43	0x3d68bd38	0.056821078
44	0xbe226eca	-0.15862575
45	0x3dc9888e	0.09840499
46	0x3d888b62	0.0666721
47	0x3d1b3dac	0.03790061
48	0x3e22ae1a	0.15886727
49	0xbd1498dc	-0.03627859
50	0x3ddc8f9a	0.10769577
51	0xbd725f07	-0.059172656
52	0xbddb336c	-0.10703167
53	0x3e2cdce2	0.16881135
54	0x3de4f904	0.111803085
55	0xbe1c913c	-0.15289778
56	0x3d118f6d	0.035537172
57	0xbe1da848	-0.15396225
58	0xbbe16e2f	-0.00687959
59	0xbc238a9a	-0.009981776
60	0xbe040f9f	-0.12896584
61	0x3dbebeca	0.09313734
62	0xbe09b9cd	-0.13449784
63	0x3deccc3d	0.11562393
64	0xb989d3f8	-0.00026288605
65	0xbd61ff56	-0.055175148
66	0x3c1cc594	0.009568591
67	0xbcbdcced	-0.023169005
68	0x3d0fc60d	0.035100985
69	0x3cd108c8	0.025516883
70	0x3dcf0210	0.10107815
71	0x3ca71adb	0.020398548
72	0xbda42e58	-0.08016652
73	0xbe0c9152	-0.1372731
74	0x3e33d752	0.17562607
75	0x3d5b44d9	0.053532455
76	0xbe00d064	-0.12579495
77	0x3d91fc86	0.07128243
78	0xbde80e71	-0.113308795
79	0x3e15c252	0.14624909
80	0xbd9afd7f	-0.07567882
81	0xbd34b62f	-0.044119056
82	0x3de36edb	0.111051284
83	0x3d4454d6	0.04793247
84	0x3dadfd84	0.0849562
85	0x3e0ec870	0.13943648
86	0x3e00e136	0.12585911
87	0x3d686369	0.05673543
88	0xbd4d7398	-0.050159067
89	0xbe0c2b63	-0.13688426
90	0x3c2ba394	0.010476012
91	0xbd9e76b0	-0.077374816
92	0x3e348f11	0.176327
93	0xbcc43e2a	-0.023955423
94	0xbe28cfdd	-0.16485544
95	0xbe165e6c	-0.14684457
96	0x3dad806b	0.084717594
97	0xbe246213	-0.16053037
98	0xbd9b421f	-0.07580971
99	0x3dd4e1ba	0.103946164
100	0xbdc7f8e6	-0.097642705
101	0x3d14bcfc	0.036313042
102	0xbd838189	-0.06421191
103	0xbd443647	-0.047903325
104	0xbcf69003	-0.030097967
105	0x3dbac1ed	0.0911902
106	0xbd63f01f	-0.05564892
107	0xbdac0403	-0.08399203
108	0xbda4103b	-0.08010908
109	0x3dd709c5	0.1049991
110	0xbe24f0be	-0.16107461
111	0x3df121de	0.11774038
112	0x3c96c51b	0.018404534
113	0xbe34b6fa	-0.17647925
114	0x3e299185	0.16559418
115	0x3d9ac265	0.07556609
116	0x3e101c25	0.14073236
117	0x3e223698	0.15841138
118	0xbe194b90	-0.14970231
119	0xbb9243a0	-0.004463628
120	0xbe29fb29	-0.16599716
121	0x3dc60de7	0.096706204
122	0xbdaf6c72	-0.08565606
123	0x3d5149b9	0.051095698
124	0x3ca3b200	0.019982338
125	0x3d827b52	0.06371178
126	0xbdd28d91	-0.10280908
127	0xbdd4139e	-0.10355304
128	0x3d8158d2	0.06315769
129	0x3d719f42	0.05898977
130	0x3dce12e4	0.10062197
131	0x3bcc93da	0.006243211
132	0x3e25bec6	0.16186056
133	0xbcc27d39	-0.023741351
134	0x3cc5bfb0	0.024139255
135	0xbe3478f9	-0.17624272
136	0x3de9a278	0.114079416
137	0x3c9c9752	0.019115124
138	0xbd5774d3	-0.052601647
139	0x3e2712c4	0.16315752
140	0x3ca4de0e	0.020125415
141	0xbd63d443	-0.05562235
142	0x3c0e68c9	0.008691975
143	0x3e12f5ae	0.14351532
144	0xbe1f7276	-0.15571007
145	0x3e233ffa	0.15942374
146	0x3e14f327	0.1454588
147	0x3e2c1af4	0.16807157
148	0xbe178ffc	-0.1480102
149	0x3db94870	0.090470195
150	0xbdd54911	-0.10414327
151	0xbda367a1	-0.0797875
152	0x3d90a43f	0.070625775
153	0xbcb4f652	-0.02209011
154	0x3daba40e	0.083809
155	0x3c12bc1b	0.008955981
156	0xbe2357be	-0.1595144
157	0xbdd9bb62	-0.106314436
158	0xbdc7c5fb	-0.09754559
159	0xbe283466	-0.16426238
160	0xbd3b9007	-0.045791652
161	0x3d542138	0.051789492
162	0xbd605199	-0.054765318
163	0x3cffc56f	0.031222073
164	0xbd938135	-0.07202379
165	0xbb8ea69f	-0.004353359
166	0xbde0a1f4	-0.1096839
167	0x3e262ff9	0.16229238
168	0xbe139ae2	-0.14414552
169	0xbdd9022a	-0.10596116
170	0x3d8b9017	0.06814592
171	0xbd2aa0d3	-0.04165728
172	0x3d200e4b	0.03907613
173	0xbd5428bb	-0.051796656
174	0x3e264b57	0.16239677
175	0x3d36da0d	0.044641543
176	0xbc6a5cf7	-0.014304391
177	0xbd8e3931	-0.06944502
178	0xbd8a692b	-0.067583404
179	0xbdd0f27f	-0.102025025
180	0x3db4a899	0.0882122
181	0xbe0acb1d	-0.13554044
182	0xbca1dddc	-0.019759111
183	0x3bf299e4	0.007403599
184	0xbe2c0538	-0.16798866
185	0xbe0dcf99	-0.13848723
186	0xbd1bf046	-0.03807094
187	0xbd17d322	-0.037066586
188	0xbdeca3a6	-0.11554651
189	0xbd8958ca	-0.06706388
190	0x3e206e1f	0.15667008
191	0xbd87427d	-0.066044785
192	0xbd554a84	-0.052073017
193	0xbcfe6b2e	-0.031056967
194	0xbda7b2d4	-0.08188406
195	0x3dbdd307	0.09268766
196	0xbd20231c	-0.039095983
197	0x3df139d4	0.11778608
198	0x3e0e01d9	0.13867892
199	0x3d111be7	0.035427
200	0x3d21ec42	0.039531954
201	0xbde46009	-0.1115113
202	0xbdebec5a	-0.1151969
203	0xbdbbac8f	-0.09163772
204	0x3ddd3240	0.108006
205	0x3da5935e	0.08084749
206	0x3da95069	0.0826729
207	0xbdfa9204	-0.122348815
208	0xbdf29d89	-0.11846454
209	0xbe33acbc	-0.17546362
210	0x3d38a46e	0.045078687
211	0xbe139e0a	-0.14415756
212	0xbdb045a2	-0.086070314
213	0x3e37f617	0.1796497
214	0xbdd63d53	-0.104609154
215	0x3e1ba6f2	0.15200403
216	0x3e137b56	0.14402518
217	0x3dcaa9d0	0.098956704
218	0xbcd6e861	-0.026233854
219	0x3da3218a	0.079653814
220	0x3ddfe800	0.10932922
221	0x3de131bb	0.109958135
222	0xbc09ee36	-0.00841861
223	0x3ddc43ba	0.10755105
224	0x3e006b07	0.12540828
225	0x3c11fb9b	0.008910085
226	0x3d5d7a24	0.05407156
227	0x3e1e7f5d	0.15478273
228	0x3de4a9ca	0.11165197
229	0xbcce3c02	-0.025175098
230	0xbdfd5363	-0.123694204
231	0x3d3ebf9f	0.046569463
232	0x3e08c7d0	0.13357472
233	0xbdd6ef7a	-0.10494895
234	0xbda90204	-0.082523376
235	0xbe016e78	-0.12639797
236	0x3e15ec1d	0.14640851
237	0xbdfc689a	-0.12324639
238	0xbe3012c3	-0.17194657
239	0x3e34386b	0.17599647
240	0xbd170589	-0.036870513
241	0x3d4e41bf	0.05035567
242	0x3e2cfa82	0.16892436
243	0x3e2ec040	0.17065525
244	0xbdc94f69	-0.098295994
245	0xbd4dd549	-0.050252233
246	0x3da17eac	0.07885489
247	0xbd35b185	-0.04435875
248	0xbe2438ff	-0.16037367
249	0xbdf8c3d7	-0.121467285
250	0xbdcc83ec	-0.099860996
251	0xbdc04f09	-0.09390075
252	0xbd441642	-0.04787279
253	0xbd84f916	-0.06492822
254	0x3dcb47e7	0.09925824
255	0x3d3b8e62	0.045790084

emb_net.v_lins1.2.bias f4 [32]
0	0xbe29aae0	-0.1656909
1	0xbe1c8856	-0.15286383
2	0xbe12eca6	-0.14348087
3	0xbd3a1390	-0.045428813
4	0xbe03314b	-0.12811773
5	0xbe2ed409	-0.17073072
6	0x3e297c37	0.1655129
7	0x3e1adeb9	0.15124024
8	0xbdafd57d	-0.085856415
9	0xbc821dfb	-0.015883436
10	0xbd1f6cab	-0.038921993
11	0x3daa14c1	0.0830474
12	0x3d72d9c6	0.059289716
13	0x3e116a05	0.142006
14	0x3deaa7ff	0.11457824
15	0x3babe78f	0.00524611
16	0x3b2d4299	0.00264374
17	0x3e082be9	0.13298
18	0x3b6c5ca5	0.0036065963
19	0xbda89e5b	-0.08233329
20	0x3b1835af	0.0023225357
21	0x3dad71da	0.08468981
22	0x3e08dca3	0.13365416
23	0x3d580232	0.05273647
24	0xbd822bbb	-0.06355997
25	0x3cad20e4	0.021133848
26	0xbe08d7a0	-0.13363504
27	0x3a803dfc	0.0009784098
28	0xbdf8fa82	-0.121571556
29	0x3df7a59d	0.12092135
30	0x3da65ef3	0.08123579
31	0xbe352b29	-0.17692246

emb_net.v_lins1.3.weight f4 [32, 32]
0	0xbdea5ba6	-0.11443262
1	0xbd6113f7	-0.05495068
2	0x3db27858	0.0871436
3	0x3dd55031	0.10415686
4	0xbb360446	-0.0027773543
5	0xbd81af94	-0.06332317
6	0x3e1857f6	0.14877304
7	0xbdbb6a19	-0.09151096
8	0x3d85e0b9	0.06537003
9	0x3e0ba63e	0.13637635
10	0xbd755bd4	-0.059902027
11	0xbe25e93d	-0.16202255
12	0xbd184269	-0.03717271
13	0x3e22b119	0.1588787
14	0x3c0ee3e5	0.0087213265
15	0xbe3040da	-0.17212239
16	0xbde4a2d1	-0.11163867
17	0xbd4cba7e	-0.04998254
18	0x3d2d28d6	0.042275272
19	0xbe3451f7	-0.17609392
20	0x3c36ad96	0.011149785
21	0x3d428f6d	0.047500063
22	0x3dba7ecc	0.09106216
23	0xbd5b2c5e	-0.05350911
24	0x3c968bd0	0.018377215
25	0xbe1244e8	-0.14284098
26	0x3d8f27b4	0.06989995
27	0x3dc07420	0.09397149
28	0x3dea8127	0.11450415
29	0x3e10b4e5	0.14131506
30	0x3ddfe6a8	0.10932666
31	0xbca31ce7	-0.019911243
32	0x3e2d7b16	0.16941485
33	0x3cf47f86	0.029845964
34	0x3dca0cca	0.098657206
35	0x3e0662b8	0.13123596
36	0xbe0d27f9	-0.1378478
37	0xbd2be189	-0.041963134
38	0x3db36655	0.08759753
39	0x3ddb235c	0.10700104
40	0xbdc940aa	-0.09826787
41	0xbe28608a	-0.16443077
42	0xbca680a3	-0.02032501
43	0xbe047180	-0.12933922
44	0xbd9745a0	-0.07386327
45	0x3e1d826f	0.15381788
46	0x3d0c61c7	0.034272935
47	0x3d4f2e7e	0.050581448
48	0xbc571038	-0.013126425
49	0x3df8df5f	0.1215198
50	0x3c6ac3bf	0.014328896
51	0xbd26813f	-0.040650602
52	0xbd0363b1	-0.032077495
53	0xbdffdc5d	-0.12493203
54	0xbda7fe35	-0.08202783
55	0xbe20664f	-0.15664028
56	0x3db46bcb	0.088096224
57	0xbe056d44	-0.13029963
58	0x3d6dc0e4	0.058045283
59	0xbbf86ae3	-0.0075811013
60	0xbcef3ccd	-0.029203797
61	0x3c4328b5	0.011911561
62	0x3d729572	0.059224553
63	0x3e26cef3	0.16289882
64	0x3d4ca9af	0.04996651
65	0xbdcdbde9	-0.10045988
66	0x3e0fa393	0.14027242
67	0x3dea5bc2	0.11443283
68	0xbca47c6c	-0.02007886
69	0xbe093de5	-0.13402517
70	0x3e0ce601	0.13759615
71	0xbdafaddb	-0.08578082
72	0x3e08354f	0.13301586
73	0xbe2049f6	-0.15653214
74	0xbda15706	-0.078779265
75	0xbdd9647e	-0.106148705
76	0x3e246d97	0.1605743
77	0xbd1033ea	-0.03520576
78	0x3d64d629	0.0558683
79	0x3d3b3c90	0.045712054
80	0xbabd9034	-0.0014462532
81	0xbda8793c	-0.082262486
82	0x3dc06def	0.09395968
83	0xbe01d8db	-0.1268038
84	0xbe0b3823	-0.13595633
85	0xbe1cce95	-0.1531318
86	0xbe016823	-0.12637381
87	0x3db20e4e	0.08694135
88	0x3d47a04b	0.04873685
89	0xbd7ae210	-0.061250746
90	0xbd49f40c	-0.049305007
91	0x3db4caa0	0.0882771
92	0xbd8261e6	-0.06366329
93	0xbe0c2f89	-0.13690008
94	0x3da76546	0.08173613
95	0x3d06ba0c	0.032892272
96	0xbe34e197	-0.1766418
97	0x3cc75831	0.024334045
98	0xbacbd73f	-0.0015551819
99	0x3cb50891	0.022098811
100	0xbd5ad65a	-0.053427078
101	0x3d2a6aea	0.041605867
102	0xbcd8c5cc	-0.026461504
103	0x3dd6215f	0.10455584
104	0x3d9fe064	0.07806471
105	0xbe0a1f52	-0.1348851
106	0x3cd70e2f	0.02625188
107	0x3dbf93bf	0.09354352
108	0x3e036377	0.12830912
109	0xbdbd5a37	-0.09245723
110	0xbd6505b6	-0.05591365
111	0x3e0b3c35	0.13597186
112	0x3bad1449	0.005281959
113	0x3d6fb5ce	0.05852299
114	0x3e2b612b	0.16736285
115	0xbd742783	-0.059607994
116	0x3d23e8a6	0.040016793
117	0xbd7c76e8	-0.061636835
118	0x3e03850d	0.12843724
119	0x3b5b5f16	0.0033473424
120	0xbc9fed28	-0.019522265
121	0xbd8223c7	-0.0635448
122	0xbe31fe3d	-0.1738214
123	0x3e2081de	0.1567454
124	0x3e3808fa	0.17972174
125	0x3df24e22	0.11831309
126	0x3d83d7c5	0.06437639
127	0xbddda70a	-0.10822876
128	0x3a230d06	0.0006219897
129	0x3d3fa53d	0.046788443
130	0x3dd27690	0.1027652
131	0x3a016bf4	0.0004937046
132	0x3d79057b	0.060796242
133	0xbdbe648c	-0.092965215
134	0xbe1609c0	-0.14652157
135	0x3df6775a	0.12034483
136	0xbdccaf59	-0.099943824
137	0xbdd90cb1	-0.10598124
138	0x3b66607d	0.0035152726
139	0x3e30e579	0.17275037
140	0x3df69926	0.120409295
141	0xbdd43f52	-0.1036364
142	0x3e0fa496	0.14027628
143	0x3d34411b	0.044007402
144	0x3d51adc7	0.051191118
145	0x3d7d15de	0.061788432
146	0x3d900bb7	0.070334844
147	0xbdec2195	-0.11529843
148	0x3de6a845	0.112625636
149	0x3e005e10	0.12535882
150	0x3e272878	0.16324031
151	0x3cfc716e	0.030815806
152	0xbe08a710	-0.1334498
153	0xbe273be5	-0.16331442
154	0xbd945547	-0.07242828
155	0xbe078611	-0.13234736
156	0x3d62e9a2	0.05539859
157	0xbd7066c6	-0.058691762
158	0x3e06c933	0.13162689
159	0xbcdaf741	-0.026729228
160	0x3d058d46	0.032605432
161	0xbdc80870	-0.09767234
162	0xbe01b930	-0.126683
163	0xbda58752	-0.08082451
164	0x3c852fec	0.016258202
165	0x3d0e367c	0.03471993
166	0xbe21015c	-0.15723175
167	0xbdf0e7e8	-0.117629826
168	0xbe31ced5	-0.17364056
169	0x3e143f8f	0.1447737
170	0xbdf8d031	-0.12149084
171	0xbe2e6e17	-0.17034183
172	0xbce0fcd1	-0.027464302
173	0xbda09cf5	-0.07842437
174	0xbcde5cab	-0.027143797
175	0x3dd99d9e	0.10625766
176	0x3e18a0cb	0.14905088
177	0x3ddd5586	0.10807328
178	0x3d874b20	0.06606126
179	0xbd74e92e	-0.05979269
180	0x3deb0b80	0.11476803
181	0x3e1201c8	0.14258492
182	0xbe021f3b	-0.12707226
183	0x3d6a7603	0.05724145
184	0x3d86f096	0.06588857
185	0x3ddea104	0.10870555
186	0xbe0c0503	-0.13673787
187	0x3dbd27ec	0.0923613
188	0x3ca70354	0.02038733
189	0x3e1b67cc	0.15176314
190	0xbd7a026b	-0.061037462
191	0x3e1ca929	0.15298904
192	0xbd962e99	-0.073331065
193	0x3e02a466	0.12758026
194	0xbc1bee3b	-0.009517248
195	0xbce9ba09	-0.028531091
196	0x3e0bde32	0.1365898
197	0x3d457416	0.04820641
198	0xbdcee080	-0.10101414
199	0x3e0c83b4	0.13722116
200	0x3dde07e4	0.10841349
201	0x3d9f3c8e	0.07775222
202	0xbe1cd7eb	-0.15316741
203	0x3e22e437	0.1590737
204	0xbc3fa15a	-0.011696184
205	0xbac7d7da	-0.0015246824
206	0xbcfd68b8	-0.030933723
207	0x3cce4184	0.025177725
208	0x3e224776	0.15847573
209	0x3d828676	0.06373303
210	0x3d7af295	0.0612665
211	0xbd4eae42	-0.050459154
212	0x3dd32fe9	0.103118725
213	0xbdb7fd79	-0.08983893
214	0xbc0420e0	-0.008064479
215	0xbe28b93a	-0.16476908
216	0xbe023555	-0.12715657
217	0xbdcccd99	-0.10000152
218	0xbde54b72	-0.11196031
219	0xbcc56651	-0.02409664
220	0x3d7cfcd6	0.06176456
221	0x3da9b085	0.082856216
222	0x3de2aa4f	0.1106764
223	0x3da2a9ec	0.07942566
224	0xbc20c89a	-0.009813452
225	0x3e3d0462	0.18458703
226	0x3c0f4a5a	0.008745754
227	0x3dba309e	0.09091304
228	0xbdb152da	-0.08658381
229	0x3dbfbbe4	0.09362009
230	0x3e1d6a8b	0.15372674
231	0x3c05a2ed	0.00815652
232	0x3e06134f	0.13093303
233	0x3d9818c8	0.07426602
234	0x3d9d3aaa	0.07677205
235	0x3d1c02cf	0.038088616
236	0x3d8fc6e2	0.07020356
237	0x3d86501b	0.06558248
238	0xbd4f6209	-0.050630603
239	0x3decc994	0.115618855
240	0x3df82b18	0.121175945
241	0xbda84019	-0.08215351
242	0x3dcec3df	0.10095953
243	0x3ccd7a21	0.02508265
244	0xbe2ead09	-0.17058195
245	0xbda66595	-0.08124844
246	0x3cd8edab	0.026480516
247	0x3dddf9f1	0.10838688
248	0x3e140a67	0.14457093
249	0xbc92d7b9	-0.01792513
250	0x3bc0ac7e	0.0058799377
251	0xbd49cd39	-0.04926798
252	0x3d9efb9b	0.07762834
253	0x3dfa21ba	0.12213464
254	0xbe2a2248	-0.1661464
255	0x3c103f33	0.00880413

emb_net.v_lins1.3.bias f4 [32]
0	0xbe05e8e7	-0.13077126
1	0xbe2d4950	-0.16922498
2	0x3debaa8c	0.115071386
3	0xbcb8e1e4	-0.02256865
4	0x3c115989	0.0088714445
5	0xbd5021db	-0.050813537
6	0x3e1c4bc5	0.15263279
7	0x3ddfdbc6	0.1093059
8	0xbe0a3f50	-0.13500714
9	0x3dd1174e	0.10209523
10	0x3e24e93c	0.16104597
11	0xbd81d2c9	-0.06339032
12	0x3e113501	0.14180376
13	0x3d994c11	0.07485212
14	0x3e0ceeb9	0.1376294
15	0xbe0791d4	-0.13239223
16	0x3d8d4b00	0.06899071
17	0xbd056284	-0.032564655
18	0x3e074380	0.13209343
19	0x3daac09c	0.083375186
20	0xbdec3424	-0.115333825
21	0x3e08e3ba	0.13368121
22	0x3d9bd3d4	0.076087624
23	0x3c58654d	0.013207746
24	0xbd11a6cf	-0.03555947
25	0xbdbc80b4	-0.09204236
26	0x3d34aa90	0.044107974
27	0xbe1f2f1d	-0.15545316
28	0xbe110f21	-0.14165927
29	0xbc86ebff	-0.016469954
30	0x3d497dee	0.04919236
31	0x3db79f06	0.08965878

emb_net.v_lins1.4.weight f4 [32, 32]
0	0x3abfc57d	0.0014631
1	0xbdbb1bf1	-0.09136189
2	0xbbdb36d3	-0.006689885
3	0x3d32574c	0.043540284
4	0x3ccfbb2a	0.025357801
5	0xbd473582	-0.048635013
6	0x3e0cb7f4	0.13742048
7	0xbde0d18f	-0.1097747
8	0xbe1c70c0	-0.15277386
9	0x3db984af	0.090585105
10	0xbe2f7724	-0.17135292
11	0xbde68772	-0.11256303
12	0x3d6d5fd5	0.05795272
13	0xbdae185a	-0.085007384
14	0xbdb3d5a5	-0.08780984
15	0xbbda0116	-0.0066529615
16	0x3d44902a	0.047989048
17	0xbdd813b7	-0.10550635
18	0xbd8e95c1	-0.06962157
19	0x3da14426	0.078743264
20	0xbe3927a4	-0.18081528
21	0xbd5d41b7	-0.05401775
22	0x3dd7ab5d	0.10530732
23	0xbcba2fa4	-0.022727795
24	0xbde34449	-0.11097009
25	0x3d70876e	0.058722906
26	0x3c3f526f	0.011677369
27	0x3d2f33ba	0.04277394
28	0xbe15d20c	-0.14630908
29	0xbe13ab58	-0.14420831
30	0x3dfa202c	0.122131675
31	0x3d274ed0	0.040846646
32	0x3d87166e	0.06596075
33	0x3d2f87c3	0.04285408
34	0xbd8bf5e7	-0.068340115
35	0xbcc841d5	-0.024445454
36	0x3d113e7c	0.03545998
37	0x3e33aeb1	0.17547108
38	0xbdbdc06f	-0.092652194
39	0x3dda11f8	0.106479585
40	0x3d473fbf	0.048644777
41	0x3d55a834	0.052162364
42	0xbe304635	-0.17214282
43	0x3dba7c55	0.09105746
44	0xbe0c9bb8	-0.13731277
45	0x3ce281fe	0.027649876
46	0xbc812458	-0.0157644
47	0xbdc5df97	-0.09661787
48	0x3cece99c	0.028919987
49	0x3e075fd2	0.13220146
50	0xbdc6868e	-0.09693633
51	0x3cf3e84e	0.029773857
52	0x3d5421af	0.051789936
53	0xbd8ca6a5	-0.068677224
54	0xbbf60558	-0.0075079612
55	0x3d79627c	0.060884938
56	0xbe2996bb	-0.16561405
57	0xbe214945	-0.15750606
58	0xbdca4b9e	-0.09877704
59	0x3cd8dfb9	0.026473867
60	0xbd8cc511	-0.06873525
61	0x3e214e80	0.15752602
62	0xbb97afe5	-0.0046291226
63	0xbd11f98f	-0.03563839
64	0xbe0e7059	-0.13910045
65	0x3d9a3ccb	0.075311266
66	0x3e29676f	0.16543363
67	0xbe34137a	-0.17585555
68	0xbdd47dde	-0.1037557
69	0x3e284eac	0.16436261
70	0x3da1491f	0.07875275
71	0x3d9cf4a7	0.07663851
72	0xbd5931fa	-0.053026177
73	0xbaefbcd2	-0.0018290526
74	0xbd9c4e60	-0.07632136
75	0xbdd970d8	-0.10617226
76	0xbd9b85e2	-0.075938955
77	0xbe03a0b9	-0.1285428
78	0xbe28b4de	-0.16475245
79	0xbe18defb	-0.1492881
80	0xbccb42d5	-0.024812141
81	0xbdc05031	-0.09390295
82	0xbcf47ab5	-0.029843668
83	0x3dc02b00	0.093832016
84	0xbda0a43b	-0.078438245
85	0xbdf323e2	-0.118720785
86	0x3e1b5e47	0.15172683
87	0xbe22cbe9	-0.15898098
88	0xbdb9322a	-0.09042771
89	0x3dab0f99	0.083525844
90	0xbc02bb23	-0.007979187
91	0x3dbcea77	0.09224408
92	0x3df29d34	0.1184639
93	0x3dc97fa8	0.098388016
94	0x3de37a2d	0.111072876
95	0xbe0aea2c	-0.13565892
96	0x3e2a363e	0.16622254
97	0x3daf2787	0.08552461
98	0x3d7658cc	0.060143277
99	0xbddd770e	-0.108137235
100	0x3d019052	0.031631775
101	0x3e08ab44	0.13346583
102	0xbdd39b4a	-0.103323534
103	0x3d814619	0.06312198
104	0xbd62d80f	-0.05538183
105	0xbe0cc83a	-0.13748255
106	0x3d65c56d	0.056096483
107	0xbcef848b	-0.029238006
108	0x3cbf845b	0.023378542
109	0x3c076b22	0.008265289
110	0x3cc89f57	0.024490042
111	0x3dce5e07	0.10076528
112	0x3df17926	0.11790685
113	0xbd426aab	-0.047465008
114	0xbddd2da6	-0.107997224
115	0x3c010dc9	0.007876822
116	0xbdf8c7c4	-0.12147477
117	0xbd3a70df	-0.0455178
118	0x3e0ae482	0.13563731
119	0xbe3010fd	-0.1719398
120	0x3cfbc529	0.030733662
121	0xbde32e16	-0.110927746
122	0xbb08d030	-0.0020876043
123	0xbd0c3669	-0.034231577
124	0xbe1dd5b5	-0.15413554
125	0x3da0c17a	0.07849403
126	0x3d46749b	0.048451047
127	0xbcb20c07	-0.02173425
128	0xbba1ff30	-0.004943751
129	0xbe00fb56	-0.12595877
130	0xbdecaf0f	-0.11556827
131	0xbc8d9959	-0.017285036
132	0xbdc9ac9c	-0.09847376
133	0xbd40de6e	-0.047087125
134	0x3e14f148	0.14545166
135	0x3d864663	0.06556394
136	0xbce535ca	-0.02797975
137	0x3e1bd0e9	0.15216412
138	0x3dbee624	0.093212396
139	0xbcf885aa	-0.030337173
140	0x3df1a56b	0.11799129
141	0xbdf79306	-0.12088589
142	0xbd81761e	-0.06321357
143	0x3d726c26	0.05918517
144	0x3c4d7b5c	0.012541618
145	0xbba2ba73	-0.004966074
146	0xbd99d2f3	-0.075109385
147	0x3e010b2c	0.12601918
148	0xbd159da2	-0.036527283
149	0xbcc5e045	-0.024154792
150	0x3de6cee7	0.11269932
151	0xbd56805f	-0.052368518
152	0x3e10e20a	0.14148727
153	0x3d186bd6	0.037212215
154	0xbe2a5825	-0.16635187
155	0x3a7e4b69	0.0009700568
156	0xbbf48634	-0.0074622873
157	0x3d8163d8	0.06317872
158	0x3c8601f5	0.016358355
159	0xbd26c9ec	-0.04071991
160	0x3dcb5d19	0.09929866
161	0xbd458bc5	-0.048228998
162	0x3e05cc4b	0.13066213
163	0x3e26ee6c	0.16301888
164	0x3d313138	0.04325983
165	0xbd5e75b7	-0.05431148
166	0xbe0f7f28	-0.1401335
167	0x3d9d770b	0.07688721
168	0xbe22d61e	-0.15901992
169	0x3e045ab3	0.12925224
170	0xbe21aae1	-0.15787841
171	0xbd2428c5	-0.040077943
172	0xbe2fe76e	-0.17178127
173	0x3cd8a0d0	0.026443869
174	0x3de8d68b	0.11369046
175	0xbd21f329	-0.039538536
176	0xbdbf8332	-0.093511954
177	0xbacb92e5	-0.0015531449
178	0xbdab5532	-0.08365859
179	0x3de94534	0.113901526
180	0xbc921f55	-0.017837206
181	0x3dea8df9	0.114528604
182	0x3e1ad914	0.15121871
183	0xbca7d6ea	-0.020488221
184	0xbd509eae	-0.05093258
185	0xbd6bb035	-0.05754109
186	0xbdcdeb7f	-0.10054683
187	0x3c6c516d	0.01442371
188	0xbde58ee4	-0.11208895
189	0xbca65884	-0.02030588
190	0xbc566ce8	-0.013087489
191	0x3d0d69bb	0.03452466
192	0xbd86e8cf	-0.065873735
193	0xbe21d5e0	-0.15804243
194	0x3e0beb63	0.13664012
195	0xbdbc5560	-0.091959715
196	0xbd605d75	-0.054776628
197	0xbde0c567	-0.109751515
198	0xbe280aaf	-0.16410325
199	0xbca80f01	-0.020514967
200	0xbc1c973e	-0.009557543
201	0x3dd3e77b	0.10346886
202	0x3c138eb9	0.009006196
203	0x3e2d88ce	0.16946718
204	0x3c2a2d71	0.010386811
205	0xbe15705a	-0.1459364
206	0xbdb86f56	-0.09005611
207	0x3ddb3eb3	0.10705318
208	0xbd00036b	-0.03125326
209	0x3e027312	0.12739208
210	0xbd6d67ab	-0.057960194
211	0xbce768b7	-0.028248174
212	0x3e063f4b	0.13110082
213	0x3e3f1335	0.1865967
214	0xbcda7d51	-0.026671084
215	0xb7f425b7	-2.9104629e-05
216	0x3e2d281a	0.16909829
217	0xbdf02113	-0.117250584
218	0x3e288e20	0.16460466
219	0x3dc12df1	0.09432591
220	0x3d6fdffa	0.05856321
221	0x3e0b7e11	0.1362231
222	0xbd7da65d	-0.061926235
223	0x3dda7b7a	0.106680825
224	0x3e1b4deb	0.15166442
225	0xbc2e65c6	-0.010644382
226	0x3bd18f47	0.006395254
227	0xbdc8b7a8	-0.09800655
228	0xbd4c6cff	-0.049908634
229	0xbe19dafc	-0.15024942
230	0xbe0c9340	-0.13728046
231	0x3dfeac12	0.124351636
232	0xbe1950ea	-0.14972273
233	0xbe1203db	-0.14259283
234	0x3d1aab66	0.037761115
235	0xbb9dd234	-0.004816318
236	0x3da68be6	0.08132152
237	0x3df06aa2	0.117390886
238	0x3e15a0bf	0.14612101
239	0xbd02e5ba	-0.031957366
240	0xbcf8c22b	-0.030366024
241	0x3d80fa11	0.062976964
242	0xbdc5f125	-0.09665135
243	0xbdc2b8ac	-0.095078796
244	0x3cd91bb9	0.026502477
245	0x3d9213ca	0.07132681
246	0x3e2fad48	0.17155945
247	0x3dd4eb0d	0.10396395
248	0x3d071faa	0.03298918
249	0x3e16aa92	0.14713505
250	0xbcba01e3	-0.022705978
251	0x3e110504	0.1416207
252	0x3da6161e	0.08109687
253	0x3d56224e	0.05227881
254	0xbd2389e0	-0.03992641
255	0xbcd693dd	-0.026193554

emb_net.v_lins1.4.bias f4 [32]
0	0x3c80d654	0.0157272
1	0xbd8e75c6	-0.06956057
2	0xbe1a26d2	-0.15053871
3	0xbdd00d01	-0.1015873
4	0x3d633931	0.055474464
5	0xbc2db1ce	-0.010601474
6	0x3e1ee9f1	0.15518929
7	0xbdb4ab91	-0.08821786
8	0xbe04f673	-0.12984638
9	0x3d38db0b	0.04513077
10	0xbd4cda39	-0.0500128
11	0xbe21ff15	-0.15819962
12	0xbd7a23a3	-0.061069142
13	0xbdbda5ba	-0.092601255
14	0x3dd0b710	0.101911664
15	0x3d51a990	0.051187098
16	0xbd35d201	-0.04438973
17	0x3e0321bd	0.12805839
18	0x3d9c4fb1	0.076323874
19	0x3d7143d2	0.05890257
20	0xbdfcf30b	-0.12351044
21	0xbd36fc96	-0.04467448
22	0xbda4c4a0	-0.08045316
23	0xbcae5041	-0.021278502
24	0x3d8d701a	0.06906147
25	0x3e297400	0.16548157
26	0x3e2a337a	0.16621199
27	0xbddd3654	-0.10801378
28	0xbd271d18	-0.04079923
29	0x3d0a5237	0.033769812
30	0xbe21322d	-0.15741797
31	0x3e2d923b	0.16950314

emb_net.v_lins1.5.weight f4 [32, 32]
0	0xbd8aa343	-0.06769421
1	0xbdd736ff	-0.105085365
2	0x3e19e4ee	0.15028736
3	0xbdefe3b7	-0.11713355
4	0xbdc9b02a	-0.09848054
5	0x3e26b826	0.16281185
6	0x3d92fd88	0.071772635
7	0x3e09af67	0.13445817
8	0x3d9bf856	0.07615726
9	0xbd971b33	-0.07378235
10	0x3e16052a	0.14650407
11	0xbb39c06b	-0.002834345
12	0x3d99d97d	0.07512186
13	0x3c9312f1	0.017953368
14	0x3e1cd378	0.15315044
15	0xbe2873fb	-0.16450493
16	0xbd8034e5	-0.06260089
17	0x3df8e26d	0.12152562
18	0x3d249df2	0.04018969
19	0x3d02c2c9	0.031924043
20	0xbb72c8d0	-0.0037045963
21	0xbd656788	-0.05600694
22	0xbdcad3c0	-0.09903669
23	0xbd842b8e	-0.0645362
24	0xbe0a37d3	-0.13497858
25	0xbe1f2d7b	-0.15544693
26	0x3d922b8d	0.07137213
27	0xbd92dd23	-0.07171085
28	0x3e11a47e	0.14222905
29	0x3e1456c2	0.1448622
30	0xbdc67503	-0.09690287
31	0xbdf898c1	-0.121385105
32	0x3d694f71	0.056960527
33	0x3d42af8f	0.047530707
34	0x3d7587b9	0.05994389
35	0xbcb04fe5	-0.021522472
36	0xbcdd755c	-0.0270335
37	0xbdef4267	-0.11682587
38	0xbde3fdbb	-0.111323796
39	0x3de987e7	0.114028744
40	0xbe267f26	-0.16259441
41	0x3d442609	0.047887836
42	0x3df2941e	0.11844657
43	0xbd747c3d	-0.059688795
44	0x3dbf1b13	0.09331336
45	0xbe3732f3	-0.1789053
46	0xbda3ff88	-0.08007723
47	0xbe16c67c	-0.14724153
48	0xbc0751a0	-0.008259207
49	0xbcb96d0c	-0.022635005
50	0xbdc4c599	-0.09608001
51	0xbcd62b41	-0.026143672
52	0x3dd2677b	0.102736436
53	0xbdac0de8	-0.0840109
54	0xbd7dbf5d	-0.061950076
55	0xbe06f81d	-0.13180585
56	0xbd4296d6	-0.04750713
57	0xbd9d7e75	-0.076901354
58	0xbdebd4bd	-0.11515186
59	0xbdb18dc1	-0.086696155
60	0x3cc133f9	0.023584353
61	0x3e24d820	0.1609807
62	0x3d50af73	0.05094857
63	0x3d011345	0.031512517
64	0x3de3eb8c	0.111289114
65	0xbdf51ae2	-0.11968018
66	0xbe246e53	-0.1605771
67	0xbd2c821b	-0.042116266
68	0xbe0747c1	-0.13210966
69	0xbe07ddcc	-0.13268203
70	0xbd9c995d	-0.07646439
71	0x3e2f8dfb	0.17144005
72	0x3e0c1cb5	0.13682826
73	0xbe2c3267	-0.16816102
74	0xbe1d7743	-0.15377526
75	0x3e1ecc9b	0.15507738
76	0x3df80282	0.12109853
77	0x3d9f2230	0.077701926
78	0x3e1b2394	0.1515029
79	0xbd1d43f1	-0.038394872
80	0x3e2f4c95	0.17119057
81	0xbe1f694b	-0.1556751
82	0xbd8b450a	-0.068002775
83	0xbd8240e9	-0.06360037
84	0xbd39d493	-0.045368742
85	0xbcc08467	-0.023500634
86	0x3b7068b3	0.00366835
87	0x3e1160d0	0.14197087
88	0xbd68e8ac	-0.05686252
89	0x3d58bccc	0.052914426
90	0x3dea454f	0.11439001
91	0x3e1159fc	0.14194483
92	0x3c2fc914	0.010729093
93	0xbdfff6c0	-0.12498236
94	0x3d295ac0	0.04134631
95	0x3e1eb102	0.1549721
96	0xbd1bc1d9	-0.038026664
97	0xbc93650f	-0.017992524
98	0x3dc9e441	0.09857989
99	0xbe2a0f15	-0.16607316
100	0xbe0fdc7f	-0.14048956
101	0xbcbd3552	-0.023096714
102	0xbe1cf14f	-0.15326427
103	0xbdbeb39e	-0.09311603
104	0xbdd63e38	-0.10461086
105	0xbdc3160d	-0.0952569
106	0x3da3c7cc	0.079970926
107	0x3e379313	0.17927198
108	0xbd0f4286	-0.03497555
109	0xbe16cf16	-0.14727435
110	0x3dc4d55b	0.09611007
111	0x3e19ceca	0.1502029
112	0x3e1a24cd	0.15053101
113	0xbcaf192d	-0.02137431
114	0xbe235764	-0.15951306
115	0x3dd0fce1	0.10204483
116	0x3df42b5a	0.11922331
117	0x3dc3d5f2	0.09562291
118	0x3dd7a147	0.10528808
119	0xbdcd4f39	-0.10024876
120	0x3e0e03e0	0.13868666
121	0xbc933bd6	-0.017972868
122	0x3bfa2d48	0.0076347925
123	0x3d0bcbff	0.034130093
124	0x3d52b074	0.05143781
125	0x3d269417	0.040668573
126	0xbdc9e7b9	-0.09858651
127	0x3d7e745e	0.062122695
128	0xbe23ff62	-0.1601539
129	0x3bcceee6	0.006254065
130	0xbe1d0460	-0.153337
131	0xbdace28e	-0.084416494
132	0x3d3e550c	0.046467826
133	0xbe283328	-0.16425765
134	0xbdd85d67	-0.1056469
135	0xbba46f56	-0.005018155
136	0x3ce55514	0.02799467
137	0xbd6456a0	-0.055746675
138	0x3dc025f4	0.09382239
139	0x3c700804	0.014650349
140	0xbd3d56e7	-0.046225455
141	0x3e1056fe	0.14095685
142	0xbcb93cec	-0.022612058
143	0x3d264a20	0.040598035
144	0xbdfda29c	-0.12384531
145	0x3e0d1900	0.13779068
146	0x3e193ae1	0.14963867
147	0xbd97366c	-0.07383427
148	0x3dcc4271	0.0997361
149	0x3e04a799	0.12954558
150	0x3c986f62	0.018607799
151	0xbbf3a178	-0.00743502
152	0xbdb4bfc5	-0.0882564
153	0x3d9ac9d8	0.0755803
154	0xbdc24c4d	-0.094872095
155	0xbd95aad2	-0.07307972
156	0xbe22ecde	-0.1591067
157	0xbd89adc2	-0.06722595
158	0xbc849147	-0.016182555
159	0x3da1a2ad	0.07892356
160	0xbcad9656	-0.02118985
161	0xbdd6541d	-0.10465262
162	0x3e1111d1	0.14166953
163	0xbe1f5f02	-0.15563586
164	0xbc31e880	-0.010858655
165	0xbe1dfe97	-0.1542915
166	0x3e3821b7	0.17981611
167	0xbd20b390	-0.039233744
168	0x3d3c1351	0.04591686
169	0x3e2700ea	0.16308942
170	0x3d4eaf5e	0.050460212
171	0x3d81a1dc	0.063297
172	0x3d26ae5a	0.04069362
173	0xbcc07896	-0.023495
174	0xbe1d5618	-0.15364873
175	0x3ceda765	0.029010484
176	0x3cf7c37e	0.030244585
177	0x3d498a0d	0.04920392
178	0xbdeadc31	-0.114677794
179	0xbd4a5cf3	-0.04940505
180	0xbe0da93f	-0.13834094
181	0xbdb65a22	-0.0890391
182	0xbd15bea7	-0.036558773
183	0x3e182814	0.14859039
184	0x3d594d6e	0.05305236
185	0xbe2a17da	-0.16610661
186	0x3e103407	0.14082347
187	0x3da43de5	0.08019618
188	0x3cec1213	0.028817212
189	0x3dd24b86	0.10268311
190	0xbe06f727	-0.13180219
191	0x3dcc71b4	0.09982625
192	0xbddf08ea	-0.10890372
193	0xbe0045d5	-0.12526639
194	0x3d64296a	0.055703558
195	0x3d764b45	0.060130376
196	0xbe1f7d3c	-0.15575117
197	0x3e23163c	0.1592645
198	0x3d8c18cb	0.068406664
199	0x3dde35e0	0.108501196
200	0x3de5eef3	0.112272166
201	0x3dd85d47	0.10564666
202	0xbdb7235b	-0.089422904
203	0x3e118180	0.14209557
204	0x3d9a49b8	0.07533592
205	0x3e2290ed	0.15875597
206	0xbe112a66	-0.1417633
207	0x3aa97ee6	0.0012931495
208	0x3d67d488	0.05659917
209	0xbd04b93e	-0.032403223
210	0xbde50b58	-0.11183804
211	0x3df7ff7e	0.12109278
212	0x3d57cf4c	0.052687928
213	0xbdf82a18	-0.12117404
214	0xbe0a137b	-0.13483994
215	0x3cdebbe8	0.02718921
216	0xbe197edf	-0.14989804
217	0xbd596dd2	-0.05308325
218	0xbce566ad	-0.028003061
219	0xbc149f48	-0.009071179
220	0xbe15ae94	-0.14617378
221	0x3d0c9940	0.034325838
222	0xbd991db6	-0.0747637
223	0xbe07f5d4	-0.1327737
224	0x3e305cc7	0.17222892
225	0xbdb6ba4f	-0.08922254
226	0xbd40e9f7	-0.047098126
227	0xbc8b90f6	-0.017036896
228	0x3ca23212	0.019799266
229	0x3a4f8461	0.00079161493
230	0xbc871426	-0.0164891
231	0x3d1de646	0.038549684
232	0x3dcc443f	0.099739544
233	0xbdd4ed29	-0.10396797
234	0x3dc8eb34	0.098104864
235	0x3daaeb61	0.08345676
236	0x3dcc4c2c	0.09975466
237	0x3caa500e	0.020790126
238	0xbe2082ef	-0.15674947
239	0x3e09155e	0.13387057
240	0x3e0a5273	0.13508014
241	0xbe221e6f	-0.15831922
242	0xbdde070f	-0.1084119
243	0x3e248247	0.16065322
244	0x3df68306	0.120367095
245	0x3db6cf82	0.08926298
246	0xbe2fd288	-0.17170155
247	0x3db2b517	0.087259464
248	0xbdca6852	-0.09883179
249	0x3d606b59	0.054789875
250	0xbd930cdf	-0.07180189
251	0x3e1233e9	0.14277615
252	0x3cc8fc6b	0.024534425
253	0x3d10cba1	0.035350446
254	0x3d766fed	0.060165334
255	0xbda7d990	-0.08195794

emb_net.v_lins1.5.bias f4 [32]
0	0x3b0977a8	0.0020975862
1	0x3dc1d4de	0.09464429
2	0x3d80cdc7	0.06289249
3	0xbdfd13d3	-0.12357297
4	0xbd51efab	-0.051253956
5	0xbe0ddf02	-0.13854602
6	0xbd56df49	-0.052459035
7	0x3d9e66d8	0.0773446
8	0x3e23b337	0.15986334
9	0x3dcb4d4f	0.09926855
10	0x3c3848fb	0.011247869
11	0xbd9a5b0b	-0.07536896
12	0x3cc930f8	0.024559483
13	0x3dc9a02e	0.09845005
14	0xbdc5ce9f	-0.096585505
15	0xbe2048fd	-0.15652843
16	0xbd22b21e	-0.039720647
17	0x3dad0646	0.08448462
18	0x3e236036	0.1595467
19	0xbe15e4d5	-0.14638074
20	0x3d20f3bd	0.039294947
21	0x3e2bf1fd	0.1679153
22	0x3d015fd0	0.031585515
23	0x3dd0ff62	0.102049604
24	0xbb6ad322	-0.0035831411
25	0xbd0ebf85	-0.034850616
26	0x3ded0e6c	0.115750164
27	0xbd0c62f3	-0.034274053
28	0xbe29d1fe	-0.16584012
29	0xbcfb49da	-0.030674864
30	0xbe08caf5	-0.13358672
31	0xbcd97408	-0.026544586
